…
I0707 15:54:45.579748 13370 net.cpp:276] The NetState phase (0) differed from the phase (1) specified by a rule in layer loss3/top-5
I0707 15:54:45.581099 13370 net.cpp:39] Initializing net from parameters: 
name: "GoogLeNet_bn"
layers {
  top: "data"
  top: "label"
  name: "data"
  type: DATA
  data_param {
    source: "/media/data1/image/ilsvrc12/ilsvrc12_train_lmdb"
    batch_size: 32
    backend: LMDB
    shuffle: true
  }
  include {
    phase: TRAIN
  }
  transform_param {
    mirror: true
    crop_size: 224
    mean_file: "/media/data1/image/ilsvrc12/imagenet_mean.binaryproto"
  }
}
layers {
  bottom: "data"
  top: "conv1/7x7_s2"
  name: "conv1/7x7_s2"
  type: CONVOLUTION
  blobs_lr: 1
  weight_decay: 1
  convolution_param {
    num_output: 64
    bias_term: false
    pad: 3
    kernel_size: 7
    stride: 2
    weight_filler {
      type: "xavier"
    }
  }
}
layers {
  bottom: "conv1/7x7_s2"
  top: "conv1/7x7_s2/bn"
  name: "conv1/7x7_s2/bn"
  type: BN
  blobs_lr: 1
  blobs_lr: 1
  weight_decay: 0
  weight_decay: 0
  bn_param {
    scale_filler {
      type: "constant"
      value: 1
    }
    shift_filler {
      type: "constant"
      value: 0
    }
  }
}
layers {
  bottom: "conv1/7x7_s2/bn"
  top: "conv1/7x7_s2/bn"
  name: "conv1/relu_7x7"
  type: RELU
}
layers {
  bottom: "conv1/7x7_s2/bn"
  top: "pool1/3x3_s2"
  name: "pool1/3x3_s2"
  type: POOLING
  pooling_param {
    pool: MAX
    kernel_size: 3
    stride: 2
  }
}
layers {
  bottom: "pool1/3x3_s2"
  top: "conv2/3x3_reduce"
  name: "conv2/3x3_reduce"
  type: CONVOLUTION
  blobs_lr: 1
  weight_decay: 1
  convolution_param {
    num_output: 64
    bias_term: false
    kernel_size: 1
    weight_filler {
      type: "xavier"
    }
  }
}
layers {
  bottom: "conv2/3x3_reduce"
  top: "conv2/3x3_reduce/bn"
  name: "conv2/3x3_reduce/bn"
  type: BN
  blobs_lr: 1
  blobs_lr: 1
  weight_decay: 0
  weight_decay: 0
  bn_param {
    scale_filler {
      type: "constant"
      value: 1
    }
    shift_filler {
      type: "constant"
      value: 0
    }
  }
}
layers {
  bottom: "conv2/3x3_reduce/bn"
  top: "conv2/3x3_reduce/bn"
  name: "conv2/relu_3x3_reduce"
  type: RELU
}
layers {
  bottom: "conv2/3x3_reduce/bn"
  top: "conv2/3x3"
  name: "conv2/3x3"
  type: CONVOLUTION
  blobs_lr: 1
  weight_decay: 1
  convolution_param {
    num_output: 192
    bias_term: false
    pad: 1
    kernel_size: 3
    weight_filler {
      type: "xavier"
    }
  }
}
layers {
  bottom: "conv2/3x3"
  top: "conv2/3x3/bn"
  name: "conv2/3x3/bn"
  type: BN
  blobs_lr: 1
  blobs_lr: 1
  weight_decay: 0
  weight_decay: 0
  bn_param {
    scale_filler {
      type: "constant"
      value: 1
    }
    shift_filler {
      type: "constant"
      value: 0
    }
  }
}
layers {
  bottom: "conv2/3x3/bn"
  top: "conv2/3x3/bn"
  name: "conv2/relu_3x3"
  type: RELU
}
layers {
  bottom: "conv2/3x3/bn"
  top: "pool2/3x3_s2"
  name: "pool2/3x3_s2"
  type: POOLING
  pooling_param {
    pool: MAX
    kernel_size: 3
    stride: 2
  }
}
layers {
  bottom: "pool2/3x3_s2"
  top: "inception_3a/1x1"
  name: "inception_3a/1x1"
  type: CONVOLUTION
  blobs_lr: 1
  weight_decay: 1
  convolution_param {
    num_output: 64
    bias_term: false
    kernel_size: 1
    weight_filler {
      type: "xavier"
    }
  }
}
layers {
  bottom: "inception_3a/1x1"
  top: "inception_3a/1x1/bn"
  name: "inception_3a/1x1/bn"
  type: BN
  blobs_lr: 1
  blobs_lr: 1
  weight_decay: 0
  weight_decay: 0
  bn_param {
    scale_filler {
      type: "constant"
      value: 1
    }
    shift_filler {
      type: "constant"
      value: 0
    }
  }
}
layers {
  bottom: "inception_3a/1x1/bn"
  top: "inception_3a/1x1/bn"
  name: "inception_3a/relu_1x1"
  type: RELU
}
layers {
  bottom: "pool2/3x3_s2"
  top: "inception_3a/3x3_reduce"
  name: "inception_3a/3x3_reduce"
  type: CONVOLUTION
  blobs_lr: 1
  weight_decay: 1
  convolution_param {
    num_output: 96
    bias_term: false
    kernel_size: 1
    weight_filler {
      type: "xavier"
    }
  }
}
layers {
  bottom: "inception_3a/3x3_reduce"
  top: "inception_3a/3x3_reduce/bn"
  name: "inception_3a/3x3_reduce/bn"
  type: BN
  blobs_lr: 1
  blobs_lr: 1
  weight_decay: 0
  weight_decay: 0
  bn_param {
    scale_filler {
      type: "constant"
      value: 1
    }
    shift_filler {
      type: "constant"
      value: 0
    }
  }
}
layers {
  bottom: "inception_3a/3x3_reduce/bn"
  top: "inception_3a/3x3_reduce/bn"
  name: "inception_3a/relu_3x3_reduce"
  type: RELU
}
layers {
  bottom: "inception_3a/3x3_reduce/bn"
  top: "inception_3a/3x3"
  name: "inception_3a/3x3"
  type: CONVOLUTION
  blobs_lr: 1
  weight_decay: 1
  convolution_param {
    num_output: 128
    bias_term: false
    pad: 1
    kernel_size: 3
    weight_filler {
      type: "xavier"
    }
  }
}
layers {
  bottom: "inception_3a/3x3"
  top: "inception_3a/3x3/bn"
  name: "inception_3a/3x3/bn"
  type: BN
  blobs_lr: 1
  blobs_lr: 1
  weight_decay: 0
  weight_decay: 0
  bn_param {
    scale_filler {
      type: "constant"
      value: 1
    }
    shift_filler {
      type: "constant"
      value: 0
    }
  }
}
layers {
  bottom: "inception_3a/3x3/bn"
  top: "inception_3a/3x3/bn"
  name: "inception_3a/relu_3x3"
  type: RELU
}
layers {
  bottom: "pool2/3x3_s2"
  top: "inception_3a/5x5_reduce"
  name: "inception_3a/5x5_reduce"
  type: CONVOLUTION
  blobs_lr: 1
  weight_decay: 1
  convolution_param {
    num_output: 16
    bias_term: false
    kernel_size: 1
    weight_filler {
      type: "xavier"
    }
  }
}
layers {
  bottom: "inception_3a/5x5_reduce"
  top: "inception_3a/5x5_reduce/bn"
  name: "inception_3a/5x5_reduce/bn"
  type: BN
  blobs_lr: 1
  blobs_lr: 1
  weight_decay: 0
  weight_decay: 0
  bn_param {
    scale_filler {
      type: "constant"
      value: 1
    }
    shift_filler {
      type: "constant"
      value: 0
    }
  }
}
layers {
  bottom: "inception_3a/5x5_reduce/bn"
  top: "inception_3a/5x5_reduce/bn"
  name: "inception_3a/relu_5x5_reduce"
  type: RELU
}
layers {
  bottom: "inception_3a/5x5_reduce/bn"
  top: "inception_3a/5x5"
  name: "inception_3a/5x5"
  type: CONVOLUTION
  blobs_lr: 1
  weight_decay: 1
  convolution_param {
    num_output: 32
    bias_term: false
    pad: 2
    kernel_size: 5
    weight_filler {
      type: "xavier"
    }
  }
}
layers {
  bottom: "inception_3a/5x5"
  top: "inception_3a/5x5/bn"
  name: "inception_3a/5x5/bn"
  type: BN
  blobs_lr: 1
  blobs_lr: 1
  weight_decay: 0
  weight_decay: 0
  bn_param {
    scale_filler {
      type: "constant"
      value: 1
    }
    shift_filler {
      type: "constant"
      value: 0
    }
  }
}
layers {
  bottom: "inception_3a/5x5/bn"
  top: "inception_3a/5x5/bn"
  name: "inception_3a/relu_5x5"
  type: RELU
}
layers {
  bottom: "pool2/3x3_s2"
  top: "inception_3a/pool"
  name: "inception_3a/pool"
  type: POOLING
  pooling_param {
    pool: MAX
    kernel_size: 3
    stride: 1
    pad: 1
  }
}
layers {
  bottom: "inception_3a/pool"
  top: "inception_3a/pool_proj"
  name: "inception_3a/pool_proj"
  type: CONVOLUTION
  blobs_lr: 1
  weight_decay: 1
  convolution_param {
    num_output: 32
    bias_term: false
    kernel_size: 1
    weight_filler {
      type: "xavier"
    }
  }
}
layers {
  bottom: "inception_3a/pool_proj"
  top: "inception_3a/pool_proj/bn"
  name: "inception_3a/pool_proj/bn"
  type: BN
  blobs_lr: 1
  blobs_lr: 1
  weight_decay: 0
  weight_decay: 0
  bn_param {
    scale_filler {
      type: "constant"
      value: 1
    }
    shift_filler {
      type: "constant"
      value: 0
    }
  }
}
layers {
  bottom: "inception_3a/pool_proj/bn"
  top: "inception_3a/pool_proj/bn"
  name: "inception_3a/relu_pool_proj"
  type: RELU
}
layers {
  bottom: "inception_3a/1x1/bn"
  bottom: "inception_3a/3x3/bn"
  bottom: "inception_3a/5x5/bn"
  bottom: "inception_3a/pool_proj/bn"
  top: "inception_3a/output"
  name: "inception_3a/output"
  type: CONCAT
}
layers {
  bottom: "inception_3a/output"
  top: "inception_3b/1x1"
  name: "inception_3b/1x1"
  type: CONVOLUTION
  blobs_lr: 1
  weight_decay: 1
  convolution_param {
    num_output: 128
    bias_term: false
    kernel_size: 1
    weight_filler {
      type: "xavier"
    }
  }
}
layers {
  bottom: "inception_3b/1x1"
  top: "inception_3b/1x1/bn"
  name: "inception_3b/1x1/bn"
  type: BN
  blobs_lr: 1
  blobs_lr: 1
  weight_decay: 0
  weight_decay: 0
  bn_param {
    scale_filler {
      type: "constant"
      value: 1
    }
    shift_filler {
      type: "constant"
      value: 0
    }
  }
}
layers {
  bottom: "inception_3b/1x1/bn"
  top: "inception_3b/1x1/bn"
  name: "inception_3b/relu_1x1"
  type: RELU
}
layers {
  bottom: "inception_3a/output"
  top: "inception_3b/3x3_reduce"
  name: "inception_3b/3x3_reduce"
  type: CONVOLUTION
  blobs_lr: 1
  weight_decay: 1
  convolution_param {
    num_output: 128
    bias_term: false
    kernel_size: 1
    weight_filler {
      type: "xavier"
    }
  }
}
layers {
  bottom: "inception_3b/3x3_reduce"
  top: "inception_3b/3x3_reduce/bn"
  name: "inception_3b/3x3_reduce/bn"
  type: BN
  blobs_lr: 1
  blobs_lr: 1
  weight_decay: 0
  weight_decay: 0
  bn_param {
    scale_filler {
      type: "constant"
      value: 1
    }
    shift_filler {
      type: "constant"
      value: 0
    }
  }
}
layers {
  bottom: "inception_3b/3x3_reduce/bn"
  top: "inception_3b/3x3_reduce/bn"
  name: "inception_3b/relu_3x3_reduce"
  type: RELU
}
layers {
  bottom: "inception_3b/3x3_reduce/bn"
  top: "inception_3b/3x3"
  name: "inception_3b/3x3"
  type: CONVOLUTION
  blobs_lr: 1
  weight_decay: 1
  convolution_param {
    num_output: 192
    bias_term: false
    pad: 1
    kernel_size: 3
    weight_filler {
      type: "xavier"
    }
  }
}
layers {
  bottom: "inception_3b/3x3"
  top: "inception_3b/3x3/bn"
  name: "inception_3b/3x3/bn"
  type: BN
  blobs_lr: 1
  blobs_lr: 1
  weight_decay: 0
  weight_decay: 0
  bn_param {
    scale_filler {
      type: "constant"
      value: 1
    }
    shift_filler {
      type: "constant"
      value: 0
    }
  }
}
layers {
  bottom: "inception_3b/3x3/bn"
  top: "inception_3b/3x3/bn"
  name: "inception_3b/relu_3x3"
  type: RELU
}
layers {
  bottom: "inception_3a/output"
  top: "inception_3b/5x5_reduce"
  name: "inception_3b/5x5_reduce"
  type: CONVOLUTION
  blobs_lr: 1
  weight_decay: 1
  convolution_param {
    num_output: 32
    bias_term: false
    kernel_size: 1
    weight_filler {
      type: "xavier"
    }
  }
}
layers {
  bottom: "inception_3b/5x5_reduce"
  top: "inception_3b/5x5_reduce/bn"
  name: "inception_3b/5x5_reduce/bn"
  type: BN
  blobs_lr: 1
  blobs_lr: 1
  weight_decay: 0
  weight_decay: 0
  bn_param {
    scale_filler {
      type: "constant"
      value: 1
    }
    shift_filler {
      type: "constant"
      value: 0
    }
  }
}
layers {
  bottom: "inception_3b/5x5_reduce/bn"
  top: "inception_3b/5x5_reduce/bn"
  name: "inception_3b/relu_5x5_reduce"
  type: RELU
}
layers {
  bottom: "inception_3b/5x5_reduce/bn"
  top: "inception_3b/5x5"
  name: "inception_3b/5x5"
  type: CONVOLUTION
  blobs_lr: 1
  weight_decay: 1
  convolution_param {
    num_output: 96
    bias_term: false
    pad: 2
    kernel_size: 5
    weight_filler {
      type: "xavier"
    }
  }
}
layers {
  bottom: "inception_3b/5x5"
  top: "inception_3b/5x5/bn"
  name: "inception_3b/5x5/bn"
  type: BN
  blobs_lr: 1
  blobs_lr: 1
  weight_decay: 0
  weight_decay: 0
  bn_param {
    scale_filler {
      type: "constant"
      value: 1
    }
    shift_filler {
      type: "constant"
      value: 0
    }
  }
}
layers {
  bottom: "inception_3b/5x5/bn"
  top: "inception_3b/5x5/bn"
  name: "inception_3b/relu_5x5"
  type: RELU
}
layers {
  bottom: "inception_3a/output"
  top: "inception_3b/pool"
  name: "inception_3b/pool"
  type: POOLING
  pooling_param {
    pool: MAX
    kernel_size: 3
    stride: 1
    pad: 1
  }
}
layers {
  bottom: "inception_3b/pool"
  top: "inception_3b/pool_proj"
  name: "inception_3b/pool_proj"
  type: CONVOLUTION
  blobs_lr: 1
  weight_decay: 1
  convolution_param {
    num_output: 64
    bias_term: false
    kernel_size: 1
    weight_filler {
      type: "xavier"
    }
  }
}
layers {
  bottom: "inception_3b/pool_proj"
  top: "inception_3b/pool_proj/bn"
  name: "inception_3b/pool_proj/bn"
  type: BN
  blobs_lr: 1
  blobs_lr: 1
  weight_decay: 0
  weight_decay: 0
  bn_param {
    scale_filler {
      type: "constant"
      value: 1
    }
    shift_filler {
      type: "constant"
      value: 0
    }
  }
}
layers {
  bottom: "inception_3b/pool_proj/bn"
  top: "inception_3b/pool_proj/bn"
  name: "inception_3b/relu_pool_proj"
  type: RELU
}
layers {
  bottom: "inception_3b/1x1/bn"
  bottom: "inception_3b/3x3/bn"
  bottom: "inception_3b/5x5/bn"
  bottom: "inception_3b/pool_proj/bn"
  top: "inception_3b/output"
  name: "inception_3b/output"
  type: CONCAT
}
layers {
  bottom: "inception_3b/output"
  top: "pool3/3x3_s2"
  name: "pool3/3x3_s2"
  type: POOLING
  pooling_param {
    pool: MAX
    kernel_size: 3
    stride: 2
  }
}
layers {
  bottom: "pool3/3x3_s2"
  top: "inception_4a/1x1"
  name: "inception_4a/1x1"
  type: CONVOLUTION
  blobs_lr: 1
  weight_decay: 1
  convolution_param {
    num_output: 192
    bias_term: false
    kernel_size: 1
    weight_filler {
      type: "xavier"
    }
  }
}
layers {
  bottom: "inception_4a/1x1"
  top: "inception_4a/1x1/bn"
  name: "inception_4a/1x1/bn"
  type: BN
  blobs_lr: 1
  blobs_lr: 1
  weight_decay: 0
  weight_decay: 0
  bn_param {
    scale_filler {
      type: "constant"
      value: 1
    }
    shift_filler {
      type: "constant"
      value: 0
    }
  }
}
layers {
  bottom: "inception_4a/1x1/bn"
  top: "inception_4a/1x1/bn"
  name: "inception_4a/relu_1x1"
  type: RELU
}
layers {
  bottom: "pool3/3x3_s2"
  top: "inception_4a/3x3_reduce"
  name: "inception_4a/3x3_reduce"
  type: CONVOLUTION
  blobs_lr: 1
  weight_decay: 1
  convolution_param {
    num_output: 96
    bias_term: false
    kernel_size: 1
    weight_filler {
      type: "xavier"
    }
  }
}
layers {
  bottom: "inception_4a/3x3_reduce"
  top: "inception_4a/3x3_reduce/bn"
  name: "inception_4a/3x3_reduce/bn"
  type: BN
  blobs_lr: 1
  blobs_lr: 1
  weight_decay: 0
  weight_decay: 0
  bn_param {
    scale_filler {
      type: "constant"
      value: 1
    }
    shift_filler {
      type: "constant"
      value: 0
    }
  }
}
layers {
  bottom: "inception_4a/3x3_reduce/bn"
  top: "inception_4a/3x3_reduce/bn"
  name: "inception_4a/relu_3x3_reduce"
  type: RELU
}
layers {
  bottom: "inception_4a/3x3_reduce/bn"
  top: "inception_4a/3x3"
  name: "inception_4a/3x3"
  type: CONVOLUTION
  blobs_lr: 1
  weight_decay: 1
  convolution_param {
    num_output: 208
    bias_term: false
    pad: 1
    kernel_size: 3
    weight_filler {
      type: "xavier"
    }
  }
}
layers {
  bottom: "inception_4a/3x3"
  top: "inception_4a/3x3/bn"
  name: "inception_4a/3x3/bn"
  type: BN
  blobs_lr: 1
  blobs_lr: 1
  weight_decay: 0
  weight_decay: 0
  bn_param {
    scale_filler {
      type: "constant"
      value: 1
    }
    shift_filler {
      type: "constant"
      value: 0
    }
  }
}
layers {
  bottom: "inception_4a/3x3/bn"
  top: "inception_4a/3x3/bn"
  name: "inception_4a/relu_3x3"
  type: RELU
}
layers {
  bottom: "pool3/3x3_s2"
  top: "inception_4a/5x5_reduce"
  name: "inception_4a/5x5_reduce"
  type: CONVOLUTION
  blobs_lr: 1
  weight_decay: 1
  convolution_param {
    num_output: 16
    bias_term: false
    kernel_size: 1
    weight_filler {
      type: "xavier"
    }
  }
}
layers {
  bottom: "inception_4a/5x5_reduce"
  top: "inception_4a/5x5_reduce/bn"
  name: "inception_4a/5x5_reduce/bn"
  type: BN
  blobs_lr: 1
  blobs_lr: 1
  weight_decay: 0
  weight_decay: 0
  bn_param {
    scale_filler {
      type: "constant"
      value: 1
    }
    shift_filler {
      type: "constant"
      value: 0
    }
  }
}
layers {
  bottom: "inception_4a/5x5_reduce/bn"
  top: "inception_4a/5x5_reduce/bn"
  name: "inception_4a/relu_5x5_reduce"
  type: RELU
}
layers {
  bottom: "inception_4a/5x5_reduce/bn"
  top: "inception_4a/5x5"
  name: "inception_4a/5x5"
  type: CONVOLUTION
  blobs_lr: 1
  weight_decay: 1
  convolution_param {
    num_output: 48
    bias_term: false
    pad: 2
    kernel_size: 5
    weight_filler {
      type: "xavier"
    }
  }
}
layers {
  bottom: "inception_4a/5x5"
  top: "inception_4a/5x5/bn"
  name: "inception_4a/5x5/bn"
  type: BN
  blobs_lr: 1
  blobs_lr: 1
  weight_decay: 0
  weight_decay: 0
  bn_param {
    scale_filler {
      type: "constant"
      value: 1
    }
    shift_filler {
      type: "constant"
      value: 0
    }
  }
}
layers {
  bottom: "inception_4a/5x5/bn"
  top: "inception_4a/5x5/bn"
  name: "inception_4a/relu_5x5"
  type: RELU
}
layers {
  bottom: "pool3/3x3_s2"
  top: "inception_4a/pool"
  name: "inception_4a/pool"
  type: POOLING
  pooling_param {
    pool: MAX
    kernel_size: 3
    stride: 1
    pad: 1
  }
}
layers {
  bottom: "inception_4a/pool"
  top: "inception_4a/pool_proj"
  name: "inception_4a/pool_proj"
  type: CONVOLUTION
  blobs_lr: 1
  weight_decay: 1
  convolution_param {
    num_output: 64
    bias_term: false
    kernel_size: 1
    weight_filler {
      type: "xavier"
    }
  }
}
layers {
  bottom: "inception_4a/pool_proj"
  top: "inception_4a/pool_proj/bn"
  name: "inception_4a/pool_proj/bn"
  type: BN
  blobs_lr: 1
  blobs_lr: 1
  weight_decay: 0
  weight_decay: 0
  bn_param {
    scale_filler {
      type: "constant"
      value: 1
    }
    shift_filler {
      type: "constant"
      value: 0
    }
  }
}
layers {
  bottom: "inception_4a/pool_proj/bn"
  top: "inception_4a/pool_proj/bn"
  name: "inception_4a/relu_pool_proj"
  type: RELU
}
layers {
  bottom: "inception_4a/1x1/bn"
  bottom: "inception_4a/3x3/bn"
  bottom: "inception_4a/5x5/bn"
  bottom: "inception_4a/pool_proj/bn"
  top: "inception_4a/output"
  name: "inception_4a/output"
  type: CONCAT
}
layers {
  bottom: "inception_4a/output"
  top: "loss1/ave_pool"
  name: "loss1/ave_pool"
  type: POOLING
  pooling_param {
    pool: AVE
    kernel_size: 5
    stride: 3
  }
}
layers {
  bottom: "loss1/ave_pool"
  top: "loss1/conv"
  name: "loss1/conv"
  type: CONVOLUTION
  blobs_lr: 1
  weight_decay: 1
  convolution_param {
    num_output: 128
    bias_term: false
    kernel_size: 1
    weight_filler {
      type: "xavier"
    }
  }
}
layers {
  bottom: "loss1/conv"
  top: "loss1/conv/bn"
  name: "loss1/conv/bn"
  type: BN
  blobs_lr: 1
  blobs_lr: 1
  weight_decay: 0
  weight_decay: 0
  bn_param {
    scale_filler {
      type: "constant"
      value: 1
    }
    shift_filler {
      type: "constant"
      value: 0
    }
  }
}
layers {
  bottom: "loss1/conv/bn"
  top: "loss1/conv/bn"
  name: "loss1/relu_conv"
  type: RELU
}
layers {
  bottom: "loss1/conv/bn"
  top: "loss1/fc"
  name: "loss1/fc"
  type: INNER_PRODUCT
  blobs_lr: 1
  weight_decay: 1
  inner_product_param {
    num_output: 1024
    bias_term: false
    weight_filler {
      type: "xavier"
    }
  }
}
layers {
  bottom: "loss1/fc"
  top: "loss1/fc/bn"
  name: "loss1/fc/bn"
  type: BN
  blobs_lr: 1
  blobs_lr: 1
  weight_decay: 0
  weight_decay: 0
  bn_param {
    scale_filler {
      type: "constant"
      value: 1
    }
    shift_filler {
      type: "constant"
      value: 0
    }
  }
}
layers {
  bottom: "loss1/fc/bn"
  top: "loss1/fc/bn"
  name: "loss1/relu_fc"
  type: RELU
}
layers {
  bottom: "loss1/fc/bn"
  top: "loss1/classifier"
  name: "loss1/classifier"
  type: INNER_PRODUCT
  blobs_lr: 1
  blobs_lr: 2
  weight_decay: 1
  weight_decay: 0
  inner_product_param {
    num_output: 1000
    weight_filler {
      type: "xavier"
    }
    bias_filler {
      type: "constant"
    }
  }
}
layers {
  bottom: "loss1/classifier"
  bottom: "label"
  top: "loss1/loss1"
  name: "loss1/loss"
  type: SOFTMAX_LOSS
  loss_weight: 0.3
}
layers {
  bottom: "inception_4a/output"
  top: "inception_4b/1x1"
  name: "inception_4b/1x1"
  type: CONVOLUTION
  blobs_lr: 1
  weight_decay: 1
  convolution_param {
    num_output: 160
    bias_term: false
    kernel_size: 1
    weight_filler {
      type: "xavier"
    }
  }
}
layers {
  bottom: "inception_4b/1x1"
  top: "inception_4b/1x1/bn"
  name: "inception_4b/1x1/bn"
  type: BN
  blobs_lr: 1
  blobs_lr: 1
  weight_decay: 0
  weight_decay: 0
  bn_param {
    scale_filler {
      type: "constant"
      value: 1
    }
    shift_filler {
      type: "constant"
      value: 0
    }
  }
}
layers {
  bottom: "inception_4b/1x1/bn"
  top: "inception_4b/1x1/bn"
  name: "inception_4b/relu_1x1"
  type: RELU
}
layers {
  bottom: "inception_4a/output"
  top: "inception_4b/3x3_reduce"
  name: "inception_4b/3x3_reduce"
  type: CONVOLUTION
  blobs_lr: 1
  weight_decay: 1
  convolution_param {
    num_output: 112
    bias_term: false
    kernel_size: 1
    weight_filler {
      type: "xavier"
    }
  }
}
layers {
  bottom: "inception_4b/3x3_reduce"
  top: "inception_4b/3x3_reduce/bn"
  name: "inception_4b/3x3_reduce/bn"
  type: BN
  blobs_lr: 1
  blobs_lr: 1
  weight_decay: 0
  weight_decay: 0
  bn_param {
    scale_filler {
      type: "constant"
      value: 1
    }
    shift_filler {
      type: "constant"
      value: 0
    }
  }
}
layers {
  bottom: "inception_4b/3x3_reduce/bn"
  top: "inception_4b/3x3_reduce/bn"
  name: "inception_4b/relu_3x3_reduce"
  type: RELU
}
layers {
  bottom: "inception_4b/3x3_reduce/bn"
  top: "inception_4b/3x3"
  name: "inception_4b/3x3"
  type: CONVOLUTION
  blobs_lr: 1
  weight_decay: 1
  convolution_param {
    num_output: 224
    bias_term: false
    pad: 1
    kernel_size: 3
    weight_filler {
      type: "xavier"
    }
  }
}
layers {
  bottom: "inception_4b/3x3"
  top: "inception_4b/3x3/bn"
  name: "inception_4b/3x3/bn"
  type: BN
  blobs_lr: 1
  blobs_lr: 1
  weight_decay: 0
  weight_decay: 0
  bn_param {
    scale_filler {
      type: "constant"
      value: 1
    }
    shift_filler {
      type: "constant"
      value: 0
    }
  }
}
layers {
  bottom: "inception_4b/3x3/bn"
  top: "inception_4b/3x3/bn"
  name: "inception_4b/relu_3x3"
  type: RELU
}
layers {
  bottom: "inception_4a/output"
  top: "inception_4b/5x5_reduce"
  name: "inception_4b/5x5_reduce"
  type: CONVOLUTION
  blobs_lr: 1
  weight_decay: 1
  convolution_param {
    num_output: 24
    bias_term: false
    kernel_size: 1
    weight_filler {
      type: "xavier"
    }
  }
}
layers {
  bottom: "inception_4b/5x5_reduce"
  top: "inception_4b/5x5_reduce/bn"
  name: "inception_4b/5x5_reduce/bn"
  type: BN
  blobs_lr: 1
  blobs_lr: 1
  weight_decay: 0
  weight_decay: 0
  bn_param {
    scale_filler {
      type: "constant"
      value: 1
    }
    shift_filler {
      type: "constant"
      value: 0
    }
  }
}
layers {
  bottom: "inception_4b/5x5_reduce/bn"
  top: "inception_4b/5x5_reduce/bn"
  name: "inception_4b/relu_5x5_reduce"
  type: RELU
}
layers {
  bottom: "inception_4b/5x5_reduce/bn"
  top: "inception_4b/5x5"
  name: "inception_4b/5x5"
  type: CONVOLUTION
  blobs_lr: 1
  weight_decay: 1
  convolution_param {
    num_output: 64
    bias_term: false
    pad: 2
    kernel_size: 5
    weight_filler {
      type: "xavier"
    }
  }
}
layers {
  bottom: "inception_4b/5x5"
  top: "inception_4b/5x5/bn"
  name: "inception_4b/5x5/bn"
  type: BN
  blobs_lr: 1
  blobs_lr: 1
  weight_decay: 0
  weight_decay: 0
  bn_param {
    scale_filler {
      type: "constant"
      value: 1
    }
    shift_filler {
      type: "constant"
      value: 0
    }
  }
}
layers {
  bottom: "inception_4b/5x5/bn"
  top: "inception_4b/5x5/bn"
  name: "inception_4b/relu_5x5"
  type: RELU
}
layers {
  bottom: "inception_4a/output"
  top: "inception_4b/pool"
  name: "inception_4b/pool"
  type: POOLING
  pooling_param {
    pool: MAX
    kernel_size: 3
    stride: 1
    pad: 1
  }
}
layers {
  bottom: "inception_4b/pool"
  top: "inception_4b/pool_proj"
  name: "inception_4b/pool_proj"
  type: CONVOLUTION
  blobs_lr: 1
  weight_decay: 1
  convolution_param {
    num_output: 64
    bias_term: false
    kernel_size: 1
    weight_filler {
      type: "xavier"
    }
  }
}
layers {
  bottom: "inception_4b/pool_proj"
  top: "inception_4b/pool_proj/bn"
  name: "inception_4b/pool_proj/bn"
  type: BN
  blobs_lr: 1
  blobs_lr: 1
  weight_decay: 0
  weight_decay: 0
  bn_param {
    scale_filler {
      type: "constant"
      value: 1
    }
    shift_filler {
      type: "constant"
      value: 0
    }
  }
}
layers {
  bottom: "inception_4b/pool_proj/bn"
  top: "inception_4b/pool_proj/bn"
  name: "inception_4b/relu_pool_proj"
  type: RELU
}
layers {
  bottom: "inception_4b/1x1/bn"
  bottom: "inception_4b/3x3/bn"
  bottom: "inception_4b/5x5/bn"
  bottom: "inception_4b/pool_proj/bn"
  top: "inception_4b/output"
  name: "inception_4b/output"
  type: CONCAT
}
layers {
  bottom: "inception_4b/output"
  top: "inception_4c/1x1"
  name: "inception_4c/1x1"
  type: CONVOLUTION
  blobs_lr: 1
  weight_decay: 1
  convolution_param {
    num_output: 128
    bias_term: false
    kernel_size: 1
    weight_filler {
      type: "xavier"
    }
  }
}
layers {
  bottom: "inception_4c/1x1"
  top: "inception_4c/1x1/bn"
  name: "inception_4c/1x1/bn"
  type: BN
  blobs_lr: 1
  blobs_lr: 1
  weight_decay: 0
  weight_decay: 0
  bn_param {
    scale_filler {
      type: "constant"
      value: 1
    }
    shift_filler {
      type: "constant"
      value: 0
    }
  }
}
layers {
  bottom: "inception_4c/1x1/bn"
  top: "inception_4c/1x1/bn"
  name: "inception_4c/relu_1x1"
  type: RELU
}
layers {
  bottom: "inception_4b/output"
  top: "inception_4c/3x3_reduce"
  name: "inception_4c/3x3_reduce"
  type: CONVOLUTION
  blobs_lr: 1
  weight_decay: 1
  convolution_param {
    num_output: 128
    bias_term: false
    kernel_size: 1
    weight_filler {
      type: "xavier"
    }
  }
}
layers {
  bottom: "inception_4c/3x3_reduce"
  top: "inception_4c/3x3_reduce/bn"
  name: "inception_4c/3x3_reduce/bn"
  type: BN
  blobs_lr: 1
  blobs_lr: 1
  weight_decay: 0
  weight_decay: 0
  bn_param {
    scale_filler {
      type: "constant"
      value: 1
    }
    shift_filler {
      type: "constant"
      value: 0
    }
  }
}
layers {
  bottom: "inception_4c/3x3_reduce/bn"
  top: "inception_4c/3x3_reduce/bn"
  name: "inception_4c/relu_3x3_reduce"
  type: RELU
}
layers {
  bottom: "inception_4c/3x3_reduce/bn"
  top: "inception_4c/3x3"
  name: "inception_4c/3x3"
  type: CONVOLUTION
  blobs_lr: 1
  weight_decay: 1
  convolution_param {
    num_output: 256
    bias_term: false
    pad: 1
    kernel_size: 3
    weight_filler {
      type: "xavier"
    }
  }
}
layers {
  bottom: "inception_4c/3x3"
  top: "inception_4c/3x3/bn"
  name: "inception_4c/3x3/bn"
  type: BN
  blobs_lr: 1
  blobs_lr: 1
  weight_decay: 0
  weight_decay: 0
  bn_param {
    scale_filler {
      type: "constant"
      value: 1
    }
    shift_filler {
      type: "constant"
      value: 0
    }
  }
}
layers {
  bottom: "inception_4c/3x3/bn"
  top: "inception_4c/3x3/bn"
  name: "inception_4c/relu_3x3"
  type: RELU
}
layers {
  bottom: "inception_4b/output"
  top: "inception_4c/5x5_reduce"
  name: "inception_4c/5x5_reduce"
  type: CONVOLUTION
  blobs_lr: 1
  weight_decay: 1
  convolution_param {
    num_output: 24
    bias_term: false
    kernel_size: 1
    weight_filler {
      type: "xavier"
    }
  }
}
layers {
  bottom: "inception_4c/5x5_reduce"
  top: "inception_4c/5x5_reduce/bn"
  name: "inception_4c/5x5_reduce/bn"
  type: BN
  blobs_lr: 1
  blobs_lr: 1
  weight_decay: 0
  weight_decay: 0
  bn_param {
    scale_filler {
      type: "constant"
      value: 1
    }
    shift_filler {
      type: "constant"
      value: 0
    }
  }
}
layers {
  bottom: "inception_4c/5x5_reduce/bn"
  top: "inception_4c/5x5_reduce/bn"
  name: "inception_4c/relu_5x5_reduce"
  type: RELU
}
layers {
  bottom: "inception_4c/5x5_reduce/bn"
  top: "inception_4c/5x5"
  name: "inception_4c/5x5"
  type: CONVOLUTION
  blobs_lr: 1
  weight_decay: 1
  convolution_param {
    num_output: 64
    bias_term: false
    pad: 2
    kernel_size: 5
    weight_filler {
      type: "xavier"
    }
  }
}
layers {
  bottom: "inception_4c/5x5"
  top: "inception_4c/5x5/bn"
  name: "inception_4c/5x5/bn"
  type: BN
  blobs_lr: 1
  blobs_lr: 1
  weight_decay: 0
  weight_decay: 0
  bn_param {
    scale_filler {
      type: "constant"
      value: 1
    }
    shift_filler {
      type: "constant"
      value: 0
    }
  }
}
layers {
  bottom: "inception_4c/5x5/bn"
  top: "inception_4c/5x5/bn"
  name: "inception_4c/relu_5x5"
  type: RELU
}
layers {
  bottom: "inception_4b/output"
  top: "inception_4c/pool"
  name: "inception_4c/pool"
  type: POOLING
  pooling_param {
    pool: MAX
    kernel_size: 3
    stride: 1
    pad: 1
  }
}
layers {
  bottom: "inception_4c/pool"
  top: "inception_4c/pool_proj"
  name: "inception_4c/pool_proj"
  type: CONVOLUTION
  blobs_lr: 1
  weight_decay: 1
  convolution_param {
    num_output: 64
    bias_term: false
    kernel_size: 1
    weight_filler {
      type: "xavier"
    }
  }
}
layers {
  bottom: "inception_4c/pool_proj"
  top: "inception_4c/pool_proj/bn"
  name: "inception_4c/pool_proj/bn"
  type: BN
  blobs_lr: 1
  blobs_lr: 1
  weight_decay: 0
  weight_decay: 0
  bn_param {
    scale_filler {
      type: "constant"
      value: 1
    }
    shift_filler {
      type: "constant"
      value: 0
    }
  }
}
layers {
  bottom: "inception_4c/pool_proj/bn"
  top: "inception_4c/pool_proj/bn"
  name: "inception_4c/relu_pool_proj"
  type: RELU
}
layers {
  bottom: "inception_4c/1x1/bn"
  bottom: "inception_4c/3x3/bn"
  bottom: "inception_4c/5x5/bn"
  bottom: "inception_4c/pool_proj/bn"
  top: "inception_4c/output"
  name: "inception_4c/output"
  type: CONCAT
}
layers {
  bottom: "inception_4c/output"
  top: "inception_4d/1x1"
  name: "inception_4d/1x1"
  type: CONVOLUTION
  blobs_lr: 1
  weight_decay: 1
  convolution_param {
    num_output: 112
    bias_term: false
    kernel_size: 1
    weight_filler {
      type: "xavier"
    }
  }
}
layers {
  bottom: "inception_4d/1x1"
  top: "inception_4d/1x1/bn"
  name: "inception_4d/1x1/bn"
  type: BN
  blobs_lr: 1
  blobs_lr: 1
  weight_decay: 0
  weight_decay: 0
  bn_param {
    scale_filler {
      type: "constant"
      value: 1
    }
    shift_filler {
      type: "constant"
      value: 0
    }
  }
}
layers {
  bottom: "ince
I0707 15:54:45.586932 13370 layer_factory.hpp:78] Creating layer data
I0707 15:54:45.586967 13370 data_transformer.cpp:24] Loading mean file from/media/data1/image/ilsvrc12/imagenet_mean.binaryproto
I0707 15:54:45.589553 13370 net.cpp:68] Creating Layer data
I0707 15:54:45.589587 13370 net.cpp:357] data -> data
I0707 15:54:45.589622 13370 net.cpp:357] data -> label
I0707 15:54:45.589645 13370 net.cpp:97] Setting up data
I0707 15:54:45.589663 13370 data_layer.cpp:35] Opening dataset /media/data1/image/ilsvrc12/ilsvrc12_train_lmdb
I0707 15:54:45.590044 13370 data_layer.cpp:74] output data size: 32,3,224,224
I0707 15:54:45.599431 13370 net.cpp:104] Top shape: 32 3 224 224 (4816896)
I0707 15:54:45.599509 13370 net.cpp:104] Top shape: 32 1 1 1 (32)
I0707 15:54:45.599525 13370 layer_factory.hpp:78] Creating layer label_data_1_split
I0707 15:54:45.599560 13370 net.cpp:68] Creating Layer label_data_1_split
I0707 15:54:45.599575 13370 net.cpp:395] label_data_1_split <- label
I0707 15:54:45.599611 13370 net.cpp:357] label_data_1_split -> label_data_1_split_0
I0707 15:54:45.599637 13370 net.cpp:357] label_data_1_split -> label_data_1_split_1
I0707 15:54:45.599653 13370 net.cpp:357] label_data_1_split -> label_data_1_split_2
I0707 15:54:45.599669 13370 net.cpp:97] Setting up label_data_1_split
I0707 15:54:45.599688 13370 net.cpp:104] Top shape: 32 1 1 1 (32)
I0707 15:54:45.599751 13370 net.cpp:104] Top shape: 32 1 1 1 (32)
I0707 15:54:45.599766 13370 net.cpp:104] Top shape: 32 1 1 1 (32)
I0707 15:54:45.599779 13370 layer_factory.hpp:78] Creating layer conv1/7x7_s2
I0707 15:54:45.599808 13370 net.cpp:68] Creating Layer conv1/7x7_s2
I0707 15:54:45.599822 13370 net.cpp:395] conv1/7x7_s2 <- data
I0707 15:54:45.599838 13370 net.cpp:357] conv1/7x7_s2 -> conv1/7x7_s2
I0707 15:54:45.599855 13370 net.cpp:97] Setting up conv1/7x7_s2
I0707 15:54:45.626996 13370 net.cpp:104] Top shape: 32 64 112 112 (25690112)
I0707 15:54:45.627080 13370 layer_factory.hpp:78] Creating layer conv1/7x7_s2/bn
I0707 15:54:45.627112 13370 net.cpp:68] Creating Layer conv1/7x7_s2/bn
I0707 15:54:45.627128 13370 net.cpp:395] conv1/7x7_s2/bn <- conv1/7x7_s2
I0707 15:54:45.627147 13370 net.cpp:357] conv1/7x7_s2/bn -> conv1/7x7_s2/bn
I0707 15:54:45.627171 13370 net.cpp:97] Setting up conv1/7x7_s2/bn
I0707 15:54:45.627243 13370 net.cpp:104] Top shape: 32 64 112 112 (25690112)
I0707 15:54:45.627266 13370 layer_factory.hpp:78] Creating layer conv1/relu_7x7
I0707 15:54:45.627285 13370 net.cpp:68] Creating Layer conv1/relu_7x7
I0707 15:54:45.627297 13370 net.cpp:395] conv1/relu_7x7 <- conv1/7x7_s2/bn
I0707 15:54:45.627311 13370 net.cpp:346] conv1/relu_7x7 -> conv1/7x7_s2/bn (in-place)
I0707 15:54:45.627326 13370 net.cpp:97] Setting up conv1/relu_7x7
I0707 15:54:45.627347 13370 net.cpp:104] Top shape: 32 64 112 112 (25690112)
I0707 15:54:45.627362 13370 layer_factory.hpp:78] Creating layer pool1/3x3_s2
I0707 15:54:45.627379 13370 net.cpp:68] Creating Layer pool1/3x3_s2
I0707 15:54:45.627393 13370 net.cpp:395] pool1/3x3_s2 <- conv1/7x7_s2/bn
I0707 15:54:45.627406 13370 net.cpp:357] pool1/3x3_s2 -> pool1/3x3_s2
I0707 15:54:45.627421 13370 net.cpp:97] Setting up pool1/3x3_s2
I0707 15:54:45.627459 13370 net.cpp:104] Top shape: 32 64 56 56 (6422528)
I0707 15:54:45.627473 13370 layer_factory.hpp:78] Creating layer conv2/3x3_reduce
I0707 15:54:45.627491 13370 net.cpp:68] Creating Layer conv2/3x3_reduce
I0707 15:54:45.627503 13370 net.cpp:395] conv2/3x3_reduce <- pool1/3x3_s2
I0707 15:54:45.627517 13370 net.cpp:357] conv2/3x3_reduce -> conv2/3x3_reduce
I0707 15:54:45.627534 13370 net.cpp:97] Setting up conv2/3x3_reduce
I0707 15:54:45.627668 13370 net.cpp:104] Top shape: 32 64 56 56 (6422528)
I0707 15:54:45.627689 13370 layer_factory.hpp:78] Creating layer conv2/3x3_reduce/bn
I0707 15:54:45.627706 13370 net.cpp:68] Creating Layer conv2/3x3_reduce/bn
I0707 15:54:45.627728 13370 net.cpp:395] conv2/3x3_reduce/bn <- conv2/3x3_reduce
I0707 15:54:45.627746 13370 net.cpp:357] conv2/3x3_reduce/bn -> conv2/3x3_reduce/bn
I0707 15:54:45.627763 13370 net.cpp:97] Setting up conv2/3x3_reduce/bn
I0707 15:54:45.627794 13370 net.cpp:104] Top shape: 32 64 56 56 (6422528)
I0707 15:54:45.627813 13370 layer_factory.hpp:78] Creating layer conv2/relu_3x3_reduce
I0707 15:54:45.627833 13370 net.cpp:68] Creating Layer conv2/relu_3x3_reduce
I0707 15:54:45.627846 13370 net.cpp:395] conv2/relu_3x3_reduce <- conv2/3x3_reduce/bn
I0707 15:54:45.627859 13370 net.cpp:346] conv2/relu_3x3_reduce -> conv2/3x3_reduce/bn (in-place)
I0707 15:54:45.627873 13370 net.cpp:97] Setting up conv2/relu_3x3_reduce
I0707 15:54:45.627889 13370 net.cpp:104] Top shape: 32 64 56 56 (6422528)
I0707 15:54:45.627902 13370 layer_factory.hpp:78] Creating layer conv2/3x3
I0707 15:54:45.627920 13370 net.cpp:68] Creating Layer conv2/3x3
I0707 15:54:45.627933 13370 net.cpp:395] conv2/3x3 <- conv2/3x3_reduce/bn
I0707 15:54:45.627946 13370 net.cpp:357] conv2/3x3 -> conv2/3x3
I0707 15:54:45.627961 13370 net.cpp:97] Setting up conv2/3x3
I0707 15:54:45.629242 13370 net.cpp:104] Top shape: 32 192 56 56 (19267584)
I0707 15:54:45.629268 13370 layer_factory.hpp:78] Creating layer conv2/3x3/bn
I0707 15:54:45.629288 13370 net.cpp:68] Creating Layer conv2/3x3/bn
I0707 15:54:45.629302 13370 net.cpp:395] conv2/3x3/bn <- conv2/3x3
I0707 15:54:45.629317 13370 net.cpp:357] conv2/3x3/bn -> conv2/3x3/bn
I0707 15:54:45.629333 13370 net.cpp:97] Setting up conv2/3x3/bn
I0707 15:54:45.629366 13370 net.cpp:104] Top shape: 32 192 56 56 (19267584)
I0707 15:54:45.629433 13370 layer_factory.hpp:78] Creating layer conv2/relu_3x3
I0707 15:54:45.629453 13370 net.cpp:68] Creating Layer conv2/relu_3x3
I0707 15:54:45.629465 13370 net.cpp:395] conv2/relu_3x3 <- conv2/3x3/bn
I0707 15:54:45.629482 13370 net.cpp:346] conv2/relu_3x3 -> conv2/3x3/bn (in-place)
I0707 15:54:45.629495 13370 net.cpp:97] Setting up conv2/relu_3x3
I0707 15:54:45.629513 13370 net.cpp:104] Top shape: 32 192 56 56 (19267584)
I0707 15:54:45.629525 13370 layer_factory.hpp:78] Creating layer pool2/3x3_s2
I0707 15:54:45.629540 13370 net.cpp:68] Creating Layer pool2/3x3_s2
I0707 15:54:45.629552 13370 net.cpp:395] pool2/3x3_s2 <- conv2/3x3/bn
I0707 15:54:45.629565 13370 net.cpp:357] pool2/3x3_s2 -> pool2/3x3_s2
I0707 15:54:45.629580 13370 net.cpp:97] Setting up pool2/3x3_s2
I0707 15:54:45.629600 13370 net.cpp:104] Top shape: 32 192 28 28 (4816896)
I0707 15:54:45.629612 13370 layer_factory.hpp:78] Creating layer pool2/3x3_s2_pool2/3x3_s2_0_split
I0707 15:54:45.629627 13370 net.cpp:68] Creating Layer pool2/3x3_s2_pool2/3x3_s2_0_split
I0707 15:54:45.629640 13370 net.cpp:395] pool2/3x3_s2_pool2/3x3_s2_0_split <- pool2/3x3_s2
I0707 15:54:45.629657 13370 net.cpp:357] pool2/3x3_s2_pool2/3x3_s2_0_split -> pool2/3x3_s2_pool2/3x3_s2_0_split_0
I0707 15:54:45.629673 13370 net.cpp:357] pool2/3x3_s2_pool2/3x3_s2_0_split -> pool2/3x3_s2_pool2/3x3_s2_0_split_1
I0707 15:54:45.629688 13370 net.cpp:357] pool2/3x3_s2_pool2/3x3_s2_0_split -> pool2/3x3_s2_pool2/3x3_s2_0_split_2
I0707 15:54:45.629703 13370 net.cpp:357] pool2/3x3_s2_pool2/3x3_s2_0_split -> pool2/3x3_s2_pool2/3x3_s2_0_split_3
I0707 15:54:45.629717 13370 net.cpp:97] Setting up pool2/3x3_s2_pool2/3x3_s2_0_split
I0707 15:54:45.629731 13370 net.cpp:104] Top shape: 32 192 28 28 (4816896)
I0707 15:54:45.629742 13370 net.cpp:104] Top shape: 32 192 28 28 (4816896)
I0707 15:54:45.629753 13370 net.cpp:104] Top shape: 32 192 28 28 (4816896)
I0707 15:54:45.629765 13370 net.cpp:104] Top shape: 32 192 28 28 (4816896)
I0707 15:54:45.629776 13370 layer_factory.hpp:78] Creating layer inception_3a/1x1
I0707 15:54:45.629796 13370 net.cpp:68] Creating Layer inception_3a/1x1
I0707 15:54:45.629808 13370 net.cpp:395] inception_3a/1x1 <- pool2/3x3_s2_pool2/3x3_s2_0_split_0
I0707 15:54:45.629823 13370 net.cpp:357] inception_3a/1x1 -> inception_3a/1x1
I0707 15:54:45.629838 13370 net.cpp:97] Setting up inception_3a/1x1
I0707 15:54:45.630049 13370 net.cpp:104] Top shape: 32 64 28 28 (1605632)
I0707 15:54:45.630071 13370 layer_factory.hpp:78] Creating layer inception_3a/1x1/bn
I0707 15:54:45.630090 13370 net.cpp:68] Creating Layer inception_3a/1x1/bn
I0707 15:54:45.630105 13370 net.cpp:395] inception_3a/1x1/bn <- inception_3a/1x1
I0707 15:54:45.630121 13370 net.cpp:357] inception_3a/1x1/bn -> inception_3a/1x1/bn
I0707 15:54:45.630137 13370 net.cpp:97] Setting up inception_3a/1x1/bn
I0707 15:54:45.630163 13370 net.cpp:104] Top shape: 32 64 28 28 (1605632)
I0707 15:54:45.630180 13370 layer_factory.hpp:78] Creating layer inception_3a/relu_1x1
I0707 15:54:45.630201 13370 net.cpp:68] Creating Layer inception_3a/relu_1x1
I0707 15:54:45.630214 13370 net.cpp:395] inception_3a/relu_1x1 <- inception_3a/1x1/bn
I0707 15:54:45.630231 13370 net.cpp:346] inception_3a/relu_1x1 -> inception_3a/1x1/bn (in-place)
I0707 15:54:45.630246 13370 net.cpp:97] Setting up inception_3a/relu_1x1
I0707 15:54:45.630261 13370 net.cpp:104] Top shape: 32 64 28 28 (1605632)
I0707 15:54:45.630275 13370 layer_factory.hpp:78] Creating layer inception_3a/3x3_reduce
I0707 15:54:45.630288 13370 net.cpp:68] Creating Layer inception_3a/3x3_reduce
I0707 15:54:45.630300 13370 net.cpp:395] inception_3a/3x3_reduce <- pool2/3x3_s2_pool2/3x3_s2_0_split_1
I0707 15:54:45.630316 13370 net.cpp:357] inception_3a/3x3_reduce -> inception_3a/3x3_reduce
I0707 15:54:45.630331 13370 net.cpp:97] Setting up inception_3a/3x3_reduce
I0707 15:54:45.630595 13370 net.cpp:104] Top shape: 32 96 28 28 (2408448)
I0707 15:54:45.630619 13370 layer_factory.hpp:78] Creating layer inception_3a/3x3_reduce/bn
I0707 15:54:45.630637 13370 net.cpp:68] Creating Layer inception_3a/3x3_reduce/bn
I0707 15:54:45.630669 13370 net.cpp:395] inception_3a/3x3_reduce/bn <- inception_3a/3x3_reduce
I0707 15:54:45.630688 13370 net.cpp:357] inception_3a/3x3_reduce/bn -> inception_3a/3x3_reduce/bn
I0707 15:54:45.630705 13370 net.cpp:97] Setting up inception_3a/3x3_reduce/bn
I0707 15:54:45.630735 13370 net.cpp:104] Top shape: 32 96 28 28 (2408448)
I0707 15:54:45.630753 13370 layer_factory.hpp:78] Creating layer inception_3a/relu_3x3_reduce
I0707 15:54:45.630774 13370 net.cpp:68] Creating Layer inception_3a/relu_3x3_reduce
I0707 15:54:45.630786 13370 net.cpp:395] inception_3a/relu_3x3_reduce <- inception_3a/3x3_reduce/bn
I0707 15:54:45.630800 13370 net.cpp:346] inception_3a/relu_3x3_reduce -> inception_3a/3x3_reduce/bn (in-place)
I0707 15:54:45.630813 13370 net.cpp:97] Setting up inception_3a/relu_3x3_reduce
I0707 15:54:45.630828 13370 net.cpp:104] Top shape: 32 96 28 28 (2408448)
I0707 15:54:45.630841 13370 layer_factory.hpp:78] Creating layer inception_3a/3x3
I0707 15:54:45.630857 13370 net.cpp:68] Creating Layer inception_3a/3x3
I0707 15:54:45.630869 13370 net.cpp:395] inception_3a/3x3 <- inception_3a/3x3_reduce/bn
I0707 15:54:45.630884 13370 net.cpp:357] inception_3a/3x3 -> inception_3a/3x3
I0707 15:54:45.630902 13370 net.cpp:97] Setting up inception_3a/3x3
I0707 15:54:45.632407 13370 net.cpp:104] Top shape: 32 128 28 28 (3211264)
I0707 15:54:45.632437 13370 layer_factory.hpp:78] Creating layer inception_3a/3x3/bn
I0707 15:54:45.632457 13370 net.cpp:68] Creating Layer inception_3a/3x3/bn
I0707 15:54:45.632470 13370 net.cpp:395] inception_3a/3x3/bn <- inception_3a/3x3
I0707 15:54:45.632488 13370 net.cpp:357] inception_3a/3x3/bn -> inception_3a/3x3/bn
I0707 15:54:45.632503 13370 net.cpp:97] Setting up inception_3a/3x3/bn
I0707 15:54:45.632529 13370 net.cpp:104] Top shape: 32 128 28 28 (3211264)
I0707 15:54:45.632550 13370 layer_factory.hpp:78] Creating layer inception_3a/relu_3x3
I0707 15:54:45.632565 13370 net.cpp:68] Creating Layer inception_3a/relu_3x3
I0707 15:54:45.632576 13370 net.cpp:395] inception_3a/relu_3x3 <- inception_3a/3x3/bn
I0707 15:54:45.632591 13370 net.cpp:346] inception_3a/relu_3x3 -> inception_3a/3x3/bn (in-place)
I0707 15:54:45.632606 13370 net.cpp:97] Setting up inception_3a/relu_3x3
I0707 15:54:45.632622 13370 net.cpp:104] Top shape: 32 128 28 28 (3211264)
I0707 15:54:45.632633 13370 layer_factory.hpp:78] Creating layer inception_3a/5x5_reduce
I0707 15:54:45.632647 13370 net.cpp:68] Creating Layer inception_3a/5x5_reduce
I0707 15:54:45.632659 13370 net.cpp:395] inception_3a/5x5_reduce <- pool2/3x3_s2_pool2/3x3_s2_0_split_2
I0707 15:54:45.632679 13370 net.cpp:357] inception_3a/5x5_reduce -> inception_3a/5x5_reduce
I0707 15:54:45.632695 13370 net.cpp:97] Setting up inception_3a/5x5_reduce
I0707 15:54:45.632803 13370 net.cpp:104] Top shape: 32 16 28 28 (401408)
I0707 15:54:45.632823 13370 layer_factory.hpp:78] Creating layer inception_3a/5x5_reduce/bn
I0707 15:54:45.632841 13370 net.cpp:68] Creating Layer inception_3a/5x5_reduce/bn
I0707 15:54:45.632854 13370 net.cpp:395] inception_3a/5x5_reduce/bn <- inception_3a/5x5_reduce
I0707 15:54:45.632869 13370 net.cpp:357] inception_3a/5x5_reduce/bn -> inception_3a/5x5_reduce/bn
I0707 15:54:45.632885 13370 net.cpp:97] Setting up inception_3a/5x5_reduce/bn
I0707 15:54:45.632907 13370 net.cpp:104] Top shape: 32 16 28 28 (401408)
I0707 15:54:45.632922 13370 layer_factory.hpp:78] Creating layer inception_3a/relu_5x5_reduce
I0707 15:54:45.632936 13370 net.cpp:68] Creating Layer inception_3a/relu_5x5_reduce
I0707 15:54:45.632948 13370 net.cpp:395] inception_3a/relu_5x5_reduce <- inception_3a/5x5_reduce/bn
I0707 15:54:45.632966 13370 net.cpp:346] inception_3a/relu_5x5_reduce -> inception_3a/5x5_reduce/bn (in-place)
I0707 15:54:45.632982 13370 net.cpp:97] Setting up inception_3a/relu_5x5_reduce
I0707 15:54:45.633002 13370 net.cpp:104] Top shape: 32 16 28 28 (401408)
I0707 15:54:45.633014 13370 layer_factory.hpp:78] Creating layer inception_3a/5x5
I0707 15:54:45.633038 13370 net.cpp:68] Creating Layer inception_3a/5x5
I0707 15:54:45.633070 13370 net.cpp:395] inception_3a/5x5 <- inception_3a/5x5_reduce/bn
I0707 15:54:45.633087 13370 net.cpp:357] inception_3a/5x5 -> inception_3a/5x5
I0707 15:54:45.633103 13370 net.cpp:97] Setting up inception_3a/5x5
I0707 15:54:45.633314 13370 net.cpp:104] Top shape: 32 32 28 28 (802816)
I0707 15:54:45.633339 13370 layer_factory.hpp:78] Creating layer inception_3a/5x5/bn
I0707 15:54:45.633358 13370 net.cpp:68] Creating Layer inception_3a/5x5/bn
I0707 15:54:45.633373 13370 net.cpp:395] inception_3a/5x5/bn <- inception_3a/5x5
I0707 15:54:45.633388 13370 net.cpp:357] inception_3a/5x5/bn -> inception_3a/5x5/bn
I0707 15:54:45.633404 13370 net.cpp:97] Setting up inception_3a/5x5/bn
I0707 15:54:45.633431 13370 net.cpp:104] Top shape: 32 32 28 28 (802816)
I0707 15:54:45.633446 13370 layer_factory.hpp:78] Creating layer inception_3a/relu_5x5
I0707 15:54:45.633460 13370 net.cpp:68] Creating Layer inception_3a/relu_5x5
I0707 15:54:45.633472 13370 net.cpp:395] inception_3a/relu_5x5 <- inception_3a/5x5/bn
I0707 15:54:45.633488 13370 net.cpp:346] inception_3a/relu_5x5 -> inception_3a/5x5/bn (in-place)
I0707 15:54:45.633503 13370 net.cpp:97] Setting up inception_3a/relu_5x5
I0707 15:54:45.633518 13370 net.cpp:104] Top shape: 32 32 28 28 (802816)
I0707 15:54:45.633530 13370 layer_factory.hpp:78] Creating layer inception_3a/pool
I0707 15:54:45.633543 13370 layer_factory.cpp:51] CUDNN does not support padding or multiple tops. Using Caffe's own pooling layer.
I0707 15:54:45.633558 13370 net.cpp:68] Creating Layer inception_3a/pool
I0707 15:54:45.633571 13370 net.cpp:395] inception_3a/pool <- pool2/3x3_s2_pool2/3x3_s2_0_split_3
I0707 15:54:45.633585 13370 net.cpp:357] inception_3a/pool -> inception_3a/pool
I0707 15:54:45.633599 13370 net.cpp:97] Setting up inception_3a/pool
I0707 15:54:45.633613 13370 net.cpp:104] Top shape: 32 192 28 28 (4816896)
I0707 15:54:45.633625 13370 layer_factory.hpp:78] Creating layer inception_3a/pool_proj
I0707 15:54:45.633651 13370 net.cpp:68] Creating Layer inception_3a/pool_proj
I0707 15:54:45.633663 13370 net.cpp:395] inception_3a/pool_proj <- inception_3a/pool
I0707 15:54:45.633677 13370 net.cpp:357] inception_3a/pool_proj -> inception_3a/pool_proj
I0707 15:54:45.633692 13370 net.cpp:97] Setting up inception_3a/pool_proj
I0707 15:54:45.633829 13370 net.cpp:104] Top shape: 32 32 28 28 (802816)
I0707 15:54:45.633849 13370 layer_factory.hpp:78] Creating layer inception_3a/pool_proj/bn
I0707 15:54:45.633868 13370 net.cpp:68] Creating Layer inception_3a/pool_proj/bn
I0707 15:54:45.633880 13370 net.cpp:395] inception_3a/pool_proj/bn <- inception_3a/pool_proj
I0707 15:54:45.633895 13370 net.cpp:357] inception_3a/pool_proj/bn -> inception_3a/pool_proj/bn
I0707 15:54:45.633910 13370 net.cpp:97] Setting up inception_3a/pool_proj/bn
I0707 15:54:45.633934 13370 net.cpp:104] Top shape: 32 32 28 28 (802816)
I0707 15:54:45.633950 13370 layer_factory.hpp:78] Creating layer inception_3a/relu_pool_proj
I0707 15:54:45.633971 13370 net.cpp:68] Creating Layer inception_3a/relu_pool_proj
I0707 15:54:45.633985 13370 net.cpp:395] inception_3a/relu_pool_proj <- inception_3a/pool_proj/bn
I0707 15:54:45.633997 13370 net.cpp:346] inception_3a/relu_pool_proj -> inception_3a/pool_proj/bn (in-place)
I0707 15:54:45.634011 13370 net.cpp:97] Setting up inception_3a/relu_pool_proj
I0707 15:54:45.634027 13370 net.cpp:104] Top shape: 32 32 28 28 (802816)
I0707 15:54:45.634039 13370 layer_factory.hpp:78] Creating layer inception_3a/output
I0707 15:54:45.634057 13370 net.cpp:68] Creating Layer inception_3a/output
I0707 15:54:45.634069 13370 net.cpp:395] inception_3a/output <- inception_3a/1x1/bn
I0707 15:54:45.634083 13370 net.cpp:395] inception_3a/output <- inception_3a/3x3/bn
I0707 15:54:45.634095 13370 net.cpp:395] inception_3a/output <- inception_3a/5x5/bn
I0707 15:54:45.634109 13370 net.cpp:395] inception_3a/output <- inception_3a/pool_proj/bn
I0707 15:54:45.634125 13370 net.cpp:357] inception_3a/output -> inception_3a/output
I0707 15:54:45.634140 13370 net.cpp:97] Setting up inception_3a/output
I0707 15:54:45.634172 13370 net.cpp:104] Top shape: 32 256 28 28 (6422528)
I0707 15:54:45.634186 13370 layer_factory.hpp:78] Creating layer inception_3a/output_inception_3a/output_0_split
I0707 15:54:45.634199 13370 net.cpp:68] Creating Layer inception_3a/output_inception_3a/output_0_split
I0707 15:54:45.634212 13370 net.cpp:395] inception_3a/output_inception_3a/output_0_split <- inception_3a/output
I0707 15:54:45.634227 13370 net.cpp:357] inception_3a/output_inception_3a/output_0_split -> inception_3a/output_inception_3a/output_0_split_0
I0707 15:54:45.634261 13370 net.cpp:357] inception_3a/output_inception_3a/output_0_split -> inception_3a/output_inception_3a/output_0_split_1
I0707 15:54:45.634280 13370 net.cpp:357] inception_3a/output_inception_3a/output_0_split -> inception_3a/output_inception_3a/output_0_split_2
I0707 15:54:45.634296 13370 net.cpp:357] inception_3a/output_inception_3a/output_0_split -> inception_3a/output_inception_3a/output_0_split_3
I0707 15:54:45.634311 13370 net.cpp:97] Setting up inception_3a/output_inception_3a/output_0_split
I0707 15:54:45.634325 13370 net.cpp:104] Top shape: 32 256 28 28 (6422528)
I0707 15:54:45.634336 13370 net.cpp:104] Top shape: 32 256 28 28 (6422528)
I0707 15:54:45.634347 13370 net.cpp:104] Top shape: 32 256 28 28 (6422528)
I0707 15:54:45.634358 13370 net.cpp:104] Top shape: 32 256 28 28 (6422528)
I0707 15:54:45.634369 13370 layer_factory.hpp:78] Creating layer inception_3b/1x1
I0707 15:54:45.634387 13370 net.cpp:68] Creating Layer inception_3b/1x1
I0707 15:54:45.634398 13370 net.cpp:395] inception_3b/1x1 <- inception_3a/output_inception_3a/output_0_split_0
I0707 15:54:45.634413 13370 net.cpp:357] inception_3b/1x1 -> inception_3b/1x1
I0707 15:54:45.634434 13370 net.cpp:97] Setting up inception_3b/1x1
I0707 15:54:45.634863 13370 net.cpp:104] Top shape: 32 128 28 28 (3211264)
I0707 15:54:45.634891 13370 layer_factory.hpp:78] Creating layer inception_3b/1x1/bn
I0707 15:54:45.634907 13370 net.cpp:68] Creating Layer inception_3b/1x1/bn
I0707 15:54:45.634920 13370 net.cpp:395] inception_3b/1x1/bn <- inception_3b/1x1
I0707 15:54:45.634938 13370 net.cpp:357] inception_3b/1x1/bn -> inception_3b/1x1/bn
I0707 15:54:45.634954 13370 net.cpp:97] Setting up inception_3b/1x1/bn
I0707 15:54:45.634981 13370 net.cpp:104] Top shape: 32 128 28 28 (3211264)
I0707 15:54:45.634997 13370 layer_factory.hpp:78] Creating layer inception_3b/relu_1x1
I0707 15:54:45.635010 13370 net.cpp:68] Creating Layer inception_3b/relu_1x1
I0707 15:54:45.635022 13370 net.cpp:395] inception_3b/relu_1x1 <- inception_3b/1x1/bn
I0707 15:54:45.635036 13370 net.cpp:346] inception_3b/relu_1x1 -> inception_3b/1x1/bn (in-place)
I0707 15:54:45.635051 13370 net.cpp:97] Setting up inception_3b/relu_1x1
I0707 15:54:45.635064 13370 net.cpp:104] Top shape: 32 128 28 28 (3211264)
I0707 15:54:45.635076 13370 layer_factory.hpp:78] Creating layer inception_3b/3x3_reduce
I0707 15:54:45.635094 13370 net.cpp:68] Creating Layer inception_3b/3x3_reduce
I0707 15:54:45.635107 13370 net.cpp:395] inception_3b/3x3_reduce <- inception_3a/output_inception_3a/output_0_split_1
I0707 15:54:45.635121 13370 net.cpp:357] inception_3b/3x3_reduce -> inception_3b/3x3_reduce
I0707 15:54:45.635136 13370 net.cpp:97] Setting up inception_3b/3x3_reduce
I0707 15:54:45.635697 13370 net.cpp:104] Top shape: 32 128 28 28 (3211264)
I0707 15:54:45.635727 13370 layer_factory.hpp:78] Creating layer inception_3b/3x3_reduce/bn
I0707 15:54:45.635747 13370 net.cpp:68] Creating Layer inception_3b/3x3_reduce/bn
I0707 15:54:45.635761 13370 net.cpp:395] inception_3b/3x3_reduce/bn <- inception_3b/3x3_reduce
I0707 15:54:45.635776 13370 net.cpp:357] inception_3b/3x3_reduce/bn -> inception_3b/3x3_reduce/bn
I0707 15:54:45.635792 13370 net.cpp:97] Setting up inception_3b/3x3_reduce/bn
I0707 15:54:45.635820 13370 net.cpp:104] Top shape: 32 128 28 28 (3211264)
I0707 15:54:45.635843 13370 layer_factory.hpp:78] Creating layer inception_3b/relu_3x3_reduce
I0707 15:54:45.635857 13370 net.cpp:68] Creating Layer inception_3b/relu_3x3_reduce
I0707 15:54:45.635869 13370 net.cpp:395] inception_3b/relu_3x3_reduce <- inception_3b/3x3_reduce/bn
I0707 15:54:45.635905 13370 net.cpp:346] inception_3b/relu_3x3_reduce -> inception_3b/3x3_reduce/bn (in-place)
I0707 15:54:45.635922 13370 net.cpp:97] Setting up inception_3b/relu_3x3_reduce
I0707 15:54:45.635938 13370 net.cpp:104] Top shape: 32 128 28 28 (3211264)
I0707 15:54:45.635951 13370 layer_factory.hpp:78] Creating layer inception_3b/3x3
I0707 15:54:45.635964 13370 net.cpp:68] Creating Layer inception_3b/3x3
I0707 15:54:45.635977 13370 net.cpp:395] inception_3b/3x3 <- inception_3b/3x3_reduce/bn
I0707 15:54:45.635990 13370 net.cpp:357] inception_3b/3x3 -> inception_3b/3x3
I0707 15:54:45.636005 13370 net.cpp:97] Setting up inception_3b/3x3
I0707 15:54:45.638490 13370 net.cpp:104] Top shape: 32 192 28 28 (4816896)
I0707 15:54:45.638514 13370 layer_factory.hpp:78] Creating layer inception_3b/3x3/bn
I0707 15:54:45.638530 13370 net.cpp:68] Creating Layer inception_3b/3x3/bn
I0707 15:54:45.638541 13370 net.cpp:395] inception_3b/3x3/bn <- inception_3b/3x3
I0707 15:54:45.638559 13370 net.cpp:357] inception_3b/3x3/bn -> inception_3b/3x3/bn
I0707 15:54:45.638576 13370 net.cpp:97] Setting up inception_3b/3x3/bn
I0707 15:54:45.638604 13370 net.cpp:104] Top shape: 32 192 28 28 (4816896)
I0707 15:54:45.638620 13370 layer_factory.hpp:78] Creating layer inception_3b/relu_3x3
I0707 15:54:45.638636 13370 net.cpp:68] Creating Layer inception_3b/relu_3x3
I0707 15:54:45.638648 13370 net.cpp:395] inception_3b/relu_3x3 <- inception_3b/3x3/bn
I0707 15:54:45.638663 13370 net.cpp:346] inception_3b/relu_3x3 -> inception_3b/3x3/bn (in-place)
I0707 15:54:45.638676 13370 net.cpp:97] Setting up inception_3b/relu_3x3
I0707 15:54:45.638690 13370 net.cpp:104] Top shape: 32 192 28 28 (4816896)
I0707 15:54:45.638702 13370 layer_factory.hpp:78] Creating layer inception_3b/5x5_reduce
I0707 15:54:45.638720 13370 net.cpp:68] Creating Layer inception_3b/5x5_reduce
I0707 15:54:45.638733 13370 net.cpp:395] inception_3b/5x5_reduce <- inception_3a/output_inception_3a/output_0_split_2
I0707 15:54:45.638748 13370 net.cpp:357] inception_3b/5x5_reduce -> inception_3b/5x5_reduce
I0707 15:54:45.638763 13370 net.cpp:97] Setting up inception_3b/5x5_reduce
I0707 15:54:45.638916 13370 net.cpp:104] Top shape: 32 32 28 28 (802816)
I0707 15:54:45.638937 13370 layer_factory.hpp:78] Creating layer inception_3b/5x5_reduce/bn
I0707 15:54:45.638957 13370 net.cpp:68] Creating Layer inception_3b/5x5_reduce/bn
I0707 15:54:45.638969 13370 net.cpp:395] inception_3b/5x5_reduce/bn <- inception_3b/5x5_reduce
I0707 15:54:45.638984 13370 net.cpp:357] inception_3b/5x5_reduce/bn -> inception_3b/5x5_reduce/bn
I0707 15:54:45.638999 13370 net.cpp:97] Setting up inception_3b/5x5_reduce/bn
I0707 15:54:45.639034 13370 net.cpp:104] Top shape: 32 32 28 28 (802816)
I0707 15:54:45.639050 13370 layer_factory.hpp:78] Creating layer inception_3b/relu_5x5_reduce
I0707 15:54:45.639063 13370 net.cpp:68] Creating Layer inception_3b/relu_5x5_reduce
I0707 15:54:45.639075 13370 net.cpp:395] inception_3b/relu_5x5_reduce <- inception_3b/5x5_reduce/bn
I0707 15:54:45.639087 13370 net.cpp:346] inception_3b/relu_5x5_reduce -> inception_3b/5x5_reduce/bn (in-place)
I0707 15:54:45.639101 13370 net.cpp:97] Setting up inception_3b/relu_5x5_reduce
I0707 15:54:45.639117 13370 net.cpp:104] Top shape: 32 32 28 28 (802816)
I0707 15:54:45.639128 13370 layer_factory.hpp:78] Creating layer inception_3b/5x5
I0707 15:54:45.639145 13370 net.cpp:68] Creating Layer inception_3b/5x5
I0707 15:54:45.639158 13370 net.cpp:395] inception_3b/5x5 <- inception_3b/5x5_reduce/bn
I0707 15:54:45.639175 13370 net.cpp:357] inception_3b/5x5 -> inception_3b/5x5
I0707 15:54:45.639191 13370 net.cpp:97] Setting up inception_3b/5x5
I0707 15:54:45.640105 13370 net.cpp:104] Top shape: 32 96 28 28 (2408448)
I0707 15:54:45.640135 13370 layer_factory.hpp:78] Creating layer inception_3b/5x5/bn
I0707 15:54:45.640156 13370 net.cpp:68] Creating Layer inception_3b/5x5/bn
I0707 15:54:45.640168 13370 net.cpp:395] inception_3b/5x5/bn <- inception_3b/5x5
I0707 15:54:45.640187 13370 net.cpp:357] inception_3b/5x5/bn -> inception_3b/5x5/bn
I0707 15:54:45.640220 13370 net.cpp:97] Setting up inception_3b/5x5/bn
I0707 15:54:45.640249 13370 net.cpp:104] Top shape: 32 96 28 28 (2408448)
I0707 15:54:45.640269 13370 layer_factory.hpp:78] Creating layer inception_3b/relu_5x5
I0707 15:54:45.640282 13370 net.cpp:68] Creating Layer inception_3b/relu_5x5
I0707 15:54:45.640293 13370 net.cpp:395] inception_3b/relu_5x5 <- inception_3b/5x5/bn
I0707 15:54:45.640306 13370 net.cpp:346] inception_3b/relu_5x5 -> inception_3b/5x5/bn (in-place)
I0707 15:54:45.640321 13370 net.cpp:97] Setting up inception_3b/relu_5x5
I0707 15:54:45.640336 13370 net.cpp:104] Top shape: 32 96 28 28 (2408448)
I0707 15:54:45.640348 13370 layer_factory.hpp:78] Creating layer inception_3b/pool
I0707 15:54:45.640359 13370 layer_factory.cpp:51] CUDNN does not support padding or multiple tops. Using Caffe's own pooling layer.
I0707 15:54:45.640374 13370 net.cpp:68] Creating Layer inception_3b/pool
I0707 15:54:45.640385 13370 net.cpp:395] inception_3b/pool <- inception_3a/output_inception_3a/output_0_split_3
I0707 15:54:45.640403 13370 net.cpp:357] inception_3b/pool -> inception_3b/pool
I0707 15:54:45.640419 13370 net.cpp:97] Setting up inception_3b/pool
I0707 15:54:45.640432 13370 net.cpp:104] Top shape: 32 256 28 28 (6422528)
I0707 15:54:45.640444 13370 layer_factory.hpp:78] Creating layer inception_3b/pool_proj
I0707 15:54:45.640460 13370 net.cpp:68] Creating Layer inception_3b/pool_proj
I0707 15:54:45.640472 13370 net.cpp:395] inception_3b/pool_proj <- inception_3b/pool
I0707 15:54:45.640486 13370 net.cpp:357] inception_3b/pool_proj -> inception_3b/pool_proj
I0707 15:54:45.640502 13370 net.cpp:97] Setting up inception_3b/pool_proj
I0707 15:54:45.640758 13370 net.cpp:104] Top shape: 32 64 28 28 (1605632)
I0707 15:54:45.640782 13370 layer_factory.hpp:78] Creating layer inception_3b/pool_proj/bn
I0707 15:54:45.640799 13370 net.cpp:68] Creating Layer inception_3b/pool_proj/bn
I0707 15:54:45.640810 13370 net.cpp:395] inception_3b/pool_proj/bn <- inception_3b/pool_proj
I0707 15:54:45.640828 13370 net.cpp:357] inception_3b/pool_proj/bn -> inception_3b/pool_proj/bn
I0707 15:54:45.640846 13370 net.cpp:97] Setting up inception_3b/pool_proj/bn
I0707 15:54:45.640872 13370 net.cpp:104] Top shape: 32 64 28 28 (1605632)
I0707 15:54:45.640892 13370 layer_factory.hpp:78] Creating layer inception_3b/relu_pool_proj
I0707 15:54:45.640905 13370 net.cpp:68] Creating Layer inception_3b/relu_pool_proj
I0707 15:54:45.640918 13370 net.cpp:395] inception_3b/relu_pool_proj <- inception_3b/pool_proj/bn
I0707 15:54:45.640930 13370 net.cpp:346] inception_3b/relu_pool_proj -> inception_3b/pool_proj/bn (in-place)
I0707 15:54:45.640944 13370 net.cpp:97] Setting up inception_3b/relu_pool_proj
I0707 15:54:45.640959 13370 net.cpp:104] Top shape: 32 64 28 28 (1605632)
I0707 15:54:45.640971 13370 layer_factory.hpp:78] Creating layer inception_3b/output
I0707 15:54:45.640985 13370 net.cpp:68] Creating Layer inception_3b/output
I0707 15:54:45.640996 13370 net.cpp:395] inception_3b/output <- inception_3b/1x1/bn
I0707 15:54:45.641010 13370 net.cpp:395] inception_3b/output <- inception_3b/3x3/bn
I0707 15:54:45.641022 13370 net.cpp:395] inception_3b/output <- inception_3b/5x5/bn
I0707 15:54:45.641034 13370 net.cpp:395] inception_3b/output <- inception_3b/pool_proj/bn
I0707 15:54:45.641052 13370 net.cpp:357] inception_3b/output -> inception_3b/output
I0707 15:54:45.641067 13370 net.cpp:97] Setting up inception_3b/output
I0707 15:54:45.641079 13370 net.cpp:104] Top shape: 32 480 28 28 (12042240)
I0707 15:54:45.641091 13370 layer_factory.hpp:78] Creating layer pool3/3x3_s2
I0707 15:54:45.641104 13370 net.cpp:68] Creating Layer pool3/3x3_s2
I0707 15:54:45.641116 13370 net.cpp:395] pool3/3x3_s2 <- inception_3b/output
I0707 15:54:45.641134 13370 net.cpp:357] pool3/3x3_s2 -> pool3/3x3_s2
I0707 15:54:45.641149 13370 net.cpp:97] Setting up pool3/3x3_s2
I0707 15:54:45.641165 13370 net.cpp:104] Top shape: 32 480 14 14 (3010560)
I0707 15:54:45.641176 13370 layer_factory.hpp:78] Creating layer pool3/3x3_s2_pool3/3x3_s2_0_split
I0707 15:54:45.641191 13370 net.cpp:68] Creating Layer pool3/3x3_s2_pool3/3x3_s2_0_split
I0707 15:54:45.641218 13370 net.cpp:395] pool3/3x3_s2_pool3/3x3_s2_0_split <- pool3/3x3_s2
I0707 15:54:45.641233 13370 net.cpp:357] pool3/3x3_s2_pool3/3x3_s2_0_split -> pool3/3x3_s2_pool3/3x3_s2_0_split_0
I0707 15:54:45.641249 13370 net.cpp:357] pool3/3x3_s2_pool3/3x3_s2_0_split -> pool3/3x3_s2_pool3/3x3_s2_0_split_1
I0707 15:54:45.641269 13370 net.cpp:357] pool3/3x3_s2_pool3/3x3_s2_0_split -> pool3/3x3_s2_pool3/3x3_s2_0_split_2
I0707 15:54:45.641285 13370 net.cpp:357] pool3/3x3_s2_pool3/3x3_s2_0_split -> pool3/3x3_s2_pool3/3x3_s2_0_split_3
I0707 15:54:45.641299 13370 net.cpp:97] Setting up pool3/3x3_s2_pool3/3x3_s2_0_split
I0707 15:54:45.641312 13370 net.cpp:104] Top shape: 32 480 14 14 (3010560)
I0707 15:54:45.641324 13370 net.cpp:104] Top shape: 32 480 14 14 (3010560)
I0707 15:54:45.641335 13370 net.cpp:104] Top shape: 32 480 14 14 (3010560)
I0707 15:54:45.641346 13370 net.cpp:104] Top shape: 32 480 14 14 (3010560)
I0707 15:54:45.641357 13370 layer_factory.hpp:78] Creating layer inception_4a/1x1
I0707 15:54:45.641371 13370 net.cpp:68] Creating Layer inception_4a/1x1
I0707 15:54:45.641387 13370 net.cpp:395] inception_4a/1x1 <- pool3/3x3_s2_pool3/3x3_s2_0_split_0
I0707 15:54:45.641402 13370 net.cpp:357] inception_4a/1x1 -> inception_4a/1x1
I0707 15:54:45.641417 13370 net.cpp:97] Setting up inception_4a/1x1
I0707 15:54:45.642689 13370 net.cpp:104] Top shape: 32 192 14 14 (1204224)
I0707 15:54:45.642715 13370 layer_factory.hpp:78] Creating layer inception_4a/1x1/bn
I0707 15:54:45.642735 13370 net.cpp:68] Creating Layer inception_4a/1x1/bn
I0707 15:54:45.642747 13370 net.cpp:395] inception_4a/1x1/bn <- inception_4a/1x1
I0707 15:54:45.642765 13370 net.cpp:357] inception_4a/1x1/bn -> inception_4a/1x1/bn
I0707 15:54:45.642781 13370 net.cpp:97] Setting up inception_4a/1x1/bn
I0707 15:54:45.642808 13370 net.cpp:104] Top shape: 32 192 14 14 (1204224)
I0707 15:54:45.642823 13370 layer_factory.hpp:78] Creating layer inception_4a/relu_1x1
I0707 15:54:45.642838 13370 net.cpp:68] Creating Layer inception_4a/relu_1x1
I0707 15:54:45.642849 13370 net.cpp:395] inception_4a/relu_1x1 <- inception_4a/1x1/bn
I0707 15:54:45.642865 13370 net.cpp:346] inception_4a/relu_1x1 -> inception_4a/1x1/bn (in-place)
I0707 15:54:45.642880 13370 net.cpp:97] Setting up inception_4a/relu_1x1
I0707 15:54:45.642895 13370 net.cpp:104] Top shape: 32 192 14 14 (1204224)
I0707 15:54:45.642907 13370 layer_factory.hpp:78] Creating layer inception_4a/3x3_reduce
I0707 15:54:45.642921 13370 net.cpp:68] Creating Layer inception_4a/3x3_reduce
I0707 15:54:45.642933 13370 net.cpp:395] inception_4a/3x3_reduce <- pool3/3x3_s2_pool3/3x3_s2_0_split_1
I0707 15:54:45.642952 13370 net.cpp:357] inception_4a/3x3_reduce -> inception_4a/3x3_reduce
I0707 15:54:45.642968 13370 net.cpp:97] Setting up inception_4a/3x3_reduce
I0707 15:54:45.643542 13370 net.cpp:104] Top shape: 32 96 14 14 (602112)
I0707 15:54:45.643563 13370 layer_factory.hpp:78] Creating layer inception_4a/3x3_reduce/bn
I0707 15:54:45.643581 13370 net.cpp:68] Creating Layer inception_4a/3x3_reduce/bn
I0707 15:54:45.643594 13370 net.cpp:395] inception_4a/3x3_reduce/bn <- inception_4a/3x3_reduce
I0707 15:54:45.643609 13370 net.cpp:357] inception_4a/3x3_reduce/bn -> inception_4a/3x3_reduce/bn
I0707 15:54:45.643625 13370 net.cpp:97] Setting up inception_4a/3x3_reduce/bn
I0707 15:54:45.643820 13370 net.cpp:104] Top shape: 32 96 14 14 (602112)
I0707 15:54:45.643841 13370 layer_factory.hpp:78] Creating layer inception_4a/relu_3x3_reduce
I0707 15:54:45.643856 13370 net.cpp:68] Creating Layer inception_4a/relu_3x3_reduce
I0707 15:54:45.643867 13370 net.cpp:395] inception_4a/relu_3x3_reduce <- inception_4a/3x3_reduce/bn
I0707 15:54:45.643884 13370 net.cpp:346] inception_4a/relu_3x3_reduce -> inception_4a/3x3_reduce/bn (in-place)
I0707 15:54:45.643900 13370 net.cpp:97] Setting up inception_4a/relu_3x3_reduce
I0707 15:54:45.643916 13370 net.cpp:104] Top shape: 32 96 14 14 (602112)
I0707 15:54:45.643929 13370 layer_factory.hpp:78] Creating layer inception_4a/3x3
I0707 15:54:45.643962 13370 net.cpp:68] Creating Layer inception_4a/3x3
I0707 15:54:45.643976 13370 net.cpp:395] inception_4a/3x3 <- inception_4a/3x3_reduce/bn
I0707 15:54:45.643996 13370 net.cpp:357] inception_4a/3x3 -> inception_4a/3x3
I0707 15:54:45.644012 13370 net.cpp:97] Setting up inception_4a/3x3
I0707 15:54:45.646042 13370 net.cpp:104] Top shape: 32 208 14 14 (1304576)
I0707 15:54:45.646065 13370 layer_factory.hpp:78] Creating layer inception_4a/3x3/bn
I0707 15:54:45.646090 13370 net.cpp:68] Creating Layer inception_4a/3x3/bn
I0707 15:54:45.646103 13370 net.cpp:395] inception_4a/3x3/bn <- inception_4a/3x3
I0707 15:54:45.646118 13370 net.cpp:357] inception_4a/3x3/bn -> inception_4a/3x3/bn
I0707 15:54:45.646134 13370 net.cpp:97] Setting up inception_4a/3x3/bn
I0707 15:54:45.646160 13370 net.cpp:104] Top shape: 32 208 14 14 (1304576)
I0707 15:54:45.646177 13370 layer_factory.hpp:78] Creating layer inception_4a/relu_3x3
I0707 15:54:45.646190 13370 net.cpp:68] Creating Layer inception_4a/relu_3x3
I0707 15:54:45.646203 13370 net.cpp:395] inception_4a/relu_3x3 <- inception_4a/3x3/bn
I0707 15:54:45.646219 13370 net.cpp:346] inception_4a/relu_3x3 -> inception_4a/3x3/bn (in-place)
I0707 15:54:45.646234 13370 net.cpp:97] Setting up inception_4a/relu_3x3
I0707 15:54:45.646248 13370 net.cpp:104] Top shape: 32 208 14 14 (1304576)
I0707 15:54:45.646260 13370 layer_factory.hpp:78] Creating layer inception_4a/5x5_reduce
I0707 15:54:45.646275 13370 net.cpp:68] Creating Layer inception_4a/5x5_reduce
I0707 15:54:45.646287 13370 net.cpp:395] inception_4a/5x5_reduce <- pool3/3x3_s2_pool3/3x3_s2_0_split_2
I0707 15:54:45.646302 13370 net.cpp:357] inception_4a/5x5_reduce -> inception_4a/5x5_reduce
I0707 15:54:45.646317 13370 net.cpp:97] Setting up inception_4a/5x5_reduce
I0707 15:54:45.646471 13370 net.cpp:104] Top shape: 32 16 14 14 (100352)
I0707 15:54:45.646494 13370 layer_factory.hpp:78] Creating layer inception_4a/5x5_reduce/bn
I0707 15:54:45.646510 13370 net.cpp:68] Creating Layer inception_4a/5x5_reduce/bn
I0707 15:54:45.646523 13370 net.cpp:395] inception_4a/5x5_reduce/bn <- inception_4a/5x5_reduce
I0707 15:54:45.646541 13370 net.cpp:357] inception_4a/5x5_reduce/bn -> inception_4a/5x5_reduce/bn
I0707 15:54:45.646558 13370 net.cpp:97] Setting up inception_4a/5x5_reduce/bn
I0707 15:54:45.646579 13370 net.cpp:104] Top shape: 32 16 14 14 (100352)
I0707 15:54:45.646595 13370 layer_factory.hpp:78] Creating layer inception_4a/relu_5x5_reduce
I0707 15:54:45.646608 13370 net.cpp:68] Creating Layer inception_4a/relu_5x5_reduce
I0707 15:54:45.646620 13370 net.cpp:395] inception_4a/relu_5x5_reduce <- inception_4a/5x5_reduce/bn
I0707 15:54:45.646636 13370 net.cpp:346] inception_4a/relu_5x5_reduce -> inception_4a/5x5_reduce/bn (in-place)
I0707 15:54:45.646651 13370 net.cpp:97] Setting up inception_4a/relu_5x5_reduce
I0707 15:54:45.646667 13370 net.cpp:104] Top shape: 32 16 14 14 (100352)
I0707 15:54:45.646679 13370 layer_factory.hpp:78] Creating layer inception_4a/5x5
I0707 15:54:45.646693 13370 net.cpp:68] Creating Layer inception_4a/5x5
I0707 15:54:45.646705 13370 net.cpp:395] inception_4a/5x5 <- inception_4a/5x5_reduce/bn
I0707 15:54:45.646723 13370 net.cpp:357] inception_4a/5x5 -> inception_4a/5x5
I0707 15:54:45.646739 13370 net.cpp:97] Setting up inception_4a/5x5
I0707 15:54:45.647027 13370 net.cpp:104] Top shape: 32 48 14 14 (301056)
I0707 15:54:45.647047 13370 layer_factory.hpp:78] Creating layer inception_4a/5x5/bn
I0707 15:54:45.647061 13370 net.cpp:68] Creating Layer inception_4a/5x5/bn
I0707 15:54:45.647074 13370 net.cpp:395] inception_4a/5x5/bn <- inception_4a/5x5
I0707 15:54:45.647097 13370 net.cpp:357] inception_4a/5x5/bn -> inception_4a/5x5/bn
I0707 15:54:45.647114 13370 net.cpp:97] Setting up inception_4a/5x5/bn
I0707 15:54:45.647135 13370 net.cpp:104] Top shape: 32 48 14 14 (301056)
I0707 15:54:45.647150 13370 layer_factory.hpp:78] Creating layer inception_4a/relu_5x5
I0707 15:54:45.647166 13370 net.cpp:68] Creating Layer inception_4a/relu_5x5
I0707 15:54:45.647178 13370 net.cpp:395] inception_4a/relu_5x5 <- inception_4a/5x5/bn
I0707 15:54:45.647209 13370 net.cpp:346] inception_4a/relu_5x5 -> inception_4a/5x5/bn (in-place)
I0707 15:54:45.647225 13370 net.cpp:97] Setting up inception_4a/relu_5x5
I0707 15:54:45.647240 13370 net.cpp:104] Top shape: 32 48 14 14 (301056)
I0707 15:54:45.647253 13370 layer_factory.hpp:78] Creating layer inception_4a/pool
I0707 15:54:45.647264 13370 layer_factory.cpp:51] CUDNN does not support padding or multiple tops. Using Caffe's own pooling layer.
I0707 15:54:45.647277 13370 net.cpp:68] Creating Layer inception_4a/pool
I0707 15:54:45.647294 13370 net.cpp:395] inception_4a/pool <- pool3/3x3_s2_pool3/3x3_s2_0_split_3
I0707 15:54:45.647308 13370 net.cpp:357] inception_4a/pool -> inception_4a/pool
I0707 15:54:45.647328 13370 net.cpp:97] Setting up inception_4a/pool
I0707 15:54:45.647346 13370 net.cpp:104] Top shape: 32 480 14 14 (3010560)
I0707 15:54:45.647359 13370 layer_factory.hpp:78] Creating layer inception_4a/pool_proj
I0707 15:54:45.647373 13370 net.cpp:68] Creating Layer inception_4a/pool_proj
I0707 15:54:45.647385 13370 net.cpp:395] inception_4a/pool_proj <- inception_4a/pool
I0707 15:54:45.647403 13370 net.cpp:357] inception_4a/pool_proj -> inception_4a/pool_proj
I0707 15:54:45.647418 13370 net.cpp:97] Setting up inception_4a/pool_proj
I0707 15:54:45.647954 13370 net.cpp:104] Top shape: 32 64 14 14 (401408)
I0707 15:54:45.647979 13370 layer_factory.hpp:78] Creating layer inception_4a/pool_proj/bn
I0707 15:54:45.647999 13370 net.cpp:68] Creating Layer inception_4a/pool_proj/bn
I0707 15:54:45.648011 13370 net.cpp:395] inception_4a/pool_proj/bn <- inception_4a/pool_proj
I0707 15:54:45.648030 13370 net.cpp:357] inception_4a/pool_proj/bn -> inception_4a/pool_proj/bn
I0707 15:54:45.648047 13370 net.cpp:97] Setting up inception_4a/pool_proj/bn
I0707 15:54:45.648068 13370 net.cpp:104] Top shape: 32 64 14 14 (401408)
I0707 15:54:45.648084 13370 layer_factory.hpp:78] Creating layer inception_4a/relu_pool_proj
I0707 15:54:45.648103 13370 net.cpp:68] Creating Layer inception_4a/relu_pool_proj
I0707 15:54:45.648116 13370 net.cpp:395] inception_4a/relu_pool_proj <- inception_4a/pool_proj/bn
I0707 15:54:45.648129 13370 net.cpp:346] inception_4a/relu_pool_proj -> inception_4a/pool_proj/bn (in-place)
I0707 15:54:45.648144 13370 net.cpp:97] Setting up inception_4a/relu_pool_proj
I0707 15:54:45.648160 13370 net.cpp:104] Top shape: 32 64 14 14 (401408)
I0707 15:54:45.648172 13370 layer_factory.hpp:78] Creating layer inception_4a/output
I0707 15:54:45.648185 13370 net.cpp:68] Creating Layer inception_4a/output
I0707 15:54:45.648197 13370 net.cpp:395] inception_4a/output <- inception_4a/1x1/bn
I0707 15:54:45.648211 13370 net.cpp:395] inception_4a/output <- inception_4a/3x3/bn
I0707 15:54:45.648223 13370 net.cpp:395] inception_4a/output <- inception_4a/5x5/bn
I0707 15:54:45.648236 13370 net.cpp:395] inception_4a/output <- inception_4a/pool_proj/bn
I0707 15:54:45.648250 13370 net.cpp:357] inception_4a/output -> inception_4a/output
I0707 15:54:45.648267 13370 net.cpp:97] Setting up inception_4a/output
I0707 15:54:45.648282 13370 net.cpp:104] Top shape: 32 512 14 14 (3211264)
I0707 15:54:45.648293 13370 layer_factory.hpp:78] Creating layer inception_4a/output_inception_4a/output_0_split
I0707 15:54:45.648306 13370 net.cpp:68] Creating Layer inception_4a/output_inception_4a/output_0_split
I0707 15:54:45.648319 13370 net.cpp:395] inception_4a/output_inception_4a/output_0_split <- inception_4a/output
I0707 15:54:45.648332 13370 net.cpp:357] inception_4a/output_inception_4a/output_0_split -> inception_4a/output_inception_4a/output_0_split_0
I0707 15:54:45.648349 13370 net.cpp:357] inception_4a/output_inception_4a/output_0_split -> inception_4a/output_inception_4a/output_0_split_1
I0707 15:54:45.648368 13370 net.cpp:357] inception_4a/output_inception_4a/output_0_split -> inception_4a/output_inception_4a/output_0_split_2
I0707 15:54:45.648385 13370 net.cpp:357] inception_4a/output_inception_4a/output_0_split -> inception_4a/output_inception_4a/output_0_split_3
I0707 15:54:45.648399 13370 net.cpp:357] inception_4a/output_inception_4a/output_0_split -> inception_4a/output_inception_4a/output_0_split_4
I0707 15:54:45.648432 13370 net.cpp:97] Setting up inception_4a/output_inception_4a/output_0_split
I0707 15:54:45.648447 13370 net.cpp:104] Top shape: 32 512 14 14 (3211264)
I0707 15:54:45.648458 13370 net.cpp:104] Top shape: 32 512 14 14 (3211264)
I0707 15:54:45.648469 13370 net.cpp:104] Top shape: 32 512 14 14 (3211264)
I0707 15:54:45.648480 13370 net.cpp:104] Top shape: 32 512 14 14 (3211264)
I0707 15:54:45.648491 13370 net.cpp:104] Top shape: 32 512 14 14 (3211264)
I0707 15:54:45.648502 13370 layer_factory.hpp:78] Creating layer loss1/ave_pool
I0707 15:54:45.648515 13370 net.cpp:68] Creating Layer loss1/ave_pool
I0707 15:54:45.648527 13370 net.cpp:395] loss1/ave_pool <- inception_4a/output_inception_4a/output_0_split_0
I0707 15:54:45.648545 13370 net.cpp:357] loss1/ave_pool -> loss1/ave_pool
I0707 15:54:45.648561 13370 net.cpp:97] Setting up loss1/ave_pool
I0707 15:54:45.648576 13370 net.cpp:104] Top shape: 32 512 4 4 (262144)
I0707 15:54:45.648589 13370 layer_factory.hpp:78] Creating layer loss1/conv
I0707 15:54:45.648603 13370 net.cpp:68] Creating Layer loss1/conv
I0707 15:54:45.648614 13370 net.cpp:395] loss1/conv <- loss1/ave_pool
I0707 15:54:45.648632 13370 net.cpp:357] loss1/conv -> loss1/conv
I0707 15:54:45.648648 13370 net.cpp:97] Setting up loss1/conv
I0707 15:54:45.649432 13370 net.cpp:104] Top shape: 32 128 4 4 (65536)
I0707 15:54:45.649456 13370 layer_factory.hpp:78] Creating layer loss1/conv/bn
I0707 15:54:45.649473 13370 net.cpp:68] Creating Layer loss1/conv/bn
I0707 15:54:45.649487 13370 net.cpp:395] loss1/conv/bn <- loss1/conv
I0707 15:54:45.649502 13370 net.cpp:357] loss1/conv/bn -> loss1/conv/bn
I0707 15:54:45.649516 13370 net.cpp:97] Setting up loss1/conv/bn
I0707 15:54:45.649538 13370 net.cpp:104] Top shape: 32 128 4 4 (65536)
I0707 15:54:45.649565 13370 layer_factory.hpp:78] Creating layer loss1/relu_conv
I0707 15:54:45.649580 13370 net.cpp:68] Creating Layer loss1/relu_conv
I0707 15:54:45.649593 13370 net.cpp:395] loss1/relu_conv <- loss1/conv/bn
I0707 15:54:45.649606 13370 net.cpp:346] loss1/relu_conv -> loss1/conv/bn (in-place)
I0707 15:54:45.649621 13370 net.cpp:97] Setting up loss1/relu_conv
I0707 15:54:45.649636 13370 net.cpp:104] Top shape: 32 128 4 4 (65536)
I0707 15:54:45.649648 13370 layer_factory.hpp:78] Creating layer loss1/fc
I0707 15:54:45.649670 13370 net.cpp:68] Creating Layer loss1/fc
I0707 15:54:45.649684 13370 net.cpp:395] loss1/fc <- loss1/conv/bn
I0707 15:54:45.649698 13370 net.cpp:357] loss1/fc -> loss1/fc
I0707 15:54:45.649714 13370 net.cpp:97] Setting up loss1/fc
I0707 15:54:45.672842 13370 net.cpp:104] Top shape: 32 1024 1 1 (32768)
I0707 15:54:45.672912 13370 layer_factory.hpp:78] Creating layer loss1/fc/bn
I0707 15:54:45.672936 13370 net.cpp:68] Creating Layer loss1/fc/bn
I0707 15:54:45.672950 13370 net.cpp:395] loss1/fc/bn <- loss1/fc
I0707 15:54:45.672971 13370 net.cpp:357] loss1/fc/bn -> loss1/fc/bn
I0707 15:54:45.672991 13370 net.cpp:97] Setting up loss1/fc/bn
I0707 15:54:45.673023 13370 net.cpp:104] Top shape: 32 1024 1 1 (32768)
I0707 15:54:45.673041 13370 layer_factory.hpp:78] Creating layer loss1/relu_fc
I0707 15:54:45.673056 13370 net.cpp:68] Creating Layer loss1/relu_fc
I0707 15:54:45.673069 13370 net.cpp:395] loss1/relu_fc <- loss1/fc/bn
I0707 15:54:45.673081 13370 net.cpp:346] loss1/relu_fc -> loss1/fc/bn (in-place)
I0707 15:54:45.673095 13370 net.cpp:97] Setting up loss1/relu_fc
I0707 15:54:45.673123 13370 net.cpp:104] Top shape: 32 1024 1 1 (32768)
I0707 15:54:45.673135 13370 layer_factory.hpp:78] Creating layer loss1/classifier
I0707 15:54:45.673152 13370 net.cpp:68] Creating Layer loss1/classifier
I0707 15:54:45.673163 13370 net.cpp:395] loss1/classifier <- loss1/fc/bn
I0707 15:54:45.673182 13370 net.cpp:357] loss1/classifier -> loss1/classifier
I0707 15:54:45.673204 13370 net.cpp:97] Setting up loss1/classifier
I0707 15:54:45.684552 13370 net.cpp:104] Top shape: 32 1000 1 1 (32000)
I0707 15:54:45.684587 13370 layer_factory.hpp:78] Creating layer loss1/loss
I0707 15:54:45.684612 13370 net.cpp:68] Creating Layer loss1/loss
I0707 15:54:45.684661 13370 net.cpp:395] loss1/loss <- loss1/classifier
I0707 15:54:45.684677 13370 net.cpp:395] loss1/loss <- label_data_1_split_0
I0707 15:54:45.684695 13370 net.cpp:357] loss1/loss -> loss1/loss1
I0707 15:54:45.684712 13370 net.cpp:97] Setting up loss1/loss
I0707 15:54:45.684731 13370 layer_factory.hpp:78] Creating layer loss1/loss
I0707 15:54:45.684866 13370 net.cpp:104] Top shape: 1 1 1 1 (1)
I0707 15:54:45.684883 13370 net.cpp:110]     with loss weight 0.3
I0707 15:54:45.684945 13370 layer_factory.hpp:78] Creating layer inception_4b/1x1
I0707 15:54:45.684968 13370 net.cpp:68] Creating Layer inception_4b/1x1
I0707 15:54:45.684983 13370 net.cpp:395] inception_4b/1x1 <- inception_4a/output_inception_4a/output_0_split_1
I0707 15:54:45.684998 13370 net.cpp:357] inception_4b/1x1 -> inception_4b/1x1
I0707 15:54:45.685015 13370 net.cpp:97] Setting up inception_4b/1x1
I0707 15:54:45.686051 13370 net.cpp:104] Top shape: 32 160 14 14 (1003520)
I0707 15:54:45.686074 13370 layer_factory.hpp:78] Creating layer inception_4b/1x1/bn
I0707 15:54:45.686094 13370 net.cpp:68] Creating Layer inception_4b/1x1/bn
I0707 15:54:45.686107 13370 net.cpp:395] inception_4b/1x1/bn <- inception_4b/1x1
I0707 15:54:45.686122 13370 net.cpp:357] inception_4b/1x1/bn -> inception_4b/1x1/bn
I0707 15:54:45.686138 13370 net.cpp:97] Setting up inception_4b/1x1/bn
I0707 15:54:45.686163 13370 net.cpp:104] Top shape: 32 160 14 14 (1003520)
I0707 15:54:45.686179 13370 layer_factory.hpp:78] Creating layer inception_4b/relu_1x1
I0707 15:54:45.686197 13370 net.cpp:68] Creating Layer inception_4b/relu_1x1
I0707 15:54:45.686208 13370 net.cpp:395] inception_4b/relu_1x1 <- inception_4b/1x1/bn
I0707 15:54:45.686221 13370 net.cpp:346] inception_4b/relu_1x1 -> inception_4b/1x1/bn (in-place)
I0707 15:54:45.686236 13370 net.cpp:97] Setting up inception_4b/relu_1x1
I0707 15:54:45.686252 13370 net.cpp:104] Top shape: 32 160 14 14 (1003520)
I0707 15:54:45.686264 13370 layer_factory.hpp:78] Creating layer inception_4b/3x3_reduce
I0707 15:54:45.686280 13370 net.cpp:68] Creating Layer inception_4b/3x3_reduce
I0707 15:54:45.686292 13370 net.cpp:395] inception_4b/3x3_reduce <- inception_4a/output_inception_4a/output_0_split_2
I0707 15:54:45.686316 13370 net.cpp:357] inception_4b/3x3_reduce -> inception_4b/3x3_reduce
I0707 15:54:45.686333 13370 net.cpp:97] Setting up inception_4b/3x3_reduce
I0707 15:54:45.687027 13370 net.cpp:104] Top shape: 32 112 14 14 (702464)
I0707 15:54:45.687049 13370 layer_factory.hpp:78] Creating layer inception_4b/3x3_reduce/bn
I0707 15:54:45.687070 13370 net.cpp:68] Creating Layer inception_4b/3x3_reduce/bn
I0707 15:54:45.687083 13370 net.cpp:395] inception_4b/3x3_reduce/bn <- inception_4b/3x3_reduce
I0707 15:54:45.687098 13370 net.cpp:357] inception_4b/3x3_reduce/bn -> inception_4b/3x3_reduce/bn
I0707 15:54:45.687114 13370 net.cpp:97] Setting up inception_4b/3x3_reduce/bn
I0707 15:54:45.687139 13370 net.cpp:104] Top shape: 32 112 14 14 (702464)
I0707 15:54:45.687155 13370 layer_factory.hpp:78] Creating layer inception_4b/relu_3x3_reduce
I0707 15:54:45.687167 13370 net.cpp:68] Creating Layer inception_4b/relu_3x3_reduce
I0707 15:54:45.687180 13370 net.cpp:395] inception_4b/relu_3x3_reduce <- inception_4b/3x3_reduce/bn
I0707 15:54:45.687192 13370 net.cpp:346] inception_4b/relu_3x3_reduce -> inception_4b/3x3_reduce/bn (in-place)
I0707 15:54:45.687206 13370 net.cpp:97] Setting up inception_4b/relu_3x3_reduce
I0707 15:54:45.687222 13370 net.cpp:104] Top shape: 32 112 14 14 (702464)
I0707 15:54:45.687233 13370 layer_factory.hpp:78] Creating layer inception_4b/3x3
I0707 15:54:45.687250 13370 net.cpp:68] Creating Layer inception_4b/3x3
I0707 15:54:45.687263 13370 net.cpp:395] inception_4b/3x3 <- inception_4b/3x3_reduce/bn
I0707 15:54:45.687279 13370 net.cpp:357] inception_4b/3x3 -> inception_4b/3x3
I0707 15:54:45.687294 13370 net.cpp:97] Setting up inception_4b/3x3
I0707 15:54:45.689843 13370 net.cpp:104] Top shape: 32 224 14 14 (1404928)
I0707 15:54:45.689867 13370 layer_factory.hpp:78] Creating layer inception_4b/3x3/bn
I0707 15:54:45.689903 13370 net.cpp:68] Creating Layer inception_4b/3x3/bn
I0707 15:54:45.689918 13370 net.cpp:395] inception_4b/3x3/bn <- inception_4b/3x3
I0707 15:54:45.689935 13370 net.cpp:357] inception_4b/3x3/bn -> inception_4b/3x3/bn
I0707 15:54:45.689952 13370 net.cpp:97] Setting up inception_4b/3x3/bn
I0707 15:54:45.689977 13370 net.cpp:104] Top shape: 32 224 14 14 (1404928)
I0707 15:54:45.689996 13370 layer_factory.hpp:78] Creating layer inception_4b/relu_3x3
I0707 15:54:45.690009 13370 net.cpp:68] Creating Layer inception_4b/relu_3x3
I0707 15:54:45.690022 13370 net.cpp:395] inception_4b/relu_3x3 <- inception_4b/3x3/bn
I0707 15:54:45.690035 13370 net.cpp:346] inception_4b/relu_3x3 -> inception_4b/3x3/bn (in-place)
I0707 15:54:45.690049 13370 net.cpp:97] Setting up inception_4b/relu_3x3
I0707 15:54:45.690064 13370 net.cpp:104] Top shape: 32 224 14 14 (1404928)
I0707 15:54:45.690076 13370 layer_factory.hpp:78] Creating layer inception_4b/5x5_reduce
I0707 15:54:45.690091 13370 net.cpp:68] Creating Layer inception_4b/5x5_reduce
I0707 15:54:45.690104 13370 net.cpp:395] inception_4b/5x5_reduce <- inception_4a/output_inception_4a/output_0_split_3
I0707 15:54:45.690121 13370 net.cpp:357] inception_4b/5x5_reduce -> inception_4b/5x5_reduce
I0707 15:54:45.690136 13370 net.cpp:97] Setting up inception_4b/5x5_reduce
I0707 15:54:45.690568 13370 net.cpp:104] Top shape: 32 24 14 14 (150528)
I0707 15:54:45.690593 13370 layer_factory.hpp:78] Creating layer inception_4b/5x5_reduce/bn
I0707 15:54:45.690609 13370 net.cpp:68] Creating Layer inception_4b/5x5_reduce/bn
I0707 15:54:45.690623 13370 net.cpp:395] inception_4b/5x5_reduce/bn <- inception_4b/5x5_reduce
I0707 15:54:45.690640 13370 net.cpp:357] inception_4b/5x5_reduce/bn -> inception_4b/5x5_reduce/bn
I0707 15:54:45.690656 13370 net.cpp:97] Setting up inception_4b/5x5_reduce/bn
I0707 15:54:45.690678 13370 net.cpp:104] Top shape: 32 24 14 14 (150528)
I0707 15:54:45.690693 13370 layer_factory.hpp:78] Creating layer inception_4b/relu_5x5_reduce
I0707 15:54:45.690711 13370 net.cpp:68] Creating Layer inception_4b/relu_5x5_reduce
I0707 15:54:45.690722 13370 net.cpp:395] inception_4b/relu_5x5_reduce <- inception_4b/5x5_reduce/bn
I0707 15:54:45.690735 13370 net.cpp:346] inception_4b/relu_5x5_reduce -> inception_4b/5x5_reduce/bn (in-place)
I0707 15:54:45.690749 13370 net.cpp:97] Setting up inception_4b/relu_5x5_reduce
I0707 15:54:45.690764 13370 net.cpp:104] Top shape: 32 24 14 14 (150528)
I0707 15:54:45.690776 13370 layer_factory.hpp:78] Creating layer inception_4b/5x5
I0707 15:54:45.690793 13370 net.cpp:68] Creating Layer inception_4b/5x5
I0707 15:54:45.690806 13370 net.cpp:395] inception_4b/5x5 <- inception_4b/5x5_reduce/bn
I0707 15:54:45.690820 13370 net.cpp:357] inception_4b/5x5 -> inception_4b/5x5
I0707 15:54:45.690835 13370 net.cpp:97] Setting up inception_4b/5x5
I0707 15:54:45.691329 13370 net.cpp:104] Top shape: 32 64 14 14 (401408)
I0707 15:54:45.691350 13370 layer_factory.hpp:78] Creating layer inception_4b/5x5/bn
I0707 15:54:45.691375 13370 net.cpp:68] Creating Layer inception_4b/5x5/bn
I0707 15:54:45.691387 13370 net.cpp:395] inception_4b/5x5/bn <- inception_4b/5x5
I0707 15:54:45.691401 13370 net.cpp:357] inception_4b/5x5/bn -> inception_4b/5x5/bn
I0707 15:54:45.691417 13370 net.cpp:97] Setting up inception_4b/5x5/bn
I0707 15:54:45.691440 13370 net.cpp:104] Top shape: 32 64 14 14 (401408)
I0707 15:54:45.691455 13370 layer_factory.hpp:78] Creating layer inception_4b/relu_5x5
I0707 15:54:45.691469 13370 net.cpp:68] Creating Layer inception_4b/relu_5x5
I0707 15:54:45.691481 13370 net.cpp:395] inception_4b/relu_5x5 <- inception_4b/5x5/bn
I0707 15:54:45.691493 13370 net.cpp:346] inception_4b/relu_5x5 -> inception_4b/5x5/bn (in-place)
I0707 15:54:45.691509 13370 net.cpp:97] Setting up inception_4b/relu_5x5
I0707 15:54:45.691522 13370 net.cpp:104] Top shape: 32 64 14 14 (401408)
I0707 15:54:45.691534 13370 layer_factory.hpp:78] Creating layer inception_4b/pool
I0707 15:54:45.691546 13370 layer_factory.cpp:51] CUDNN does not support padding or multiple tops. Using Caffe's own pooling layer.
I0707 15:54:45.691587 13370 net.cpp:68] Creating Layer inception_4b/pool
I0707 15:54:45.691601 13370 net.cpp:395] inception_4b/pool <- inception_4a/output_inception_4a/output_0_split_4
I0707 15:54:45.691617 13370 net.cpp:357] inception_4b/pool -> inception_4b/pool
I0707 15:54:45.691632 13370 net.cpp:97] Setting up inception_4b/pool
I0707 15:54:45.691649 13370 net.cpp:104] Top shape: 32 512 14 14 (3211264)
I0707 15:54:45.691660 13370 layer_factory.hpp:78] Creating layer inception_4b/pool_proj
I0707 15:54:45.691679 13370 net.cpp:68] Creating Layer inception_4b/pool_proj
I0707 15:54:45.691690 13370 net.cpp:395] inception_4b/pool_proj <- inception_4b/pool
I0707 15:54:45.691704 13370 net.cpp:357] inception_4b/pool_proj -> inception_4b/pool_proj
I0707 15:54:45.691725 13370 net.cpp:97] Setting up inception_4b/pool_proj
I0707 15:54:45.692162 13370 net.cpp:104] Top shape: 32 64 14 14 (401408)
I0707 15:54:45.692185 13370 layer_factory.hpp:78] Creating layer inception_4b/pool_proj/bn
I0707 15:54:45.692200 13370 net.cpp:68] Creating Layer inception_4b/pool_proj/bn
I0707 15:54:45.692214 13370 net.cpp:395] inception_4b/pool_proj/bn <- inception_4b/pool_proj
I0707 15:54:45.692230 13370 net.cpp:357] inception_4b/pool_proj/bn -> inception_4b/pool_proj/bn
I0707 15:54:45.692246 13370 net.cpp:97] Setting up inception_4b/pool_proj/bn
I0707 15:54:45.692268 13370 net.cpp:104] Top shape: 32 64 14 14 (401408)
I0707 15:54:45.692283 13370 layer_factory.hpp:78] Creating layer inception_4b/relu_pool_proj
I0707 15:54:45.692301 13370 net.cpp:68] Creating Layer inception_4b/relu_pool_proj
I0707 15:54:45.692312 13370 net.cpp:395] inception_4b/relu_pool_proj <- inception_4b/pool_proj/bn
I0707 15:54:45.692325 13370 net.cpp:346] inception_4b/relu_pool_proj -> inception_4b/pool_proj/bn (in-place)
I0707 15:54:45.692339 13370 net.cpp:97] Setting up inception_4b/relu_pool_proj
I0707 15:54:45.692354 13370 net.cpp:104] Top shape: 32 64 14 14 (401408)
I0707 15:54:45.692366 13370 layer_factory.hpp:78] Creating layer inception_4b/output
I0707 15:54:45.692384 13370 net.cpp:68] Creating Layer inception_4b/output
I0707 15:54:45.692397 13370 net.cpp:395] inception_4b/output <- inception_4b/1x1/bn
I0707 15:54:45.692410 13370 net.cpp:395] inception_4b/output <- inception_4b/3x3/bn
I0707 15:54:45.692423 13370 net.cpp:395] inception_4b/output <- inception_4b/5x5/bn
I0707 15:54:45.692436 13370 net.cpp:395] inception_4b/output <- inception_4b/pool_proj/bn
I0707 15:54:45.692451 13370 net.cpp:357] inception_4b/output -> inception_4b/output
I0707 15:54:45.692466 13370 net.cpp:97] Setting up inception_4b/output
I0707 15:54:45.692478 13370 net.cpp:104] Top shape: 32 512 14 14 (3211264)
I0707 15:54:45.692489 13370 layer_factory.hpp:78] Creating layer inception_4b/output_inception_4b/output_0_split
I0707 15:54:45.692504 13370 net.cpp:68] Creating Layer inception_4b/output_inception_4b/output_0_split
I0707 15:54:45.692517 13370 net.cpp:395] inception_4b/output_inception_4b/output_0_split <- inception_4b/output
I0707 15:54:45.692530 13370 net.cpp:357] inception_4b/output_inception_4b/output_0_split -> inception_4b/output_inception_4b/output_0_split_0
I0707 15:54:45.692549 13370 net.cpp:357] inception_4b/output_inception_4b/output_0_split -> inception_4b/output_inception_4b/output_0_split_1
I0707 15:54:45.692567 13370 net.cpp:357] inception_4b/output_inception_4b/output_0_split -> inception_4b/output_inception_4b/output_0_split_2
I0707 15:54:45.692584 13370 net.cpp:357] inception_4b/output_inception_4b/output_0_split -> inception_4b/output_inception_4b/output_0_split_3
I0707 15:54:45.692600 13370 net.cpp:97] Setting up inception_4b/output_inception_4b/output_0_split
I0707 15:54:45.692613 13370 net.cpp:104] Top shape: 32 512 14 14 (3211264)
I0707 15:54:45.692625 13370 net.cpp:104] Top shape: 32 512 14 14 (3211264)
I0707 15:54:45.692636 13370 net.cpp:104] Top shape: 32 512 14 14 (3211264)
I0707 15:54:45.692646 13370 net.cpp:104] Top shape: 32 512 14 14 (3211264)
I0707 15:54:45.692657 13370 layer_factory.hpp:78] Creating layer inception_4c/1x1
I0707 15:54:45.692673 13370 net.cpp:68] Creating Layer inception_4c/1x1
I0707 15:54:45.692703 13370 net.cpp:395] inception_4c/1x1 <- inception_4b/output_inception_4b/output_0_split_0
I0707 15:54:45.692719 13370 net.cpp:357] inception_4c/1x1 -> inception_4c/1x1
I0707 15:54:45.692735 13370 net.cpp:97] Setting up inception_4c/1x1
I0707 15:54:45.693524 13370 net.cpp:104] Top shape: 32 128 14 14 (802816)
I0707 15:54:45.693547 13370 layer_factory.hpp:78] Creating layer inception_4c/1x1/bn
I0707 15:54:45.693565 13370 net.cpp:68] Creating Layer inception_4c/1x1/bn
I0707 15:54:45.693578 13370 net.cpp:395] inception_4c/1x1/bn <- inception_4c/1x1
I0707 15:54:45.693593 13370 net.cpp:357] inception_4c/1x1/bn -> inception_4c/1x1/bn
I0707 15:54:45.693608 13370 net.cpp:97] Setting up inception_4c/1x1/bn
I0707 15:54:45.693631 13370 net.cpp:104] Top shape: 32 128 14 14 (802816)
I0707 15:54:45.693647 13370 layer_factory.hpp:78] Creating layer inception_4c/relu_1x1
I0707 15:54:45.693663 13370 net.cpp:68] Creating Layer inception_4c/relu_1x1
I0707 15:54:45.693675 13370 net.cpp:395] inception_4c/relu_1x1 <- inception_4c/1x1/bn
I0707 15:54:45.693688 13370 net.cpp:346] inception_4c/relu_1x1 -> inception_4c/1x1/bn (in-place)
I0707 15:54:45.693702 13370 net.cpp:97] Setting up inception_4c/relu_1x1
I0707 15:54:45.693717 13370 net.cpp:104] Top shape: 32 128 14 14 (802816)
I0707 15:54:45.693729 13370 layer_factory.hpp:78] Creating layer inception_4c/3x3_reduce
I0707 15:54:45.693742 13370 net.cpp:68] Creating Layer inception_4c/3x3_reduce
I0707 15:54:45.693755 13370 net.cpp:395] inception_4c/3x3_reduce <- inception_4b/output_inception_4b/output_0_split_1
I0707 15:54:45.693773 13370 net.cpp:357] inception_4c/3x3_reduce -> inception_4c/3x3_reduce
I0707 15:54:45.693789 13370 net.cpp:97] Setting up inception_4c/3x3_reduce
I0707 15:54:45.694574 13370 net.cpp:104] Top shape: 32 128 14 14 (802816)
I0707 15:54:45.694597 13370 layer_factory.hpp:78] Creating layer inception_4c/3x3_reduce/bn
I0707 15:54:45.694617 13370 net.cpp:68] Creating Layer inception_4c/3x3_reduce/bn
I0707 15:54:45.694629 13370 net.cpp:395] inception_4c/3x3_reduce/bn <- inception_4c/3x3_reduce
I0707 15:54:45.694644 13370 net.cpp:357] inception_4c/3x3_reduce/bn -> inception_4c/3x3_reduce/bn
I0707 15:54:45.694659 13370 net.cpp:97] Setting up inception_4c/3x3_reduce/bn
I0707 15:54:45.694684 13370 net.cpp:104] Top shape: 32 128 14 14 (802816)
I0707 15:54:45.694699 13370 layer_factory.hpp:78] Creating layer inception_4c/relu_3x3_reduce
I0707 15:54:45.694712 13370 net.cpp:68] Creating Layer inception_4c/relu_3x3_reduce
I0707 15:54:45.694723 13370 net.cpp:395] inception_4c/relu_3x3_reduce <- inception_4c/3x3_reduce/bn
I0707 15:54:45.694737 13370 net.cpp:346] inception_4c/relu_3x3_reduce -> inception_4c/3x3_reduce/bn (in-place)
I0707 15:54:45.694751 13370 net.cpp:97] Setting up inception_4c/relu_3x3_reduce
I0707 15:54:45.694766 13370 net.cpp:104] Top shape: 32 128 14 14 (802816)
I0707 15:54:45.694778 13370 layer_factory.hpp:78] Creating layer inception_4c/3x3
I0707 15:54:45.694795 13370 net.cpp:68] Creating Layer inception_4c/3x3
I0707 15:54:45.694808 13370 net.cpp:395] inception_4c/3x3 <- inception_4c/3x3_reduce/bn
I0707 15:54:45.694824 13370 net.cpp:357] inception_4c/3x3 -> inception_4c/3x3
I0707 15:54:45.694840 13370 net.cpp:97] Setting up inception_4c/3x3
I0707 15:54:45.698297 13370 net.cpp:104] Top shape: 32 256 14 14 (1605632)
I0707 15:54:45.698324 13370 layer_factory.hpp:78] Creating layer inception_4c/3x3/bn
I0707 15:54:45.698341 13370 net.cpp:68] Creating Layer inception_4c/3x3/bn
I0707 15:54:45.698354 13370 net.cpp:395] inception_4c/3x3/bn <- inception_4c/3x3
I0707 15:54:45.698371 13370 net.cpp:357] inception_4c/3x3/bn -> inception_4c/3x3/bn
I0707 15:54:45.698389 13370 net.cpp:97] Setting up inception_4c/3x3/bn
I0707 15:54:45.698411 13370 net.cpp:104] Top shape: 32 256 14 14 (1605632)
I0707 15:54:45.698426 13370 layer_factory.hpp:78] Creating layer inception_4c/relu_3x3
I0707 15:54:45.698441 13370 net.cpp:68] Creating Layer inception_4c/relu_3x3
I0707 15:54:45.698452 13370 net.cpp:395] inception_4c/relu_3x3 <- inception_4c/3x3/bn
I0707 15:54:45.698485 13370 net.cpp:346] inception_4c/relu_3x3 -> inception_4c/3x3/bn (in-place)
I0707 15:54:45.698503 13370 net.cpp:97] Setting up inception_4c/relu_3x3
I0707 15:54:45.698518 13370 net.cpp:104] Top shape: 32 256 14 14 (1605632)
I0707 15:54:45.698529 13370 layer_factory.hpp:78] Creating layer inception_4c/5x5_reduce
I0707 15:54:45.698544 13370 net.cpp:68] Creating Layer inception_4c/5x5_reduce
I0707 15:54:45.698557 13370 net.cpp:395] inception_4c/5x5_reduce <- inception_4b/output_inception_4b/output_0_split_2
I0707 15:54:45.698576 13370 net.cpp:357] inception_4c/5x5_reduce -> inception_4c/5x5_reduce
I0707 15:54:45.698592 13370 net.cpp:97] Setting up inception_4c/5x5_reduce
I0707 15:54:45.698792 13370 net.cpp:104] Top shape: 32 24 14 14 (150528)
I0707 15:54:45.698813 13370 layer_factory.hpp:78] Creating layer inception_4c/5x5_reduce/bn
I0707 15:54:45.698832 13370 net.cpp:68] Creating Layer inception_4c/5x5_reduce/bn
I0707 15:54:45.698845 13370 net.cpp:395] inception_4c/5x5_reduce/bn <- inception_4c/5x5_reduce
I0707 15:54:45.698859 13370 net.cpp:357] inception_4c/5x5_reduce/bn -> inception_4c/5x5_reduce/bn
I0707 15:54:45.698875 13370 net.cpp:97] Setting up inception_4c/5x5_reduce/bn
I0707 15:54:45.698901 13370 net.cpp:104] Top shape: 32 24 14 14 (150528)
I0707 15:54:45.698917 13370 layer_factory.hpp:78] Creating layer inception_4c/relu_5x5_reduce
I0707 15:54:45.698931 13370 net.cpp:68] Creating Layer inception_4c/relu_5x5_reduce
I0707 15:54:45.698943 13370 net.cpp:395] inception_4c/relu_5x5_reduce <- inception_4c/5x5_reduce/bn
I0707 15:54:45.698956 13370 net.cpp:346] inception_4c/relu_5x5_reduce -> inception_4c/5x5_reduce/bn (in-place)
I0707 15:54:45.698971 13370 net.cpp:97] Setting up inception_4c/relu_5x5_reduce
I0707 15:54:45.698986 13370 net.cpp:104] Top shape: 32 24 14 14 (150528)
I0707 15:54:45.698997 13370 layer_factory.hpp:78] Creating layer inception_4c/5x5
I0707 15:54:45.699014 13370 net.cpp:68] Creating Layer inception_4c/5x5
I0707 15:54:45.699026 13370 net.cpp:395] inception_4c/5x5 <- inception_4c/5x5_reduce/bn
I0707 15:54:45.699041 13370 net.cpp:357] inception_4c/5x5 -> inception_4c/5x5
I0707 15:54:45.699056 13370 net.cpp:97] Setting up inception_4c/5x5
I0707 15:54:45.699556 13370 net.cpp:104] Top shape: 32 64 14 14 (401408)
I0707 15:54:45.699579 13370 layer_factory.hpp:78] Creating layer inception_4c/5x5/bn
I0707 15:54:45.699594 13370 net.cpp:68] Creating Layer inception_4c/5x5/bn
I0707 15:54:45.699605 13370 net.cpp:395] inception_4c/5x5/bn <- inception_4c/5x5
I0707 15:54:45.699623 13370 net.cpp:357] inception_4c/5x5/bn -> inception_4c/5x5/bn
I0707 15:54:45.699640 13370 net.cpp:97] Setting up inception_4c/5x5/bn
I0707 15:54:45.699661 13370 net.cpp:104] Top shape: 32 64 14 14 (401408)
I0707 15:54:45.699676 13370 layer_factory.hpp:78] Creating layer inception_4c/relu_5x5
I0707 15:54:45.699692 13370 net.cpp:68] Creating Layer inception_4c/relu_5x5
I0707 15:54:45.699704 13370 net.cpp:395] inception_4c/relu_5x5 <- inception_4c/5x5/bn
I0707 15:54:45.699725 13370 net.cpp:346] inception_4c/relu_5x5 -> inception_4c/5x5/bn (in-place)
I0707 15:54:45.699741 13370 net.cpp:97] Setting up inception_4c/relu_5x5
I0707 15:54:45.699756 13370 net.cpp:104] Top shape: 32 64 14 14 (401408)
I0707 15:54:45.699767 13370 layer_factory.hpp:78] Creating layer inception_4c/pool
I0707 15:54:45.699779 13370 layer_factory.cpp:51] CUDNN does not support padding or multiple tops. Using Caffe's own pooling layer.
I0707 15:54:45.699797 13370 net.cpp:68] Creating Layer inception_4c/pool
I0707 15:54:45.699813 13370 net.cpp:395] inception_4c/pool <- inception_4b/output_inception_4b/output_0_split_3
I0707 15:54:45.699828 13370 net.cpp:357] inception_4c/pool -> inception_4c/pool
I0707 15:54:45.699843 13370 net.cpp:97] Setting up inception_4c/pool
I0707 15:54:45.699856 13370 net.cpp:104] Top shape: 32 512 14 14 (3211264)
I0707 15:54:45.699868 13370 layer_factory.hpp:78] Creating layer inception_4c/pool_proj
I0707 15:54:45.699887 13370 net.cpp:68] Creating Layer inception_4c/pool_proj
I0707 15:54:45.699898 13370 net.cpp:395] inception_4c/pool_proj <- inception_4c/pool
I0707 15:54:45.699933 13370 net.cpp:357] inception_4c/pool_proj -> inception_4c/pool_proj
I0707 15:54:45.699951 13370 net.cpp:97] Setting up inception_4c/pool_proj
I0707 15:54:45.700383 13370 net.cpp:104] Top shape: 32 64 14 14 (401408)
I0707 15:54:45.700399 13370 layer_factory.hpp:78] Creating layer inception_4c/pool_proj/bn
I0707 15:54:45.700413 13370 net.cpp:68] Creating Layer inception_4c/pool_proj/bn
I0707 15:54:45.700423 13370 net.cpp:395] inception_4c/pool_proj/bn <- inception_4c/pool_proj
I0707 15:54:45.700433 13370 net.cpp:357] inception_4c/pool_proj/bn -> inception_4c/pool_proj/bn
I0707 15:54:45.700443 13370 net.cpp:97] Setting up inception_4c/pool_proj/bn
I0707 15:54:45.700464 13370 net.cpp:104] Top shape: 32 64 14 14 (401408)
I0707 15:54:45.700475 13370 layer_factory.hpp:78] Creating layer inception_4c/relu_pool_proj
I0707 15:54:45.700484 13370 net.cpp:68] Creating Layer inception_4c/relu_pool_proj
I0707 15:54:45.700492 13370 net.cpp:395] inception_4c/relu_pool_proj <- inception_4c/pool_proj/bn
I0707 15:54:45.700500 13370 net.cpp:346] inception_4c/relu_pool_proj -> inception_4c/pool_proj/bn (in-place)
I0707 15:54:45.700510 13370 net.cpp:97] Setting up inception_4c/relu_pool_proj
I0707 15:54:45.700520 13370 net.cpp:104] Top shape: 32 64 14 14 (401408)
I0707 15:54:45.700527 13370 layer_factory.hpp:78] Creating layer inception_4c/output
I0707 15:54:45.700539 13370 net.cpp:68] Creating Layer inception_4c/output
I0707 15:54:45.700547 13370 net.cpp:395] inception_4c/output <- inception_4c/1x1/bn
I0707 15:54:45.700556 13370 net.cpp:395] inception_4c/output <- inception_4c/3x3/bn
I0707 15:54:45.700564 13370 net.cpp:395] inception_4c/output <- inception_4c/5x5/bn
I0707 15:54:45.700572 13370 net.cpp:395] inception_4c/output <- inception_4c/pool_proj/bn
I0707 15:54:45.700582 13370 net.cpp:357] inception_4c/output -> inception_4c/output
I0707 15:54:45.700592 13370 net.cpp:97] Setting up inception_4c/output
I0707 15:54:45.700598 13370 net.cpp:104] Top shape: 32 512 14 14 (3211264)
I0707 15:54:45.700606 13370 layer_factory.hpp:78] Creating layer inception_4c/output_inception_4c/output_0_split
I0707 15:54:45.700642 13370 net.cpp:68] Creating Layer inception_4c/output_inception_4c/output_0_split
I0707 15:54:45.700650 13370 net.cpp:395] inception_4c/output_inception_4c/output_0_split <- inception_4c/output
I0707 15:54:45.700660 13370 net.cpp:357] inception_4c/output_inception_4c/output_0_split -> inception_4c/output_inception_4c/output_0_split_0
I0707 15:54:45.700672 13370 net.cpp:357] inception_4c/output_inception_4c/output_0_split -> inception_4c/output_inception_4c/output_0_split_1
I0707 15:54:45.700685 13370 net.cpp:357] inception_4c/output_inception_4c/output_0_split -> inception_4c/output_inception_4c/output_0_split_2
I0707 15:54:45.700706 13370 net.cpp:357] inception_4c/output_inception_4c/output_0_split -> inception_4c/output_inception_4c/output_0_split_3
I0707 15:54:45.700721 13370 net.cpp:97] Setting up inception_4c/output_inception_4c/output_0_split
I0707 15:54:45.700743 13370 net.cpp:104] Top shape: 32 512 14 14 (3211264)
I0707 15:54:45.700754 13370 net.cpp:104] Top shape: 32 512 14 14 (3211264)
I0707 15:54:45.700765 13370 net.cpp:104] Top shape: 32 512 14 14 (3211264)
I0707 15:54:45.700777 13370 net.cpp:104] Top shape: 32 512 14 14 (3211264)
I0707 15:54:45.700788 13370 layer_factory.hpp:78] Creating layer inception_4d/1x1
I0707 15:54:45.700801 13370 net.cpp:68] Creating Layer inception_4d/1x1
I0707 15:54:45.700814 13370 net.cpp:395] inception_4d/1x1 <- inception_4c/output_inception_4c/output_0_split_0
I0707 15:54:45.700830 13370 net.cpp:357] inception_4d/1x1 -> inception_4d/1x1
I0707 15:54:45.700846 13370 net.cpp:97] Setting up inception_4d/1x1
I0707 15:54:45.701542 13370 net.cpp:104] Top shape: 32 112 14 14 (702464)
I0707 15:54:45.701565 13370 layer_factory.hpp:78] Creating layer inception_4d/1x1/bn
I0707 15:54:45.701584 13370 net.cpp:68] Creating Layer inception_4d/1x1/bn
I0707 15:54:45.701597 13370 net.cpp:395] inception_4d/1x1/bn <- inception_4d/1x1
I0707 15:54:45.701611 13370 net.cpp:357] inception_4d/1x1/bn -> inception_4d/1x1/bn
I0707 15:54:45.701644 13370 net.cpp:97] Setting up inception_4d/1x1/bn
I0707 15:54:45.701670 13370 net.cpp:104] Top shape: 32 112 14 14 (702464)
I0707 15:54:45.701686 13370 layer_factory.hpp:78] Creating layer inception_4d/relu_1x1
I0707 15:54:45.701699 13370 net.cpp:68] Creating Layer inception_4d/relu_1x1
I0707 15:54:45.701712 13370 net.cpp:395] inception_4d/relu_1x1 <- inception_4d/1x1/bn
I0707 15:54:45.701725 13370 net.cpp:346] inception_4d/relu_1x1 -> inception_4d/1x1/bn (in-place)
I0707 15:54:45.701740 13370 net.cpp:97] Setting up inception_4d/relu_1x1
I0707 15:54:45.701755 13370 net.cpp:104] Top shape: 32 112 14 14 (702464)
I0707 15:54:45.701766 13370 layer_factory.hpp:78] Creating layer inception_4d/3x3_reduce
I0707 15:54:45.701784 13370 net.cpp:68] Creating Layer inception_4d/3x3_reduce
I0707 15:54:45.701797 13370 net.cpp:395] inception_4d/3x3_reduce <- inception_4c/output_inception_4c/output_0_split_1
I0707 15:54:45.701814 13370 net.cpp:357] inception_4d/3x3_reduce -> inception_4d/3x3_reduce
I0707 15:54:45.701830 13370 net.cpp:97] Setting up inception_4d/3x3_reduce
I0707 15:54:45.702826 13370 net.cpp:104] Top shape: 32 144 14 14 (903168)
I0707 15:54:45.702853 13370 layer_factory.hpp:78] Creating layer inception_4d/3x3_reduce/bn
I0707 15:54:45.702869 13370 net.cpp:68] Creating Layer inception_4d/3x3_reduce/bn
I0707 15:54:45.702882 13370 net.cpp:395] inception_4d/3x3_reduce/bn <- inception_4d/3x3_reduce
I0707 15:54:45.702901 13370 net.cpp:357] inception_4d/3x3_reduce/bn -> inception_4d/3x3_reduce/bn
I0707 15:54:45.702919 13370 net.cpp:97] Setting up inception_4d/3x3_reduce/bn
I0707 15:54:45.702942 13370 net.cpp:104] Top shape: 32 144 14 14 (903168)
I0707 15:54:45.702958 13370 layer_factory.hpp:78] Creating layer inception_4d/relu_3x3_reduce
I0707 15:54:45.702972 13370 net.cpp:68] Creating Layer inception_4d/relu_3x3_reduce
I0707 15:54:45.702985 13370 net.cpp:395] inception_4d/relu_3x3_reduce <- inception_4d/3x3_reduce/bn
I0707 15:54:45.702997 13370 net.cpp:346] inception_4d/relu_3x3_reduce -> inception_4d/3x3_reduce/bn (in-place)
I0707 15:54:45.703022 13370 net.cpp:97] Setting up inception_4d/relu_3x3_reduce
I0707 15:54:45.703037 13370 net.cpp:104] Top shape: 32 144 14 14 (903168)
I0707 15:54:45.703049 13370 layer_factory.hpp:78] Creating layer inception_4d/3x3
I0707 15:54:45.703063 13370 net.cpp:68] Creating Layer inception_4d/3x3
I0707 15:54:45.703075 13370 net.cpp:395] inception_4d/3x3 <- inception_4d/3x3_reduce/bn
I0707 15:54:45.703089 13370 net.cpp:357] inception_4d/3x3 -> inception_4d/3x3
I0707 15:54:45.703104 13370 net.cpp:97] Setting up inception_4d/3x3
I0707 15:54:45.707309 13370 net.cpp:104] Top shape: 32 288 14 14 (1806336)
I0707 15:54:45.707334 13370 layer_factory.hpp:78] Creating layer inception_4d/3x3/bn
I0707 15:54:45.707353 13370 net.cpp:68] Creating Layer inception_4d/3x3/bn
I0707 15:54:45.707367 13370 net.cpp:395] inception_4d/3x3/bn <- inception_4d/3x3
I0707 15:54:45.707386 13370 net.cpp:357] inception_4d/3x3/bn -> inception_4d/3x3/bn
I0707 15:54:45.707402 13370 net.cpp:97] Setting up inception_4d/3x3/bn
I0707 15:54:45.707434 13370 net.cpp:104] Top shape: 32 288 14 14 (1806336)
I0707 15:54:45.707450 13370 layer_factory.hpp:78] Creating layer inception_4d/relu_3x3
I0707 15:54:45.707463 13370 net.cpp:68] Creating Layer inception_4d/relu_3x3
I0707 15:54:45.707475 13370 net.cpp:395] inception_4d/relu_3x3 <- inception_4d/3x3/bn
I0707 15:54:45.707491 13370 net.cpp:346] inception_4d/relu_3x3 -> inception_4d/3x3/bn (in-place)
I0707 15:54:45.707506 13370 net.cpp:97] Setting up inception_4d/relu_3x3
I0707 15:54:45.707521 13370 net.cpp:104] Top shape: 32 288 14 14 (1806336)
I0707 15:54:45.707533 13370 layer_factory.hpp:78] Creating layer inception_4d/5x5_reduce
I0707 15:54:45.707547 13370 net.cpp:68] Creating Layer inception_4d/5x5_reduce
I0707 15:54:45.707558 13370 net.cpp:395] inception_4d/5x5_reduce <- inception_4c/output_inception_4c/output_0_split_2
I0707 15:54:45.707573 13370 net.cpp:357] inception_4d/5x5_reduce -> inception_4d/5x5_reduce
I0707 15:54:45.707607 13370 net.cpp:97] Setting up inception_4d/5x5_reduce
I0707 15:54:45.707859 13370 net.cpp:104] Top shape: 32 32 14 14 (200704)
I0707 15:54:45.707880 13370 layer_factory.hpp:78] Creating layer inception_4d/5x5_reduce/bn
I0707 15:54:45.707895 13370 net.cpp:68] Creating Layer inception_4d/5x5_reduce/bn
I0707 15:54:45.707906 13370 net.cpp:395] inception_4d/5x5_reduce/bn <- inception_4d/5x5_reduce
I0707 15:54:45.707923 13370 net.cpp:357] inception_4d/5x5_reduce/bn -> inception_4d/5x5_reduce/bn
I0707 15:54:45.707940 13370 net.cpp:97] Setting up inception_4d/5x5_reduce/bn
I0707 15:54:45.707962 13370 net.cpp:104] Top shape: 32 32 14 14 (200704)
I0707 15:54:45.707978 13370 layer_factory.hpp:78] Creating layer inception_4d/relu_5x5_reduce
I0707 15:54:45.707993 13370 net.cpp:68] Creating Layer inception_4d/relu_5x5_reduce
I0707 15:54:45.708006 13370 net.cpp:395] inception_4d/relu_5x5_reduce <- inception_4d/5x5_reduce/bn
I0707 15:54:45.708019 13370 net.cpp:346] inception_4d/relu_5x5_reduce -> inception_4d/5x5_reduce/bn (in-place)
I0707 15:54:45.708034 13370 net.cpp:97] Setting up inception_4d/relu_5x5_reduce
I0707 15:54:45.708047 13370 net.cpp:104] Top shape: 32 32 14 14 (200704)
I0707 15:54:45.708060 13370 layer_factory.hpp:78] Creating layer inception_4d/5x5
I0707 15:54:45.708076 13370 net.cpp:68] Creating Layer inception_4d/5x5
I0707 15:54:45.708089 13370 net.cpp:395] inception_4d/5x5 <- inception_4d/5x5_reduce/bn
I0707 15:54:45.708103 13370 net.cpp:357] inception_4d/5x5 -> inception_4d/5x5
I0707 15:54:45.708117 13370 net.cpp:97] Setting up inception_4d/5x5
I0707 15:54:45.708752 13370 net.cpp:104] Top shape: 32 64 14 14 (401408)
I0707 15:54:45.708777 13370 layer_factory.hpp:78] Creating layer inception_4d/5x5/bn
I0707 15:54:45.708792 13370 net.cpp:68] Creating Layer inception_4d/5x5/bn
I0707 15:54:45.708804 13370 net.cpp:395] inception_4d/5x5/bn <- inception_4d/5x5
I0707 15:54:45.708822 13370 net.cpp:357] inception_4d/5x5/bn -> inception_4d/5x5/bn
I0707 15:54:45.708838 13370 net.cpp:97] Setting up inception_4d/5x5/bn
I0707 15:54:45.708859 13370 net.cpp:104] Top shape: 32 64 14 14 (401408)
I0707 15:54:45.708874 13370 layer_factory.hpp:78] Creating layer inception_4d/relu_5x5
I0707 15:54:45.708892 13370 net.cpp:68] Creating Layer inception_4d/relu_5x5
I0707 15:54:45.708904 13370 net.cpp:395] inception_4d/relu_5x5 <- inception_4d/5x5/bn
I0707 15:54:45.708917 13370 net.cpp:346] inception_4d/relu_5x5 -> inception_4d/5x5/bn (in-place)
I0707 15:54:45.708932 13370 net.cpp:97] Setting up inception_4d/relu_5x5
I0707 15:54:45.708946 13370 net.cpp:104] Top shape: 32 64 14 14 (401408)
I0707 15:54:45.708958 13370 layer_factory.hpp:78] Creating layer inception_4d/pool
I0707 15:54:45.708971 13370 layer_factory.cpp:51] CUDNN does not support padding or multiple tops. Using Caffe's own pooling layer.
I0707 15:54:45.708984 13370 net.cpp:68] Creating Layer inception_4d/pool
I0707 15:54:45.708997 13370 net.cpp:395] inception_4d/pool <- inception_4c/output_inception_4c/output_0_split_3
I0707 15:54:45.709013 13370 net.cpp:357] inception_4d/pool -> inception_4d/pool
I0707 15:54:45.709029 13370 net.cpp:97] Setting up inception_4d/pool
I0707 15:54:45.709043 13370 net.cpp:104] Top shape: 32 512 14 14 (3211264)
I0707 15:54:45.709054 13370 layer_factory.hpp:78] Creating layer inception_4d/pool_proj
I0707 15:54:45.709069 13370 net.cpp:68] Creating Layer inception_4d/pool_proj
I0707 15:54:45.709080 13370 net.cpp:395] inception_4d/pool_proj <- inception_4d/pool
I0707 15:54:45.709097 13370 net.cpp:357] inception_4d/pool_proj -> inception_4d/pool_proj
I0707 15:54:45.709113 13370 net.cpp:97] Setting up inception_4d/pool_proj
I0707 15:54:45.709545 13370 net.cpp:104] Top shape: 32 64 14 14 (401408)
I0707 15:54:45.709568 13370 layer_factory.hpp:78] Creating layer inception_4d/pool_proj/bn
I0707 15:54:45.709585 13370 net.cpp:68] Creating Layer inception_4d/pool_proj/bn
I0707 15:54:45.709599 13370 net.cpp:395] inception_4d/pool_proj/bn <- inception_4d/pool_proj
I0707 15:54:45.709612 13370 net.cpp:357] inception_4d/pool_proj/bn -> inception_4d/pool_proj/bn
I0707 15:54:45.709669 13370 net.cpp:97] Setting up inception_4d/pool_proj/bn
I0707 15:54:45.709697 13370 net.cpp:104] Top shape: 32 64 14 14 (401408)
I0707 15:54:45.709713 13370 layer_factory.hpp:78] Creating layer inception_4d/relu_pool_proj
I0707 15:54:45.709728 13370 net.cpp:68] Creating Layer inception_4d/relu_pool_proj
I0707 15:54:45.709739 13370 net.cpp:395] inception_4d/relu_pool_proj <- inception_4d/pool_proj/bn
I0707 15:54:45.709753 13370 net.cpp:346] inception_4d/relu_pool_proj -> inception_4d/pool_proj/bn (in-place)
I0707 15:54:45.709769 13370 net.cpp:97] Setting up inception_4d/relu_pool_proj
I0707 15:54:45.709784 13370 net.cpp:104] Top shape: 32 64 14 14 (401408)
I0707 15:54:45.709795 13370 layer_factory.hpp:78] Creating layer inception_4d/output
I0707 15:54:45.709810 13370 net.cpp:68] Creating Layer inception_4d/output
I0707 15:54:45.709820 13370 net.cpp:395] inception_4d/output <- inception_4d/1x1/bn
I0707 15:54:45.709833 13370 net.cpp:395] inception_4d/output <- inception_4d/3x3/bn
I0707 15:54:45.709846 13370 net.cpp:395] inception_4d/output <- inception_4d/5x5/bn
I0707 15:54:45.709858 13370 net.cpp:395] inception_4d/output <- inception_4d/pool_proj/bn
I0707 15:54:45.709877 13370 net.cpp:357] inception_4d/output -> inception_4d/output
I0707 15:54:45.709892 13370 net.cpp:97] Setting up inception_4d/output
I0707 15:54:45.709904 13370 net.cpp:104] Top shape: 32 528 14 14 (3311616)
I0707 15:54:45.709915 13370 layer_factory.hpp:78] Creating layer inception_4d/output_inception_4d/output_0_split
I0707 15:54:45.709930 13370 net.cpp:68] Creating Layer inception_4d/output_inception_4d/output_0_split
I0707 15:54:45.709941 13370 net.cpp:395] inception_4d/output_inception_4d/output_0_split <- inception_4d/output
I0707 15:54:45.709960 13370 net.cpp:357] inception_4d/output_inception_4d/output_0_split -> inception_4d/output_inception_4d/output_0_split_0
I0707 15:54:45.709977 13370 net.cpp:357] inception_4d/output_inception_4d/output_0_split -> inception_4d/output_inception_4d/output_0_split_1
I0707 15:54:45.709993 13370 net.cpp:357] inception_4d/output_inception_4d/output_0_split -> inception_4d/output_inception_4d/output_0_split_2
I0707 15:54:45.710010 13370 net.cpp:357] inception_4d/output_inception_4d/output_0_split -> inception_4d/output_inception_4d/output_0_split_3
I0707 15:54:45.710026 13370 net.cpp:357] inception_4d/output_inception_4d/output_0_split -> inception_4d/output_inception_4d/output_0_split_4
I0707 15:54:45.710041 13370 net.cpp:97] Setting up inception_4d/output_inception_4d/output_0_split
I0707 15:54:45.710053 13370 net.cpp:104] Top shape: 32 528 14 14 (3311616)
I0707 15:54:45.710064 13370 net.cpp:104] Top shape: 32 528 14 14 (3311616)
I0707 15:54:45.710075 13370 net.cpp:104] Top shape: 32 528 14 14 (3311616)
I0707 15:54:45.710086 13370 net.cpp:104] Top shape: 32 528 14 14 (3311616)
I0707 15:54:45.710098 13370 net.cpp:104] Top shape: 32 528 14 14 (3311616)
I0707 15:54:45.710108 13370 layer_factory.hpp:78] Creating layer loss2/ave_pool
I0707 15:54:45.710122 13370 net.cpp:68] Creating Layer loss2/ave_pool
I0707 15:54:45.710134 13370 net.cpp:395] loss2/ave_pool <- inception_4d/output_inception_4d/output_0_split_0
I0707 15:54:45.710152 13370 net.cpp:357] loss2/ave_pool -> loss2/ave_pool
I0707 15:54:45.710167 13370 net.cpp:97] Setting up loss2/ave_pool
I0707 15:54:45.710186 13370 net.cpp:104] Top shape: 32 528 4 4 (270336)
I0707 15:54:45.710197 13370 layer_factory.hpp:78] Creating layer loss2/conv
I0707 15:54:45.710216 13370 net.cpp:68] Creating Layer loss2/conv
I0707 15:54:45.710227 13370 net.cpp:395] loss2/conv <- loss2/ave_pool
I0707 15:54:45.710242 13370 net.cpp:357] loss2/conv -> loss2/conv
I0707 15:54:45.710257 13370 net.cpp:97] Setting up loss2/conv
I0707 15:54:45.711205 13370 net.cpp:104] Top shape: 32 128 4 4 (65536)
I0707 15:54:45.711230 13370 layer_factory.hpp:78] Creating layer loss2/conv/bn
I0707 15:54:45.711246 13370 net.cpp:68] Creating Layer loss2/conv/bn
I0707 15:54:45.711259 13370 net.cpp:395] loss2/conv/bn <- loss2/conv
I0707 15:54:45.711274 13370 net.cpp:357] loss2/conv/bn -> loss2/conv/bn
I0707 15:54:45.711310 13370 net.cpp:97] Setting up loss2/conv/bn
I0707 15:54:45.711338 13370 net.cpp:104] Top shape: 32 128 4 4 (65536)
I0707 15:54:45.711354 13370 layer_factory.hpp:78] Creating layer loss2/relu_conv
I0707 15:54:45.711367 13370 net.cpp:68] Creating Layer loss2/relu_conv
I0707 15:54:45.711380 13370 net.cpp:395] loss2/relu_conv <- loss2/conv/bn
I0707 15:54:45.711401 13370 net.cpp:346] loss2/relu_conv -> loss2/conv/bn (in-place)
I0707 15:54:45.711416 13370 net.cpp:97] Setting up loss2/relu_conv
I0707 15:54:45.711432 13370 net.cpp:104] Top shape: 32 128 4 4 (65536)
I0707 15:54:45.711444 13370 layer_factory.hpp:78] Creating layer loss2/fc
I0707 15:54:45.711460 13370 net.cpp:68] Creating Layer loss2/fc
I0707 15:54:45.711472 13370 net.cpp:395] loss2/fc <- loss2/conv/bn
I0707 15:54:45.711486 13370 net.cpp:357] loss2/fc -> loss2/fc
I0707 15:54:45.711501 13370 net.cpp:97] Setting up loss2/fc
I0707 15:54:45.734634 13370 net.cpp:104] Top shape: 32 1024 1 1 (32768)
I0707 15:54:45.734742 13370 layer_factory.hpp:78] Creating layer loss2/fc/bn
I0707 15:54:45.734768 13370 net.cpp:68] Creating Layer loss2/fc/bn
I0707 15:54:45.734783 13370 net.cpp:395] loss2/fc/bn <- loss2/fc
I0707 15:54:45.734803 13370 net.cpp:357] loss2/fc/bn -> loss2/fc/bn
I0707 15:54:45.734823 13370 net.cpp:97] Setting up loss2/fc/bn
I0707 15:54:45.734856 13370 net.cpp:104] Top shape: 32 1024 1 1 (32768)
I0707 15:54:45.734872 13370 layer_factory.hpp:78] Creating layer loss2/relu_fc
I0707 15:54:45.734889 13370 net.cpp:68] Creating Layer loss2/relu_fc
I0707 15:54:45.734899 13370 net.cpp:395] loss2/relu_fc <- loss2/fc/bn
I0707 15:54:45.734916 13370 net.cpp:346] loss2/relu_fc -> loss2/fc/bn (in-place)
I0707 15:54:45.734931 13370 net.cpp:97] Setting up loss2/relu_fc
I0707 15:54:45.734961 13370 net.cpp:104] Top shape: 32 1024 1 1 (32768)
I0707 15:54:45.734973 13370 layer_factory.hpp:78] Creating layer loss2/classifier
I0707 15:54:45.734990 13370 net.cpp:68] Creating Layer loss2/classifier
I0707 15:54:45.735002 13370 net.cpp:395] loss2/classifier <- loss2/fc/bn
I0707 15:54:45.735016 13370 net.cpp:357] loss2/classifier -> loss2/classifier
I0707 15:54:45.735033 13370 net.cpp:97] Setting up loss2/classifier
I0707 15:54:45.746407 13370 net.cpp:104] Top shape: 32 1000 1 1 (32000)
I0707 15:54:45.746445 13370 layer_factory.hpp:78] Creating layer loss2/loss
I0707 15:54:45.746461 13370 net.cpp:68] Creating Layer loss2/loss
I0707 15:54:45.746475 13370 net.cpp:395] loss2/loss <- loss2/classifier
I0707 15:54:45.746490 13370 net.cpp:395] loss2/loss <- label_data_1_split_1
I0707 15:54:45.746505 13370 net.cpp:357] loss2/loss -> loss2/loss1
I0707 15:54:45.746522 13370 net.cpp:97] Setting up loss2/loss
I0707 15:54:45.746536 13370 layer_factory.hpp:78] Creating layer loss2/loss
I0707 15:54:45.746675 13370 net.cpp:104] Top shape: 1 1 1 1 (1)
I0707 15:54:45.746692 13370 net.cpp:110]     with loss weight 0.3
I0707 15:54:45.746721 13370 layer_factory.hpp:78] Creating layer inception_4e/1x1
I0707 15:54:45.746739 13370 net.cpp:68] Creating Layer inception_4e/1x1
I0707 15:54:45.746752 13370 net.cpp:395] inception_4e/1x1 <- inception_4d/output_inception_4d/output_0_split_1
I0707 15:54:45.746772 13370 net.cpp:357] inception_4e/1x1 -> inception_4e/1x1
I0707 15:54:45.746789 13370 net.cpp:97] Setting up inception_4e/1x1
I0707 15:54:45.748415 13370 net.cpp:104] Top shape: 32 256 14 14 (1605632)
I0707 15:54:45.748438 13370 layer_factory.hpp:78] Creating layer inception_4e/1x1/bn
I0707 15:54:45.748456 13370 net.cpp:68] Creating Layer inception_4e/1x1/bn
I0707 15:54:45.748467 13370 net.cpp:395] inception_4e/1x1/bn <- inception_4e/1x1
I0707 15:54:45.748492 13370 net.cpp:357] inception_4e/1x1/bn -> inception_4e/1x1/bn
I0707 15:54:45.748509 13370 net.cpp:97] Setting up inception_4e/1x1/bn
I0707 15:54:45.748535 13370 net.cpp:104] Top shape: 32 256 14 14 (1605632)
I0707 15:54:45.748554 13370 layer_factory.hpp:78] Creating layer inception_4e/relu_1x1
I0707 15:54:45.748569 13370 net.cpp:68] Creating Layer inception_4e/relu_1x1
I0707 15:54:45.748582 13370 net.cpp:395] inception_4e/relu_1x1 <- inception_4e/1x1/bn
I0707 15:54:45.748636 13370 net.cpp:346] inception_4e/relu_1x1 -> inception_4e/1x1/bn (in-place)
I0707 15:54:45.748652 13370 net.cpp:97] Setting up inception_4e/relu_1x1
I0707 15:54:45.748668 13370 net.cpp:104] Top shape: 32 256 14 14 (1605632)
I0707 15:54:45.748680 13370 layer_factory.hpp:78] Creating layer inception_4e/3x3_reduce
I0707 15:54:45.748699 13370 net.cpp:68] Creating Layer inception_4e/3x3_reduce
I0707 15:54:45.748713 13370 net.cpp:395] inception_4e/3x3_reduce <- inception_4d/output_inception_4d/output_0_split_2
I0707 15:54:45.748728 13370 net.cpp:357] inception_4e/3x3_reduce -> inception_4e/3x3_reduce
I0707 15:54:45.748744 13370 net.cpp:97] Setting up inception_4e/3x3_reduce
I0707 15:54:45.749748 13370 net.cpp:104] Top shape: 32 160 14 14 (1003520)
I0707 15:54:45.749773 13370 layer_factory.hpp:78] Creating layer inception_4e/3x3_reduce/bn
I0707 15:54:45.749790 13370 net.cpp:68] Creating Layer inception_4e/3x3_reduce/bn
I0707 15:54:45.749804 13370 net.cpp:395] inception_4e/3x3_reduce/bn <- inception_4e/3x3_reduce
I0707 15:54:45.749819 13370 net.cpp:357] inception_4e/3x3_reduce/bn -> inception_4e/3x3_reduce/bn
I0707 15:54:45.749835 13370 net.cpp:97] Setting up inception_4e/3x3_reduce/bn
I0707 15:54:45.749860 13370 net.cpp:104] Top shape: 32 160 14 14 (1003520)
I0707 15:54:45.749876 13370 layer_factory.hpp:78] Creating layer inception_4e/relu_3x3_reduce
I0707 15:54:45.749892 13370 net.cpp:68] Creating Layer inception_4e/relu_3x3_reduce
I0707 15:54:45.749904 13370 net.cpp:395] inception_4e/relu_3x3_reduce <- inception_4e/3x3_reduce/bn
I0707 15:54:45.749918 13370 net.cpp:346] inception_4e/relu_3x3_reduce -> inception_4e/3x3_reduce/bn (in-place)
I0707 15:54:45.749933 13370 net.cpp:97] Setting up inception_4e/relu_3x3_reduce
I0707 15:54:45.749948 13370 net.cpp:104] Top shape: 32 160 14 14 (1003520)
I0707 15:54:45.749959 13370 layer_factory.hpp:78] Creating layer inception_4e/3x3
I0707 15:54:45.749974 13370 net.cpp:68] Creating Layer inception_4e/3x3
I0707 15:54:45.749986 13370 net.cpp:395] inception_4e/3x3 <- inception_4e/3x3_reduce/bn
I0707 15:54:45.750004 13370 net.cpp:357] inception_4e/3x3 -> inception_4e/3x3
I0707 15:54:45.750020 13370 net.cpp:97] Setting up inception_4e/3x3
I0707 15:54:45.755120 13370 net.cpp:104] Top shape: 32 320 14 14 (2007040)
I0707 15:54:45.755146 13370 layer_factory.hpp:78] Creating layer inception_4e/3x3/bn
I0707 15:54:45.755164 13370 net.cpp:68] Creating Layer inception_4e/3x3/bn
I0707 15:54:45.755177 13370 net.cpp:395] inception_4e/3x3/bn <- inception_4e/3x3
I0707 15:54:45.755195 13370 net.cpp:357] inception_4e/3x3/bn -> inception_4e/3x3/bn
I0707 15:54:45.755213 13370 net.cpp:97] Setting up inception_4e/3x3/bn
I0707 15:54:45.755234 13370 net.cpp:104] Top shape: 32 320 14 14 (2007040)
I0707 15:54:45.755249 13370 layer_factory.hpp:78] Creating layer inception_4e/relu_3x3
I0707 15:54:45.755264 13370 net.cpp:68] Creating Layer inception_4e/relu_3x3
I0707 15:54:45.755275 13370 net.cpp:395] inception_4e/relu_3x3 <- inception_4e/3x3/bn
I0707 15:54:45.755291 13370 net.cpp:346] inception_4e/relu_3x3 -> inception_4e/3x3/bn (in-place)
I0707 15:54:45.755306 13370 net.cpp:97] Setting up inception_4e/relu_3x3
I0707 15:54:45.755321 13370 net.cpp:104] Top shape: 32 320 14 14 (2007040)
I0707 15:54:45.755332 13370 layer_factory.hpp:78] Creating layer inception_4e/5x5_reduce
I0707 15:54:45.755347 13370 net.cpp:68] Creating Layer inception_4e/5x5_reduce
I0707 15:54:45.755358 13370 net.cpp:395] inception_4e/5x5_reduce <- inception_4d/output_inception_4d/output_0_split_3
I0707 15:54:45.755374 13370 net.cpp:357] inception_4e/5x5_reduce -> inception_4e/5x5_reduce
I0707 15:54:45.755390 13370 net.cpp:97] Setting up inception_4e/5x5_reduce
I0707 15:54:45.755641 13370 net.cpp:104] Top shape: 32 32 14 14 (200704)
I0707 15:54:45.755662 13370 layer_factory.hpp:78] Creating layer inception_4e/5x5_reduce/bn
I0707 15:54:45.755681 13370 net.cpp:68] Creating Layer inception_4e/5x5_reduce/bn
I0707 15:54:45.755694 13370 net.cpp:395] inception_4e/5x5_reduce/bn <- inception_4e/5x5_reduce
I0707 15:54:45.755735 13370 net.cpp:357] inception_4e/5x5_reduce/bn -> inception_4e/5x5_reduce/bn
I0707 15:54:45.755753 13370 net.cpp:97] Setting up inception_4e/5x5_reduce/bn
I0707 15:54:45.755779 13370 net.cpp:104] Top shape: 32 32 14 14 (200704)
I0707 15:54:45.755795 13370 layer_factory.hpp:78] Creating layer inception_4e/relu_5x5_reduce
I0707 15:54:45.755808 13370 net.cpp:68] Creating Layer inception_4e/relu_5x5_reduce
I0707 15:54:45.755820 13370 net.cpp:395] inception_4e/relu_5x5_reduce <- inception_4e/5x5_reduce/bn
I0707 15:54:45.755833 13370 net.cpp:346] inception_4e/relu_5x5_reduce -> inception_4e/5x5_reduce/bn (in-place)
I0707 15:54:45.755847 13370 net.cpp:97] Setting up inception_4e/relu_5x5_reduce
I0707 15:54:45.755863 13370 net.cpp:104] Top shape: 32 32 14 14 (200704)
I0707 15:54:45.755875 13370 layer_factory.hpp:78] Creating layer inception_4e/5x5
I0707 15:54:45.755892 13370 net.cpp:68] Creating Layer inception_4e/5x5
I0707 15:54:45.755905 13370 net.cpp:395] inception_4e/5x5 <- inception_4e/5x5_reduce/bn
I0707 15:54:45.755920 13370 net.cpp:357] inception_4e/5x5 -> inception_4e/5x5
I0707 15:54:45.755935 13370 net.cpp:97] Setting up inception_4e/5x5
I0707 15:54:45.757333 13370 net.cpp:104] Top shape: 32 128 14 14 (802816)
I0707 15:54:45.757359 13370 layer_factory.hpp:78] Creating layer inception_4e/5x5/bn
I0707 15:54:45.757375 13370 net.cpp:68] Creating Layer inception_4e/5x5/bn
I0707 15:54:45.757388 13370 net.cpp:395] inception_4e/5x5/bn <- inception_4e/5x5
I0707 15:54:45.757405 13370 net.cpp:357] inception_4e/5x5/bn -> inception_4e/5x5/bn
I0707 15:54:45.757422 13370 net.cpp:97] Setting up inception_4e/5x5/bn
I0707 15:54:45.757443 13370 net.cpp:104] Top shape: 32 128 14 14 (802816)
I0707 15:54:45.757453 13370 layer_factory.hpp:78] Creating layer inception_4e/relu_5x5
I0707 15:54:45.757474 13370 net.cpp:68] Creating Layer inception_4e/relu_5x5
I0707 15:54:45.757488 13370 net.cpp:395] inception_4e/relu_5x5 <- inception_4e/5x5/bn
I0707 15:54:45.757503 13370 net.cpp:346] inception_4e/relu_5x5 -> inception_4e/5x5/bn (in-place)
I0707 15:54:45.757519 13370 net.cpp:97] Setting up inception_4e/relu_5x5
I0707 15:54:45.757534 13370 net.cpp:104] Top shape: 32 128 14 14 (802816)
I0707 15:54:45.757545 13370 layer_factory.hpp:78] Creating layer inception_4e/pool
I0707 15:54:45.757558 13370 layer_factory.cpp:51] CUDNN does not support padding or multiple tops. Using Caffe's own pooling layer.
I0707 15:54:45.757573 13370 net.cpp:68] Creating Layer inception_4e/pool
I0707 15:54:45.757586 13370 net.cpp:395] inception_4e/pool <- inception_4d/output_inception_4d/output_0_split_4
I0707 15:54:45.757599 13370 net.cpp:357] inception_4e/pool -> inception_4e/pool
I0707 15:54:45.757614 13370 net.cpp:97] Setting up inception_4e/pool
I0707 15:54:45.757630 13370 net.cpp:104] Top shape: 32 528 14 14 (3311616)
I0707 15:54:45.757642 13370 layer_factory.hpp:78] Creating layer inception_4e/pool_proj
I0707 15:54:45.757659 13370 net.cpp:68] Creating Layer inception_4e/pool_proj
I0707 15:54:45.757673 13370 net.cpp:395] inception_4e/pool_proj <- inception_4e/pool
I0707 15:54:45.757686 13370 net.cpp:357] inception_4e/pool_proj -> inception_4e/pool_proj
I0707 15:54:45.757705 13370 net.cpp:97] Setting up inception_4e/pool_proj
I0707 15:54:45.758505 13370 net.cpp:104] Top shape: 32 128 14 14 (802816)
I0707 15:54:45.758528 13370 layer_factory.hpp:78] Creating layer inception_4e/pool_proj/bn
I0707 15:54:45.758548 13370 net.cpp:68] Creating Layer inception_4e/pool_proj/bn
I0707 15:54:45.758560 13370 net.cpp:395] inception_4e/pool_proj/bn <- inception_4e/pool_proj
I0707 15:54:45.758574 13370 net.cpp:357] inception_4e/pool_proj/bn -> inception_4e/pool_proj/bn
I0707 15:54:45.758590 13370 net.cpp:97] Setting up inception_4e/pool_proj/bn
I0707 15:54:45.758620 13370 net.cpp:104] Top shape: 32 128 14 14 (802816)
I0707 15:54:45.758635 13370 layer_factory.hpp:78] Creating layer inception_4e/relu_pool_proj
I0707 15:54:45.758647 13370 net.cpp:68] Creating Layer inception_4e/relu_pool_proj
I0707 15:54:45.758661 13370 net.cpp:395] inception_4e/relu_pool_proj <- inception_4e/pool_proj/bn
I0707 15:54:45.758695 13370 net.cpp:346] inception_4e/relu_pool_proj -> inception_4e/pool_proj/bn (in-place)
I0707 15:54:45.758713 13370 net.cpp:97] Setting up inception_4e/relu_pool_proj
I0707 15:54:45.758728 13370 net.cpp:104] Top shape: 32 128 14 14 (802816)
I0707 15:54:45.758740 13370 layer_factory.hpp:78] Creating layer inception_4e/output
I0707 15:54:45.758755 13370 net.cpp:68] Creating Layer inception_4e/output
I0707 15:54:45.758767 13370 net.cpp:395] inception_4e/output <- inception_4e/1x1/bn
I0707 15:54:45.758780 13370 net.cpp:395] inception_4e/output <- inception_4e/3x3/bn
I0707 15:54:45.758795 13370 net.cpp:395] inception_4e/output <- inception_4e/5x5/bn
I0707 15:54:45.758807 13370 net.cpp:395] inception_4e/output <- inception_4e/pool_proj/bn
I0707 15:54:45.758821 13370 net.cpp:357] inception_4e/output -> inception_4e/output
I0707 15:54:45.758836 13370 net.cpp:97] Setting up inception_4e/output
I0707 15:54:45.758849 13370 net.cpp:104] Top shape: 32 832 14 14 (5218304)
I0707 15:54:45.758862 13370 layer_factory.hpp:78] Creating layer pool4/3x3_s2
I0707 15:54:45.758879 13370 net.cpp:68] Creating Layer pool4/3x3_s2
I0707 15:54:45.758891 13370 net.cpp:395] pool4/3x3_s2 <- inception_4e/output
I0707 15:54:45.758906 13370 net.cpp:357] pool4/3x3_s2 -> pool4/3x3_s2
I0707 15:54:45.758920 13370 net.cpp:97] Setting up pool4/3x3_s2
I0707 15:54:45.758937 13370 net.cpp:104] Top shape: 32 832 7 7 (1304576)
I0707 15:54:45.758950 13370 layer_factory.hpp:78] Creating layer pool4/3x3_s2_pool4/3x3_s2_0_split
I0707 15:54:45.758965 13370 net.cpp:68] Creating Layer pool4/3x3_s2_pool4/3x3_s2_0_split
I0707 15:54:45.758976 13370 net.cpp:395] pool4/3x3_s2_pool4/3x3_s2_0_split <- pool4/3x3_s2
I0707 15:54:45.758993 13370 net.cpp:357] pool4/3x3_s2_pool4/3x3_s2_0_split -> pool4/3x3_s2_pool4/3x3_s2_0_split_0
I0707 15:54:45.759009 13370 net.cpp:357] pool4/3x3_s2_pool4/3x3_s2_0_split -> pool4/3x3_s2_pool4/3x3_s2_0_split_1
I0707 15:54:45.759026 13370 net.cpp:357] pool4/3x3_s2_pool4/3x3_s2_0_split -> pool4/3x3_s2_pool4/3x3_s2_0_split_2
I0707 15:54:45.759040 13370 net.cpp:357] pool4/3x3_s2_pool4/3x3_s2_0_split -> pool4/3x3_s2_pool4/3x3_s2_0_split_3
I0707 15:54:45.759054 13370 net.cpp:97] Setting up pool4/3x3_s2_pool4/3x3_s2_0_split
I0707 15:54:45.759068 13370 net.cpp:104] Top shape: 32 832 7 7 (1304576)
I0707 15:54:45.759079 13370 net.cpp:104] Top shape: 32 832 7 7 (1304576)
I0707 15:54:45.759090 13370 net.cpp:104] Top shape: 32 832 7 7 (1304576)
I0707 15:54:45.759101 13370 net.cpp:104] Top shape: 32 832 7 7 (1304576)
I0707 15:54:45.759114 13370 layer_factory.hpp:78] Creating layer inception_5a/1x1
I0707 15:54:45.759130 13370 net.cpp:68] Creating Layer inception_5a/1x1
I0707 15:54:45.759145 13370 net.cpp:395] inception_5a/1x1 <- pool4/3x3_s2_pool4/3x3_s2_0_split_0
I0707 15:54:45.759160 13370 net.cpp:357] inception_5a/1x1 -> inception_5a/1x1
I0707 15:54:45.759174 13370 net.cpp:97] Setting up inception_5a/1x1
I0707 15:54:45.761535 13370 net.cpp:104] Top shape: 32 256 7 7 (401408)
I0707 15:54:45.761560 13370 layer_factory.hpp:78] Creating layer inception_5a/1x1/bn
I0707 15:54:45.761579 13370 net.cpp:68] Creating Layer inception_5a/1x1/bn
I0707 15:54:45.761592 13370 net.cpp:395] inception_5a/1x1/bn <- inception_5a/1x1
I0707 15:54:45.761610 13370 net.cpp:357] inception_5a/1x1/bn -> inception_5a/1x1/bn
I0707 15:54:45.761626 13370 net.cpp:97] Setting up inception_5a/1x1/bn
I0707 15:54:45.761651 13370 net.cpp:104] Top shape: 32 256 7 7 (401408)
I0707 15:54:45.761665 13370 layer_factory.hpp:78] Creating layer inception_5a/relu_1x1
I0707 15:54:45.761679 13370 net.cpp:68] Creating Layer inception_5a/relu_1x1
I0707 15:54:45.761692 13370 net.cpp:395] inception_5a/relu_1x1 <- inception_5a/1x1/bn
I0707 15:54:45.761703 13370 net.cpp:346] inception_5a/relu_1x1 -> inception_5a/1x1/bn (in-place)
I0707 15:54:45.761711 13370 net.cpp:97] Setting up inception_5a/relu_1x1
I0707 15:54:45.761723 13370 net.cpp:104] Top shape: 32 256 7 7 (401408)
I0707 15:54:45.761740 13370 layer_factory.hpp:78] Creating layer inception_5a/3x3_reduce
I0707 15:54:45.761765 13370 net.cpp:68] Creating Layer inception_5a/3x3_reduce
I0707 15:54:45.761795 13370 net.cpp:395] inception_5a/3x3_reduce <- pool4/3x3_s2_pool4/3x3_s2_0_split_1
I0707 15:54:45.761812 13370 net.cpp:357] inception_5a/3x3_reduce -> inception_5a/3x3_reduce
I0707 15:54:45.761828 13370 net.cpp:97] Setting up inception_5a/3x3_reduce
I0707 15:54:45.763327 13370 net.cpp:104] Top shape: 32 160 7 7 (250880)
I0707 15:54:45.763350 13370 layer_factory.hpp:78] Creating layer inception_5a/3x3_reduce/bn
I0707 15:54:45.763367 13370 net.cpp:68] Creating Layer inception_5a/3x3_reduce/bn
I0707 15:54:45.763381 13370 net.cpp:395] inception_5a/3x3_reduce/bn <- inception_5a/3x3_reduce
I0707 15:54:45.763396 13370 net.cpp:357] inception_5a/3x3_reduce/bn -> inception_5a/3x3_reduce/bn
I0707 15:54:45.763412 13370 net.cpp:97] Setting up inception_5a/3x3_reduce/bn
I0707 15:54:45.763435 13370 net.cpp:104] Top shape: 32 160 7 7 (250880)
I0707 15:54:45.763452 13370 layer_factory.hpp:78] Creating layer inception_5a/relu_3x3_reduce
I0707 15:54:45.763464 13370 net.cpp:68] Creating Layer inception_5a/relu_3x3_reduce
I0707 15:54:45.763476 13370 net.cpp:395] inception_5a/relu_3x3_reduce <- inception_5a/3x3_reduce/bn
I0707 15:54:45.763490 13370 net.cpp:346] inception_5a/relu_3x3_reduce -> inception_5a/3x3_reduce/bn (in-place)
I0707 15:54:45.763504 13370 net.cpp:97] Setting up inception_5a/relu_3x3_reduce
I0707 15:54:45.763520 13370 net.cpp:104] Top shape: 32 160 7 7 (250880)
I0707 15:54:45.763531 13370 layer_factory.hpp:78] Creating layer inception_5a/3x3
I0707 15:54:45.763548 13370 net.cpp:68] Creating Layer inception_5a/3x3
I0707 15:54:45.763561 13370 net.cpp:395] inception_5a/3x3 <- inception_5a/3x3_reduce/bn
I0707 15:54:45.763576 13370 net.cpp:357] inception_5a/3x3 -> inception_5a/3x3
I0707 15:54:45.763591 13370 net.cpp:97] Setting up inception_5a/3x3
I0707 15:54:45.768637 13370 net.cpp:104] Top shape: 32 320 7 7 (501760)
I0707 15:54:45.768666 13370 layer_factory.hpp:78] Creating layer inception_5a/3x3/bn
I0707 15:54:45.768683 13370 net.cpp:68] Creating Layer inception_5a/3x3/bn
I0707 15:54:45.768697 13370 net.cpp:395] inception_5a/3x3/bn <- inception_5a/3x3
I0707 15:54:45.768712 13370 net.cpp:357] inception_5a/3x3/bn -> inception_5a/3x3/bn
I0707 15:54:45.768728 13370 net.cpp:97] Setting up inception_5a/3x3/bn
I0707 15:54:45.768754 13370 net.cpp:104] Top shape: 32 320 7 7 (501760)
I0707 15:54:45.768769 13370 layer_factory.hpp:78] Creating layer inception_5a/relu_3x3
I0707 15:54:45.768782 13370 net.cpp:68] Creating Layer inception_5a/relu_3x3
I0707 15:54:45.768795 13370 net.cpp:395] inception_5a/relu_3x3 <- inception_5a/3x3/bn
I0707 15:54:45.768807 13370 net.cpp:346] inception_5a/relu_3x3 -> inception_5a/3x3/bn (in-place)
I0707 15:54:45.768821 13370 net.cpp:97] Setting up inception_5a/relu_3x3
I0707 15:54:45.768836 13370 net.cpp:104] Top shape: 32 320 7 7 (501760)
I0707 15:54:45.768848 13370 layer_factory.hpp:78] Creating layer inception_5a/5x5_reduce
I0707 15:54:45.768862 13370 net.cpp:68] Creating Layer inception_5a/5x5_reduce
I0707 15:54:45.768875 13370 net.cpp:395] inception_5a/5x5_reduce <- pool4/3x3_s2_pool4/3x3_s2_0_split_2
I0707 15:54:45.768889 13370 net.cpp:357] inception_5a/5x5_reduce -> inception_5a/5x5_reduce
I0707 15:54:45.768905 13370 net.cpp:97] Setting up inception_5a/5x5_reduce
I0707 15:54:45.769387 13370 net.cpp:104] Top shape: 32 32 7 7 (50176)
I0707 15:54:45.769410 13370 layer_factory.hpp:78] Creating layer inception_5a/5x5_reduce/bn
I0707 15:54:45.769429 13370 net.cpp:68] Creating Layer inception_5a/5x5_reduce/bn
I0707 15:54:45.769443 13370 net.cpp:395] inception_5a/5x5_reduce/bn <- inception_5a/5x5_reduce
I0707 15:54:45.769459 13370 net.cpp:357] inception_5a/5x5_reduce/bn -> inception_5a/5x5_reduce/bn
I0707 15:54:45.769474 13370 net.cpp:97] Setting up inception_5a/5x5_reduce/bn
I0707 15:54:45.769501 13370 net.cpp:104] Top shape: 32 32 7 7 (50176)
I0707 15:54:45.769518 13370 layer_factory.hpp:78] Creating layer inception_5a/relu_5x5_reduce
I0707 15:54:45.769531 13370 net.cpp:68] Creating Layer inception_5a/relu_5x5_reduce
I0707 15:54:45.769543 13370 net.cpp:395] inception_5a/relu_5x5_reduce <- inception_5a/5x5_reduce/bn
I0707 15:54:45.769580 13370 net.cpp:346] inception_5a/relu_5x5_reduce -> inception_5a/5x5_reduce/bn (in-place)
I0707 15:54:45.769598 13370 net.cpp:97] Setting up inception_5a/relu_5x5_reduce
I0707 15:54:45.769618 13370 net.cpp:104] Top shape: 32 32 7 7 (50176)
I0707 15:54:45.769630 13370 layer_factory.hpp:78] Creating layer inception_5a/5x5
I0707 15:54:45.769649 13370 net.cpp:68] Creating Layer inception_5a/5x5
I0707 15:54:45.769664 13370 net.cpp:395] inception_5a/5x5 <- inception_5a/5x5_reduce/bn
I0707 15:54:45.769677 13370 net.cpp:357] inception_5a/5x5 -> inception_5a/5x5
I0707 15:54:45.769693 13370 net.cpp:97] Setting up inception_5a/5x5
I0707 15:54:45.770862 13370 net.cpp:104] Top shape: 32 128 7 7 (200704)
I0707 15:54:45.770884 13370 layer_factory.hpp:78] Creating layer inception_5a/5x5/bn
I0707 15:54:45.770903 13370 net.cpp:68] Creating Layer inception_5a/5x5/bn
I0707 15:54:45.770920 13370 net.cpp:395] inception_5a/5x5/bn <- inception_5a/5x5
I0707 15:54:45.770934 13370 net.cpp:357] inception_5a/5x5/bn -> inception_5a/5x5/bn
I0707 15:54:45.770951 13370 net.cpp:97] Setting up inception_5a/5x5/bn
I0707 15:54:45.770974 13370 net.cpp:104] Top shape: 32 128 7 7 (200704)
I0707 15:54:45.770989 13370 layer_factory.hpp:78] Creating layer inception_5a/relu_5x5
I0707 15:54:45.771003 13370 net.cpp:68] Creating Layer inception_5a/relu_5x5
I0707 15:54:45.771015 13370 net.cpp:395] inception_5a/relu_5x5 <- inception_5a/5x5/bn
I0707 15:54:45.771028 13370 net.cpp:346] inception_5a/relu_5x5 -> inception_5a/5x5/bn (in-place)
I0707 15:54:45.771042 13370 net.cpp:97] Setting up inception_5a/relu_5x5
I0707 15:54:45.771057 13370 net.cpp:104] Top shape: 32 128 7 7 (200704)
I0707 15:54:45.771070 13370 layer_factory.hpp:78] Creating layer inception_5a/pool
I0707 15:54:45.771081 13370 layer_factory.cpp:51] CUDNN does not support padding or multiple tops. Using Caffe's own pooling layer.
I0707 15:54:45.771095 13370 net.cpp:68] Creating Layer inception_5a/pool
I0707 15:54:45.771107 13370 net.cpp:395] inception_5a/pool <- pool4/3x3_s2_pool4/3x3_s2_0_split_3
I0707 15:54:45.771126 13370 net.cpp:357] inception_5a/pool -> inception_5a/pool
I0707 15:54:45.771142 13370 net.cpp:97] Setting up inception_5a/pool
I0707 15:54:45.771157 13370 net.cpp:104] Top shape: 32 832 7 7 (1304576)
I0707 15:54:45.771167 13370 layer_factory.hpp:78] Creating layer inception_5a/pool_proj
I0707 15:54:45.771184 13370 net.cpp:68] Creating Layer inception_5a/pool_proj
I0707 15:54:45.771198 13370 net.cpp:395] inception_5a/pool_proj <- inception_5a/pool
I0707 15:54:45.771211 13370 net.cpp:357] inception_5a/pool_proj -> inception_5a/pool_proj
I0707 15:54:45.771226 13370 net.cpp:97] Setting up inception_5a/pool_proj
I0707 15:54:45.772440 13370 net.cpp:104] Top shape: 32 128 7 7 (200704)
I0707 15:54:45.772464 13370 layer_factory.hpp:78] Creating layer inception_5a/pool_proj/bn
I0707 15:54:45.772482 13370 net.cpp:68] Creating Layer inception_5a/pool_proj/bn
I0707 15:54:45.772495 13370 net.cpp:395] inception_5a/pool_proj/bn <- inception_5a/pool_proj
I0707 15:54:45.772511 13370 net.cpp:357] inception_5a/pool_proj/bn -> inception_5a/pool_proj/bn
I0707 15:54:45.772526 13370 net.cpp:97] Setting up inception_5a/pool_proj/bn
I0707 15:54:45.772549 13370 net.cpp:104] Top shape: 32 128 7 7 (200704)
I0707 15:54:45.772565 13370 layer_factory.hpp:78] Creating layer inception_5a/relu_pool_proj
I0707 15:54:45.772579 13370 net.cpp:68] Creating Layer inception_5a/relu_pool_proj
I0707 15:54:45.772591 13370 net.cpp:395] inception_5a/relu_pool_proj <- inception_5a/pool_proj/bn
I0707 15:54:45.772608 13370 net.cpp:346] inception_5a/relu_pool_proj -> inception_5a/pool_proj/bn (in-place)
I0707 15:54:45.772624 13370 net.cpp:97] Setting up inception_5a/relu_pool_proj
I0707 15:54:45.772639 13370 net.cpp:104] Top shape: 32 128 7 7 (200704)
I0707 15:54:45.772650 13370 layer_factory.hpp:78] Creating layer inception_5a/output
I0707 15:54:45.772663 13370 net.cpp:68] Creating Layer inception_5a/output
I0707 15:54:45.772675 13370 net.cpp:395] inception_5a/output <- inception_5a/1x1/bn
I0707 15:54:45.772712 13370 net.cpp:395] inception_5a/output <- inception_5a/3x3/bn
I0707 15:54:45.772727 13370 net.cpp:395] inception_5a/output <- inception_5a/5x5/bn
I0707 15:54:45.772740 13370 net.cpp:395] inception_5a/output <- inception_5a/pool_proj/bn
I0707 15:54:45.772754 13370 net.cpp:357] inception_5a/output -> inception_5a/output
I0707 15:54:45.772769 13370 net.cpp:97] Setting up inception_5a/output
I0707 15:54:45.772783 13370 net.cpp:104] Top shape: 32 832 7 7 (1304576)
I0707 15:54:45.772794 13370 layer_factory.hpp:78] Creating layer inception_5a/output_inception_5a/output_0_split
I0707 15:54:45.772807 13370 net.cpp:68] Creating Layer inception_5a/output_inception_5a/output_0_split
I0707 15:54:45.772819 13370 net.cpp:395] inception_5a/output_inception_5a/output_0_split <- inception_5a/output
I0707 15:54:45.772836 13370 net.cpp:357] inception_5a/output_inception_5a/output_0_split -> inception_5a/output_inception_5a/output_0_split_0
I0707 15:54:45.772853 13370 net.cpp:357] inception_5a/output_inception_5a/output_0_split -> inception_5a/output_inception_5a/output_0_split_1
I0707 15:54:45.772869 13370 net.cpp:357] inception_5a/output_inception_5a/output_0_split -> inception_5a/output_inception_5a/output_0_split_2
I0707 15:54:45.772886 13370 net.cpp:357] inception_5a/output_inception_5a/output_0_split -> inception_5a/output_inception_5a/output_0_split_3
I0707 15:54:45.772900 13370 net.cpp:97] Setting up inception_5a/output_inception_5a/output_0_split
I0707 15:54:45.772913 13370 net.cpp:104] Top shape: 32 832 7 7 (1304576)
I0707 15:54:45.772925 13370 net.cpp:104] Top shape: 32 832 7 7 (1304576)
I0707 15:54:45.772935 13370 net.cpp:104] Top shape: 32 832 7 7 (1304576)
I0707 15:54:45.772948 13370 net.cpp:104] Top shape: 32 832 7 7 (1304576)
I0707 15:54:45.772958 13370 layer_factory.hpp:78] Creating layer inception_5b/1x1
I0707 15:54:45.772976 13370 net.cpp:68] Creating Layer inception_5b/1x1
I0707 15:54:45.772989 13370 net.cpp:395] inception_5b/1x1 <- inception_5a/output_inception_5a/output_0_split_0
I0707 15:54:45.773003 13370 net.cpp:357] inception_5b/1x1 -> inception_5b/1x1
I0707 15:54:45.773018 13370 net.cpp:97] Setting up inception_5b/1x1
I0707 15:54:45.776598 13370 net.cpp:104] Top shape: 32 384 7 7 (602112)
I0707 15:54:45.776623 13370 layer_factory.hpp:78] Creating layer inception_5b/1x1/bn
I0707 15:54:45.776643 13370 net.cpp:68] Creating Layer inception_5b/1x1/bn
I0707 15:54:45.776656 13370 net.cpp:395] inception_5b/1x1/bn <- inception_5b/1x1
I0707 15:54:45.776674 13370 net.cpp:357] inception_5b/1x1/bn -> inception_5b/1x1/bn
I0707 15:54:45.776691 13370 net.cpp:97] Setting up inception_5b/1x1/bn
I0707 15:54:45.776713 13370 net.cpp:104] Top shape: 32 384 7 7 (602112)
I0707 15:54:45.776729 13370 layer_factory.hpp:78] Creating layer inception_5b/relu_1x1
I0707 15:54:45.776743 13370 net.cpp:68] Creating Layer inception_5b/relu_1x1
I0707 15:54:45.776756 13370 net.cpp:395] inception_5b/relu_1x1 <- inception_5b/1x1/bn
I0707 15:54:45.776772 13370 net.cpp:346] inception_5b/relu_1x1 -> inception_5b/1x1/bn (in-place)
I0707 15:54:45.776787 13370 net.cpp:97] Setting up inception_5b/relu_1x1
I0707 15:54:45.776803 13370 net.cpp:104] Top shape: 32 384 7 7 (602112)
I0707 15:54:45.776814 13370 layer_factory.hpp:78] Creating layer inception_5b/3x3_reduce
I0707 15:54:45.776829 13370 net.cpp:68] Creating Layer inception_5b/3x3_reduce
I0707 15:54:45.776841 13370 net.cpp:395] inception_5b/3x3_reduce <- inception_5a/output_inception_5a/output_0_split_1
I0707 15:54:45.776856 13370 net.cpp:357] inception_5b/3x3_reduce -> inception_5b/3x3_reduce
I0707 15:54:45.776871 13370 net.cpp:97] Setting up inception_5b/3x3_reduce
I0707 15:54:45.778645 13370 net.cpp:104] Top shape: 32 192 7 7 (301056)
I0707 15:54:45.778667 13370 layer_factory.hpp:78] Creating layer inception_5b/3x3_reduce/bn
I0707 15:54:45.778687 13370 net.cpp:68] Creating Layer inception_5b/3x3_reduce/bn
I0707 15:54:45.778699 13370 net.cpp:395] inception_5b/3x3_reduce/bn <- inception_5b/3x3_reduce
I0707 15:54:45.778714 13370 net.cpp:357] inception_5b/3x3_reduce/bn -> inception_5b/3x3_reduce/bn
I0707 15:54:45.778754 13370 net.cpp:97] Setting up inception_5b/3x3_reduce/bn
I0707 15:54:45.778780 13370 net.cpp:104] Top shape: 32 192 7 7 (301056)
I0707 15:54:45.778796 13370 layer_factory.hpp:78] Creating layer inception_5b/relu_3x3_reduce
I0707 15:54:45.778810 13370 net.cpp:68] Creating Layer inception_5b/relu_3x3_reduce
I0707 15:54:45.778823 13370 net.cpp:395] inception_5b/relu_3x3_reduce <- inception_5b/3x3_reduce/bn
I0707 15:54:45.778839 13370 net.cpp:346] inception_5b/relu_3x3_reduce -> inception_5b/3x3_reduce/bn (in-place)
I0707 15:54:45.778854 13370 net.cpp:97] Setting up inception_5b/relu_3x3_reduce
I0707 15:54:45.778870 13370 net.cpp:104] Top shape: 32 192 7 7 (301056)
I0707 15:54:45.778882 13370 layer_factory.hpp:78] Creating layer inception_5b/3x3
I0707 15:54:45.778897 13370 net.cpp:68] Creating Layer inception_5b/3x3
I0707 15:54:45.778911 13370 net.cpp:395] inception_5b/3x3 <- inception_5b/3x3_reduce/bn
I0707 15:54:45.778926 13370 net.cpp:357] inception_5b/3x3 -> inception_5b/3x3
I0707 15:54:45.778941 13370 net.cpp:97] Setting up inception_5b/3x3
I0707 15:54:45.786339 13370 net.cpp:104] Top shape: 32 384 7 7 (602112)
I0707 15:54:45.786368 13370 layer_factory.hpp:78] Creating layer inception_5b/3x3/bn
I0707 15:54:45.786388 13370 net.cpp:68] Creating Layer inception_5b/3x3/bn
I0707 15:54:45.786401 13370 net.cpp:395] inception_5b/3x3/bn <- inception_5b/3x3
I0707 15:54:45.786419 13370 net.cpp:357] inception_5b/3x3/bn -> inception_5b/3x3/bn
I0707 15:54:45.786437 13370 net.cpp:97] Setting up inception_5b/3x3/bn
I0707 15:54:45.786461 13370 net.cpp:104] Top shape: 32 384 7 7 (602112)
I0707 15:54:45.786478 13370 layer_factory.hpp:78] Creating layer inception_5b/relu_3x3
I0707 15:54:45.786494 13370 net.cpp:68] Creating Layer inception_5b/relu_3x3
I0707 15:54:45.786507 13370 net.cpp:395] inception_5b/relu_3x3 <- inception_5b/3x3/bn
I0707 15:54:45.786520 13370 net.cpp:346] inception_5b/relu_3x3 -> inception_5b/3x3/bn (in-place)
I0707 15:54:45.786535 13370 net.cpp:97] Setting up inception_5b/relu_3x3
I0707 15:54:45.786550 13370 net.cpp:104] Top shape: 32 384 7 7 (602112)
I0707 15:54:45.786562 13370 layer_factory.hpp:78] Creating layer inception_5b/5x5_reduce
I0707 15:54:45.786577 13370 net.cpp:68] Creating Layer inception_5b/5x5_reduce
I0707 15:54:45.786589 13370 net.cpp:395] inception_5b/5x5_reduce <- inception_5a/output_inception_5a/output_0_split_2
I0707 15:54:45.786604 13370 net.cpp:357] inception_5b/5x5_reduce -> inception_5b/5x5_reduce
I0707 15:54:45.786620 13370 net.cpp:97] Setting up inception_5b/5x5_reduce
I0707 15:54:45.787119 13370 net.cpp:104] Top shape: 32 48 7 7 (75264)
I0707 15:54:45.787143 13370 layer_factory.hpp:78] Creating layer inception_5b/5x5_reduce/bn
I0707 15:54:45.787159 13370 net.cpp:68] Creating Layer inception_5b/5x5_reduce/bn
I0707 15:54:45.787173 13370 net.cpp:395] inception_5b/5x5_reduce/bn <- inception_5b/5x5_reduce
I0707 15:54:45.787191 13370 net.cpp:357] inception_5b/5x5_reduce/bn -> inception_5b/5x5_reduce/bn
I0707 15:54:45.787207 13370 net.cpp:97] Setting up inception_5b/5x5_reduce/bn
I0707 15:54:45.787230 13370 net.cpp:104] Top shape: 32 48 7 7 (75264)
I0707 15:54:45.787246 13370 layer_factory.hpp:78] Creating layer inception_5b/relu_5x5_reduce
I0707 15:54:45.787261 13370 net.cpp:68] Creating Layer inception_5b/relu_5x5_reduce
I0707 15:54:45.787299 13370 net.cpp:395] inception_5b/relu_5x5_reduce <- inception_5b/5x5_reduce/bn
I0707 15:54:45.787312 13370 net.cpp:346] inception_5b/relu_5x5_reduce -> inception_5b/5x5_reduce/bn (in-place)
I0707 15:54:45.787328 13370 net.cpp:97] Setting up inception_5b/relu_5x5_reduce
I0707 15:54:45.787343 13370 net.cpp:104] Top shape: 32 48 7 7 (75264)
I0707 15:54:45.787354 13370 layer_factory.hpp:78] Creating layer inception_5b/5x5
I0707 15:54:45.787376 13370 net.cpp:68] Creating Layer inception_5b/5x5
I0707 15:54:45.787389 13370 net.cpp:395] inception_5b/5x5 <- inception_5b/5x5_reduce/bn
I0707 15:54:45.787408 13370 net.cpp:357] inception_5b/5x5 -> inception_5b/5x5
I0707 15:54:45.787425 13370 net.cpp:97] Setting up inception_5b/5x5
I0707 15:54:45.789165 13370 net.cpp:104] Top shape: 32 128 7 7 (200704)
I0707 15:54:45.789192 13370 layer_factory.hpp:78] Creating layer inception_5b/5x5/bn
I0707 15:54:45.789208 13370 net.cpp:68] Creating Layer inception_5b/5x5/bn
I0707 15:54:45.789222 13370 net.cpp:395] inception_5b/5x5/bn <- inception_5b/5x5
I0707 15:54:45.789239 13370 net.cpp:357] inception_5b/5x5/bn -> inception_5b/5x5/bn
I0707 15:54:45.789255 13370 net.cpp:97] Setting up inception_5b/5x5/bn
I0707 15:54:45.789276 13370 net.cpp:104] Top shape: 32 128 7 7 (200704)
I0707 15:54:45.789291 13370 layer_factory.hpp:78] Creating layer inception_5b/relu_5x5
I0707 15:54:45.789314 13370 net.cpp:68] Creating Layer inception_5b/relu_5x5
I0707 15:54:45.789327 13370 net.cpp:395] inception_5b/relu_5x5 <- inception_5b/5x5/bn
I0707 15:54:45.789341 13370 net.cpp:346] inception_5b/relu_5x5 -> inception_5b/5x5/bn (in-place)
I0707 15:54:45.789356 13370 net.cpp:97] Setting up inception_5b/relu_5x5
I0707 15:54:45.789371 13370 net.cpp:104] Top shape: 32 128 7 7 (200704)
I0707 15:54:45.789382 13370 layer_factory.hpp:78] Creating layer inception_5b/pool
I0707 15:54:45.789394 13370 layer_factory.cpp:51] CUDNN does not support padding or multiple tops. Using Caffe's own pooling layer.
I0707 15:54:45.789408 13370 net.cpp:68] Creating Layer inception_5b/pool
I0707 15:54:45.789420 13370 net.cpp:395] inception_5b/pool <- inception_5a/output_inception_5a/output_0_split_3
I0707 15:54:45.789438 13370 net.cpp:357] inception_5b/pool -> inception_5b/pool
I0707 15:54:45.789454 13370 net.cpp:97] Setting up inception_5b/pool
I0707 15:54:45.789469 13370 net.cpp:104] Top shape: 32 832 7 7 (1304576)
I0707 15:54:45.789481 13370 layer_factory.hpp:78] Creating layer inception_5b/pool_proj
I0707 15:54:45.789495 13370 net.cpp:68] Creating Layer inception_5b/pool_proj
I0707 15:54:45.789506 13370 net.cpp:395] inception_5b/pool_proj <- inception_5b/pool
I0707 15:54:45.789523 13370 net.cpp:357] inception_5b/pool_proj -> inception_5b/pool_proj
I0707 15:54:45.789541 13370 net.cpp:97] Setting up inception_5b/pool_proj
I0707 15:54:45.790810 13370 net.cpp:104] Top shape: 32 128 7 7 (200704)
I0707 15:54:45.790833 13370 layer_factory.hpp:78] Creating layer inception_5b/pool_proj/bn
I0707 15:54:45.790853 13370 net.cpp:68] Creating Layer inception_5b/pool_proj/bn
I0707 15:54:45.790866 13370 net.cpp:395] inception_5b/pool_proj/bn <- inception_5b/pool_proj
I0707 15:54:45.790881 13370 net.cpp:357] inception_5b/pool_proj/bn -> inception_5b/pool_proj/bn
I0707 15:54:45.790899 13370 net.cpp:97] Setting up inception_5b/pool_proj/bn
I0707 15:54:45.790921 13370 net.cpp:104] Top shape: 32 128 7 7 (200704)
I0707 15:54:45.790937 13370 layer_factory.hpp:78] Creating layer inception_5b/relu_pool_proj
I0707 15:54:45.790951 13370 net.cpp:68] Creating Layer inception_5b/relu_pool_proj
I0707 15:54:45.790963 13370 net.cpp:395] inception_5b/relu_pool_proj <- inception_5b/pool_proj/bn
I0707 15:54:45.790977 13370 net.cpp:346] inception_5b/relu_pool_proj -> inception_5b/pool_proj/bn (in-place)
I0707 15:54:45.790992 13370 net.cpp:97] Setting up inception_5b/relu_pool_proj
I0707 15:54:45.791007 13370 net.cpp:104] Top shape: 32 128 7 7 (200704)
I0707 15:54:45.791018 13370 layer_factory.hpp:78] Creating layer inception_5b/output
I0707 15:54:45.791033 13370 net.cpp:68] Creating Layer inception_5b/output
I0707 15:54:45.791044 13370 net.cpp:395] inception_5b/output <- inception_5b/1x1/bn
I0707 15:54:45.791060 13370 net.cpp:395] inception_5b/output <- inception_5b/3x3/bn
I0707 15:54:45.791074 13370 net.cpp:395] inception_5b/output <- inception_5b/5x5/bn
I0707 15:54:45.791087 13370 net.cpp:395] inception_5b/output <- inception_5b/pool_proj/bn
I0707 15:54:45.791102 13370 net.cpp:357] inception_5b/output -> inception_5b/output
I0707 15:54:45.791116 13370 net.cpp:97] Setting up inception_5b/output
I0707 15:54:45.791129 13370 net.cpp:104] Top shape: 32 1024 7 7 (1605632)
I0707 15:54:45.791141 13370 layer_factory.hpp:78] Creating layer pool5/7x7_s1
I0707 15:54:45.791156 13370 net.cpp:68] Creating Layer pool5/7x7_s1
I0707 15:54:45.791188 13370 net.cpp:395] pool5/7x7_s1 <- inception_5b/output
I0707 15:54:45.791209 13370 net.cpp:357] pool5/7x7_s1 -> pool5/7x7_s1
I0707 15:54:45.791224 13370 net.cpp:97] Setting up pool5/7x7_s1
I0707 15:54:45.791242 13370 net.cpp:104] Top shape: 32 1024 1 1 (32768)
I0707 15:54:45.791256 13370 layer_factory.hpp:78] Creating layer loss3/classifier
I0707 15:54:45.791272 13370 net.cpp:68] Creating Layer loss3/classifier
I0707 15:54:45.791285 13370 net.cpp:395] loss3/classifier <- pool5/7x7_s1
I0707 15:54:45.791302 13370 net.cpp:357] loss3/classifier -> loss3/classifier
I0707 15:54:45.791319 13370 net.cpp:97] Setting up loss3/classifier
I0707 15:54:45.802372 13370 net.cpp:104] Top shape: 32 1000 1 1 (32000)
I0707 15:54:45.802404 13370 layer_factory.hpp:78] Creating layer loss3/loss3
I0707 15:54:45.802422 13370 net.cpp:68] Creating Layer loss3/loss3
I0707 15:54:45.802433 13370 net.cpp:395] loss3/loss3 <- loss3/classifier
I0707 15:54:45.802448 13370 net.cpp:395] loss3/loss3 <- label_data_1_split_2
I0707 15:54:45.802466 13370 net.cpp:357] loss3/loss3 -> loss3/loss3
I0707 15:54:45.802482 13370 net.cpp:97] Setting up loss3/loss3
I0707 15:54:45.802496 13370 layer_factory.hpp:78] Creating layer loss3/loss3
I0707 15:54:45.802609 13370 net.cpp:104] Top shape: 1 1 1 1 (1)
I0707 15:54:45.802626 13370 net.cpp:110]     with loss weight 1
I0707 15:54:45.802655 13370 net.cpp:171] loss3/loss3 needs backward computation.
I0707 15:54:45.802667 13370 net.cpp:171] loss3/classifier needs backward computation.
I0707 15:54:45.802680 13370 net.cpp:171] pool5/7x7_s1 needs backward computation.
I0707 15:54:45.802690 13370 net.cpp:171] inception_5b/output needs backward computation.
…
