…
I0720 22:37:04.956563 11675 net.cpp:276] The NetState phase (0) differed from the phase (1) specified by a rule in layer loss3/top-5
I0720 22:37:04.957537 11675 net.cpp:39] Initializing net from parameters: 
name: "InceptionNetwork_bn"
layers {
  top: "data"
  top: "label"
  name: "data"
  type: DATA
  data_param {
    source: "/media/data0/image/ilsvrc12/ilsvrc12_train_lmdb"
    batch_size: 32
    backend: LMDB
    shuffle: true
  }
  include {
    phase: TRAIN
  }
  transform_param {
    mirror: true
    crop_size: 224
    mean_file: "/media/data1/image/ilsvrc12/imagenet_mean.binaryproto"
  }
}
layers {
  bottom: "data"
  top: "conv1/7x7_s2"
  name: "conv1/7x7_s2"
  type: CONVOLUTION
  blobs_lr: 1
  weight_decay: 1
  convolution_param {
    num_output: 64
    bias_term: false
    pad: 3
    kernel_size: 7
    stride: 2
    weight_filler {
      type: "xavier"
    }
  }
}
layers {
  bottom: "conv1/7x7_s2"
  top: "conv1/7x7_s2/bn"
  name: "conv1/7x7_s2/bn"
  type: BN
  blobs_lr: 1
  blobs_lr: 1
  weight_decay: 0
  weight_decay: 0
  bn_param {
    scale_filler {
      type: "constant"
      value: 1
    }
    shift_filler {
      type: "constant"
      value: 0
    }
  }
}
layers {
  bottom: "conv1/7x7_s2/bn"
  top: "conv1/7x7_s2/bn"
  name: "conv1/relu_7x7"
  type: RELU
}
layers {
  bottom: "conv1/7x7_s2/bn"
  top: "pool1/3x3_s2"
  name: "pool1/3x3_s2"
  type: POOLING
  pooling_param {
    pool: MAX
    kernel_size: 3
    stride: 2
  }
}
layers {
  bottom: "pool1/3x3_s2"
  top: "conv2/3x3_reduce"
  name: "conv2/3x3_reduce"
  type: CONVOLUTION
  blobs_lr: 1
  weight_decay: 1
  convolution_param {
    num_output: 64
    bias_term: false
    kernel_size: 1
    weight_filler {
      type: "xavier"
    }
  }
}
layers {
  bottom: "conv2/3x3_reduce"
  top: "conv2/3x3_reduce/bn"
  name: "conv2/3x3_reduce/bn"
  type: BN
  blobs_lr: 1
  blobs_lr: 1
  weight_decay: 0
  weight_decay: 0
  bn_param {
    scale_filler {
      type: "constant"
      value: 1
    }
    shift_filler {
      type: "constant"
      value: 0
    }
  }
}
layers {
  bottom: "conv2/3x3_reduce/bn"
  top: "conv2/3x3_reduce/bn"
  name: "conv2/relu_3x3_reduce"
  type: RELU
}
layers {
  bottom: "conv2/3x3_reduce/bn"
  top: "conv2/3x3"
  name: "conv2/3x3"
  type: CONVOLUTION
  blobs_lr: 1
  weight_decay: 1
  convolution_param {
    num_output: 192
    bias_term: false
    pad: 1
    kernel_size: 3
    weight_filler {
      type: "xavier"
    }
  }
}
layers {
  bottom: "conv2/3x3"
  top: "conv2/3x3/bn"
  name: "conv2/3x3/bn"
  type: BN
  blobs_lr: 1
  blobs_lr: 1
  weight_decay: 0
  weight_decay: 0
  bn_param {
    scale_filler {
      type: "constant"
      value: 1
    }
    shift_filler {
      type: "constant"
      value: 0
    }
  }
}
layers {
  bottom: "conv2/3x3/bn"
  top: "conv2/3x3/bn"
  name: "conv2/relu_3x3"
  type: RELU
}
layers {
  bottom: "conv2/3x3/bn"
  top: "pool2/3x3_s2"
  name: "pool2/3x3_s2"
  type: POOLING
  pooling_param {
    pool: MAX
    kernel_size: 3
    stride: 2
  }
}
layers {
  bottom: "pool2/3x3_s2"
  top: "inception_3a/1x1"
  name: "inception_3a/1x1"
  type: CONVOLUTION
  blobs_lr: 1
  weight_decay: 1
  convolution_param {
    num_output: 64
    bias_term: false
    kernel_size: 1
    weight_filler {
      type: "xavier"
    }
  }
}
layers {
  bottom: "inception_3a/1x1"
  top: "inception_3a/1x1/bn"
  name: "inception_3a/1x1/bn"
  type: BN
  blobs_lr: 1
  blobs_lr: 1
  weight_decay: 0
  weight_decay: 0
  bn_param {
    scale_filler {
      type: "constant"
      value: 1
    }
    shift_filler {
      type: "constant"
      value: 0
    }
  }
}
layers {
  bottom: "inception_3a/1x1/bn"
  top: "inception_3a/1x1/bn"
  name: "inception_3a/relu_1x1"
  type: RELU
}
layers {
  bottom: "pool2/3x3_s2"
  top: "inception_3a/3x3_reduce"
  name: "inception_3a/3x3_reduce"
  type: CONVOLUTION
  blobs_lr: 1
  weight_decay: 1
  convolution_param {
    num_output: 64
    bias_term: false
    kernel_size: 1
    weight_filler {
      type: "xavier"
    }
  }
}
layers {
  bottom: "inception_3a/3x3_reduce"
  top: "inception_3a/3x3_reduce/bn"
  name: "inception_3a/3x3_reduce/bn"
  type: BN
  blobs_lr: 1
  blobs_lr: 1
  weight_decay: 0
  weight_decay: 0
  bn_param {
    scale_filler {
      type: "constant"
      value: 1
    }
    shift_filler {
      type: "constant"
      value: 0
    }
  }
}
layers {
  bottom: "inception_3a/3x3_reduce/bn"
  top: "inception_3a/3x3_reduce/bn"
  name: "inception_3a/relu_3x3_reduce"
  type: RELU
}
layers {
  bottom: "inception_3a/3x3_reduce/bn"
  top: "inception_3a/3x3"
  name: "inception_3a/3x3"
  type: CONVOLUTION
  blobs_lr: 1
  weight_decay: 1
  convolution_param {
    num_output: 64
    bias_term: false
    pad: 1
    kernel_size: 3
    weight_filler {
      type: "xavier"
    }
  }
}
layers {
  bottom: "inception_3a/3x3"
  top: "inception_3a/3x3/bn"
  name: "inception_3a/3x3/bn"
  type: BN
  blobs_lr: 1
  blobs_lr: 1
  weight_decay: 0
  weight_decay: 0
  bn_param {
    scale_filler {
      type: "constant"
      value: 1
    }
    shift_filler {
      type: "constant"
      value: 0
    }
  }
}
layers {
  bottom: "inception_3a/3x3/bn"
  top: "inception_3a/3x3/bn"
  name: "inception_3a/relu_3x3"
  type: RELU
}
layers {
  bottom: "pool2/3x3_s2"
  top: "inception_3a/double3x3_reduce"
  name: "inception_3a/double3x3_reduce"
  type: CONVOLUTION
  blobs_lr: 1
  weight_decay: 1
  convolution_param {
    num_output: 64
    bias_term: false
    kernel_size: 1
    weight_filler {
      type: "xavier"
    }
  }
}
layers {
  bottom: "inception_3a/double3x3_reduce"
  top: "inception_3a/double3x3_reduce/bn"
  name: "inception_3a/double3x3_reduce/bn"
  type: BN
  blobs_lr: 1
  blobs_lr: 1
  weight_decay: 0
  weight_decay: 0
  bn_param {
    scale_filler {
      type: "constant"
      value: 1
    }
    shift_filler {
      type: "constant"
      value: 0
    }
  }
}
layers {
  bottom: "inception_3a/double3x3_reduce/bn"
  top: "inception_3a/double3x3_reduce/bn"
  name: "inception_3a/relu_double3x3_reduce"
  type: RELU
}
layers {
  bottom: "inception_3a/double3x3_reduce/bn"
  top: "inception_3a/double3x3a"
  name: "inception_3a/double3x3a"
  type: CONVOLUTION
  blobs_lr: 1
  weight_decay: 1
  convolution_param {
    num_output: 96
    bias_term: false
    pad: 1
    kernel_size: 3
    weight_filler {
      type: "xavier"
    }
  }
}
layers {
  bottom: "inception_3a/double3x3a"
  top: "inception_3a/double3x3a/bn"
  name: "inception_3a/double3x3a/bn"
  type: BN
  blobs_lr: 1
  blobs_lr: 1
  weight_decay: 0
  weight_decay: 0
  bn_param {
    scale_filler {
      type: "constant"
      value: 1
    }
    shift_filler {
      type: "constant"
      value: 0
    }
  }
}
layers {
  bottom: "inception_3a/double3x3a/bn"
  top: "inception_3a/double3x3a/bn"
  name: "inception_3a/relu_double3x3a"
  type: RELU
}
layers {
  bottom: "inception_3a/double3x3a/bn"
  top: "inception_3a/double3x3b"
  name: "inception_3a/double3x3b"
  type: CONVOLUTION
  blobs_lr: 1
  weight_decay: 1
  convolution_param {
    num_output: 96
    bias_term: false
    pad: 1
    kernel_size: 3
    weight_filler {
      type: "xavier"
    }
  }
}
layers {
  bottom: "inception_3a/double3x3b"
  top: "inception_3a/double3x3b/bn"
  name: "inception_3a/double3x3b/bn"
  type: BN
  blobs_lr: 1
  blobs_lr: 1
  weight_decay: 0
  weight_decay: 0
  bn_param {
    scale_filler {
      type: "constant"
      value: 1
    }
    shift_filler {
      type: "constant"
      value: 0
    }
  }
}
layers {
  bottom: "inception_3a/double3x3b/bn"
  top: "inception_3a/double3x3b/bn"
  name: "inception_3a/relu_double3x3b"
  type: RELU
}
layers {
  bottom: "pool2/3x3_s2"
  top: "inception_3a/pool"
  name: "inception_3a/pool"
  type: POOLING
  pooling_param {
    pool: AVE
    kernel_size: 3
    stride: 1
    pad: 1
  }
}
layers {
  bottom: "inception_3a/pool"
  top: "inception_3a/pool_proj"
  name: "inception_3a/pool_proj"
  type: CONVOLUTION
  blobs_lr: 1
  weight_decay: 1
  convolution_param {
    num_output: 32
    bias_term: false
    kernel_size: 1
    weight_filler {
      type: "xavier"
    }
  }
}
layers {
  bottom: "inception_3a/pool_proj"
  top: "inception_3a/pool_proj/bn"
  name: "inception_3a/pool_proj/bn"
  type: BN
  blobs_lr: 1
  blobs_lr: 1
  weight_decay: 0
  weight_decay: 0
  bn_param {
    scale_filler {
      type: "constant"
      value: 1
    }
    shift_filler {
      type: "constant"
      value: 0
    }
  }
}
layers {
  bottom: "inception_3a/pool_proj/bn"
  top: "inception_3a/pool_proj/bn"
  name: "inception_3a/relu_pool_proj"
  type: RELU
}
layers {
  bottom: "inception_3a/1x1/bn"
  bottom: "inception_3a/3x3/bn"
  bottom: "inception_3a/double3x3b/bn"
  bottom: "inception_3a/pool_proj/bn"
  top: "inception_3a/output"
  name: "inception_3a/output"
  type: CONCAT
}
layers {
  bottom: "inception_3a/output"
  top: "inception_3b/1x1"
  name: "inception_3b/1x1"
  type: CONVOLUTION
  blobs_lr: 1
  weight_decay: 1
  convolution_param {
    num_output: 64
    bias_term: false
    kernel_size: 1
    weight_filler {
      type: "xavier"
    }
  }
}
layers {
  bottom: "inception_3b/1x1"
  top: "inception_3b/1x1/bn"
  name: "inception_3b/1x1/bn"
  type: BN
  blobs_lr: 1
  blobs_lr: 1
  weight_decay: 0
  weight_decay: 0
  bn_param {
    scale_filler {
      type: "constant"
      value: 1
    }
    shift_filler {
      type: "constant"
      value: 0
    }
  }
}
layers {
  bottom: "inception_3b/1x1/bn"
  top: "inception_3b/1x1/bn"
  name: "inception_3b/relu_1x1"
  type: RELU
}
layers {
  bottom: "inception_3a/output"
  top: "inception_3b/3x3_reduce"
  name: "inception_3b/3x3_reduce"
  type: CONVOLUTION
  blobs_lr: 1
  weight_decay: 1
  convolution_param {
    num_output: 64
    bias_term: false
    kernel_size: 1
    weight_filler {
      type: "xavier"
    }
  }
}
layers {
  bottom: "inception_3b/3x3_reduce"
  top: "inception_3b/3x3_reduce/bn"
  name: "inception_3b/3x3_reduce/bn"
  type: BN
  blobs_lr: 1
  blobs_lr: 1
  weight_decay: 0
  weight_decay: 0
  bn_param {
    scale_filler {
      type: "constant"
      value: 1
    }
    shift_filler {
      type: "constant"
      value: 0
    }
  }
}
layers {
  bottom: "inception_3b/3x3_reduce/bn"
  top: "inception_3b/3x3_reduce/bn"
  name: "inception_3b/relu_3x3_reduce"
  type: RELU
}
layers {
  bottom: "inception_3b/3x3_reduce/bn"
  top: "inception_3b/3x3"
  name: "inception_3b/3x3"
  type: CONVOLUTION
  blobs_lr: 1
  weight_decay: 1
  convolution_param {
    num_output: 96
    bias_term: false
    pad: 1
    kernel_size: 3
    weight_filler {
      type: "xavier"
    }
  }
}
layers {
  bottom: "inception_3b/3x3"
  top: "inception_3b/3x3/bn"
  name: "inception_3b/3x3/bn"
  type: BN
  blobs_lr: 1
  blobs_lr: 1
  weight_decay: 0
  weight_decay: 0
  bn_param {
    scale_filler {
      type: "constant"
      value: 1
    }
    shift_filler {
      type: "constant"
      value: 0
    }
  }
}
layers {
  bottom: "inception_3b/3x3/bn"
  top: "inception_3b/3x3/bn"
  name: "inception_3b/relu_3x3"
  type: RELU
}
layers {
  bottom: "inception_3a/output"
  top: "inception_3b/double3x3_reduce"
  name: "inception_3b/double3x3_reduce"
  type: CONVOLUTION
  blobs_lr: 1
  weight_decay: 1
  convolution_param {
    num_output: 64
    bias_term: false
    kernel_size: 1
    weight_filler {
      type: "xavier"
    }
  }
}
layers {
  bottom: "inception_3b/double3x3_reduce"
  top: "inception_3b/double3x3_reduce/bn"
  name: "inception_3b/double3x3_reduce/bn"
  type: BN
  blobs_lr: 1
  blobs_lr: 1
  weight_decay: 0
  weight_decay: 0
  bn_param {
    scale_filler {
      type: "constant"
      value: 1
    }
    shift_filler {
      type: "constant"
      value: 0
    }
  }
}
layers {
  bottom: "inception_3b/double3x3_reduce/bn"
  top: "inception_3b/double3x3_reduce/bn"
  name: "inception_3b/relu_double3x3_reduce"
  type: RELU
}
layers {
  bottom: "inception_3b/double3x3_reduce/bn"
  top: "inception_3b/double3x3a"
  name: "inception_3b/double3x3a"
  type: CONVOLUTION
  blobs_lr: 1
  weight_decay: 1
  convolution_param {
    num_output: 96
    bias_term: false
    pad: 1
    kernel_size: 3
    weight_filler {
      type: "xavier"
    }
  }
}
layers {
  bottom: "inception_3b/double3x3a"
  top: "inception_3b/double3x3a/bn"
  name: "inception_3b/double3x3a/bn"
  type: BN
  blobs_lr: 1
  blobs_lr: 1
  weight_decay: 0
  weight_decay: 0
  bn_param {
    scale_filler {
      type: "constant"
      value: 1
    }
    shift_filler {
      type: "constant"
      value: 0
    }
  }
}
layers {
  bottom: "inception_3b/double3x3a/bn"
  top: "inception_3b/double3x3a/bn"
  name: "inception_3b/relu_double3x3a"
  type: RELU
}
layers {
  bottom: "inception_3b/double3x3a/bn"
  top: "inception_3b/double3x3b"
  name: "inception_3b/double3x3b"
  type: CONVOLUTION
  blobs_lr: 1
  weight_decay: 1
  convolution_param {
    num_output: 96
    bias_term: false
    pad: 1
    kernel_size: 3
    weight_filler {
      type: "xavier"
    }
  }
}
layers {
  bottom: "inception_3b/double3x3b"
  top: "inception_3b/double3x3b/bn"
  name: "inception_3b/double3x3b/bn"
  type: BN
  blobs_lr: 1
  blobs_lr: 1
  weight_decay: 0
  weight_decay: 0
  bn_param {
    scale_filler {
      type: "constant"
      value: 1
    }
    shift_filler {
      type: "constant"
      value: 0
    }
  }
}
layers {
  bottom: "inception_3b/double3x3b/bn"
  top: "inception_3b/double3x3b/bn"
  name: "inception_3b/relu_double3x3b"
  type: RELU
}
layers {
  bottom: "inception_3a/output"
  top: "inception_3b/pool"
  name: "inception_3b/pool"
  type: POOLING
  pooling_param {
    pool: AVE
    kernel_size: 3
    stride: 1
    pad: 1
  }
}
layers {
  bottom: "inception_3b/pool"
  top: "inception_3b/pool_proj"
  name: "inception_3b/pool_proj"
  type: CONVOLUTION
  blobs_lr: 1
  weight_decay: 1
  convolution_param {
    num_output: 64
    bias_term: false
    kernel_size: 1
    weight_filler {
      type: "xavier"
    }
  }
}
layers {
  bottom: "inception_3b/pool_proj"
  top: "inception_3b/pool_proj/bn"
  name: "inception_3b/pool_proj/bn"
  type: BN
  blobs_lr: 1
  blobs_lr: 1
  weight_decay: 0
  weight_decay: 0
  bn_param {
    scale_filler {
      type: "constant"
      value: 1
    }
    shift_filler {
      type: "constant"
      value: 0
    }
  }
}
layers {
  bottom: "inception_3b/pool_proj/bn"
  top: "inception_3b/pool_proj/bn"
  name: "inception_3b/relu_pool_proj"
  type: RELU
}
layers {
  bottom: "inception_3b/1x1/bn"
  bottom: "inception_3b/3x3/bn"
  bottom: "inception_3b/double3x3b/bn"
  bottom: "inception_3b/pool_proj/bn"
  top: "inception_3b/output"
  name: "inception_3b/output"
  type: CONCAT
}
layers {
  bottom: "inception_3b/output"
  top: "inception_3c/3x3_reduce"
  name: "inception_3c/3x3_reduce"
  type: CONVOLUTION
  blobs_lr: 1
  weight_decay: 1
  convolution_param {
    num_output: 128
    bias_term: false
    kernel_size: 1
    weight_filler {
      type: "xavier"
    }
  }
}
layers {
  bottom: "inception_3c/3x3_reduce"
  top: "inception_3c/3x3_reduce/bn"
  name: "inception_3c/3x3_reduce/bn"
  type: BN
  blobs_lr: 1
  blobs_lr: 1
  weight_decay: 0
  weight_decay: 0
  bn_param {
    scale_filler {
      type: "constant"
      value: 1
    }
    shift_filler {
      type: "constant"
      value: 0
    }
  }
}
layers {
  bottom: "inception_3c/3x3_reduce/bn"
  top: "inception_3c/3x3_reduce/bn"
  name: "inception_3c/relu_3x3_reduce"
  type: RELU
}
layers {
  bottom: "inception_3c/3x3_reduce/bn"
  top: "inception_3c/3x3"
  name: "inception_3c/3x3"
  type: CONVOLUTION
  blobs_lr: 1
  weight_decay: 1
  convolution_param {
    num_output: 160
    bias_term: false
    pad: 1
    kernel_size: 3
    stride: 2
    weight_filler {
      type: "xavier"
    }
  }
}
layers {
  bottom: "inception_3c/3x3"
  top: "inception_3c/3x3/bn"
  name: "inception_3c/3x3/bn"
  type: BN
  blobs_lr: 1
  blobs_lr: 1
  weight_decay: 0
  weight_decay: 0
  bn_param {
    scale_filler {
      type: "constant"
      value: 1
    }
    shift_filler {
      type: "constant"
      value: 0
    }
  }
}
layers {
  bottom: "inception_3c/3x3/bn"
  top: "inception_3c/3x3/bn"
  name: "inception_3c/relu_3x3"
  type: RELU
}
layers {
  bottom: "inception_3b/output"
  top: "inception_3c/double3x3_reduce"
  name: "inception_3c/double3x3_reduce"
  type: CONVOLUTION
  blobs_lr: 1
  weight_decay: 1
  convolution_param {
    num_output: 64
    bias_term: false
    kernel_size: 1
    weight_filler {
      type: "xavier"
    }
  }
}
layers {
  bottom: "inception_3c/double3x3_reduce"
  top: "inception_3c/double3x3_reduce/bn"
  name: "inception_3c/double3x3_reduce/bn"
  type: BN
  blobs_lr: 1
  blobs_lr: 1
  weight_decay: 0
  weight_decay: 0
  bn_param {
    scale_filler {
      type: "constant"
      value: 1
    }
    shift_filler {
      type: "constant"
      value: 0
    }
  }
}
layers {
  bottom: "inception_3c/double3x3_reduce/bn"
  top: "inception_3c/double3x3_reduce/bn"
  name: "inception_3c/relu_double3x3_reduce"
  type: RELU
}
layers {
  bottom: "inception_3c/double3x3_reduce/bn"
  top: "inception_3c/double3x3a"
  name: "inception_3c/double3x3a"
  type: CONVOLUTION
  blobs_lr: 1
  weight_decay: 1
  convolution_param {
    num_output: 96
    bias_term: false
    pad: 1
    kernel_size: 3
    weight_filler {
      type: "xavier"
    }
  }
}
layers {
  bottom: "inception_3c/double3x3a"
  top: "inception_3c/double3x3a/bn"
  name: "inception_3c/double3x3a/bn"
  type: BN
  blobs_lr: 1
  blobs_lr: 1
  weight_decay: 0
  weight_decay: 0
  bn_param {
    scale_filler {
      type: "constant"
      value: 1
    }
    shift_filler {
      type: "constant"
      value: 0
    }
  }
}
layers {
  bottom: "inception_3c/double3x3a/bn"
  top: "inception_3c/double3x3a/bn"
  name: "inception_3c/relu_double3x3a"
  type: RELU
}
layers {
  bottom: "inception_3c/double3x3a/bn"
  top: "inception_3c/double3x3b"
  name: "inception_3c/double3x3b"
  type: CONVOLUTION
  blobs_lr: 1
  weight_decay: 1
  convolution_param {
    num_output: 96
    bias_term: false
    pad: 1
    kernel_size: 3
    stride: 2
    weight_filler {
      type: "xavier"
    }
  }
}
layers {
  bottom: "inception_3c/double3x3b"
  top: "inception_3c/double3x3b/bn"
  name: "inception_3c/double3x3b/bn"
  type: BN
  blobs_lr: 1
  blobs_lr: 1
  weight_decay: 0
  weight_decay: 0
  bn_param {
    scale_filler {
      type: "constant"
      value: 1
    }
    shift_filler {
      type: "constant"
      value: 0
    }
  }
}
layers {
  bottom: "inception_3c/double3x3b/bn"
  top: "inception_3c/double3x3b/bn"
  name: "inception_3c/relu_double3x3b"
  type: RELU
}
layers {
  bottom: "inception_3b/output"
  top: "inception_3c/pool/3x3_s2"
  name: "inception_3c/pool/3x3_s2"
  type: POOLING
  pooling_param {
    pool: MAX
    kernel_size: 3
    stride: 2
  }
}
layers {
  bottom: "inception_3c/3x3/bn"
  bottom: "inception_3c/double3x3b/bn"
  bottom: "inception_3c/pool/3x3_s2"
  top: "inception_3c/output"
  name: "inception_3c/output"
  type: CONCAT
}
layers {
  bottom: "inception_3c/output"
  top: "inception_4a/1x1"
  name: "inception_4a/1x1"
  type: CONVOLUTION
  blobs_lr: 1
  weight_decay: 1
  convolution_param {
    num_output: 224
    bias_term: false
    kernel_size: 1
    weight_filler {
      type: "xavier"
    }
  }
}
layers {
  bottom: "inception_4a/1x1"
  top: "inception_4a/1x1/bn"
  name: "inception_4a/1x1/bn"
  type: BN
  blobs_lr: 1
  blobs_lr: 1
  weight_decay: 0
  weight_decay: 0
  bn_param {
    scale_filler {
      type: "constant"
      value: 1
    }
    shift_filler {
      type: "constant"
      value: 0
    }
  }
}
layers {
  bottom: "inception_4a/1x1/bn"
  top: "inception_4a/1x1/bn"
  name: "inception_4a/relu_1x1"
  type: RELU
}
layers {
  bottom: "inception_3c/output"
  top: "inception_4a/3x3_reduce"
  name: "inception_4a/3x3_reduce"
  type: CONVOLUTION
  blobs_lr: 1
  weight_decay: 1
  convolution_param {
    num_output: 64
    bias_term: false
    kernel_size: 1
    weight_filler {
      type: "xavier"
    }
  }
}
layers {
  bottom: "inception_4a/3x3_reduce"
  top: "inception_4a/3x3_reduce/bn"
  name: "inception_4a/3x3_reduce/bn"
  type: BN
  blobs_lr: 1
  blobs_lr: 1
  weight_decay: 0
  weight_decay: 0
  bn_param {
    scale_filler {
      type: "constant"
      value: 1
    }
    shift_filler {
      type: "constant"
      value: 0
    }
  }
}
layers {
  bottom: "inception_4a/3x3_reduce/bn"
  top: "inception_4a/3x3_reduce/bn"
  name: "inception_4a/relu_3x3_reduce"
  type: RELU
}
layers {
  bottom: "inception_4a/3x3_reduce/bn"
  top: "inception_4a/3x3"
  name: "inception_4a/3x3"
  type: CONVOLUTION
  blobs_lr: 1
  weight_decay: 1
  convolution_param {
    num_output: 96
    bias_term: false
    pad: 1
    kernel_size: 3
    weight_filler {
      type: "xavier"
    }
  }
}
layers {
  bottom: "inception_4a/3x3"
  top: "inception_4a/3x3/bn"
  name: "inception_4a/3x3/bn"
  type: BN
  blobs_lr: 1
  blobs_lr: 1
  weight_decay: 0
  weight_decay: 0
  bn_param {
    scale_filler {
      type: "constant"
      value: 1
    }
    shift_filler {
      type: "constant"
      value: 0
    }
  }
}
layers {
  bottom: "inception_4a/3x3/bn"
  top: "inception_4a/3x3/bn"
  name: "inception_4a/relu_3x3"
  type: RELU
}
layers {
  bottom: "inception_3c/output"
  top: "inception_4a/double3x3_reduce"
  name: "inception_4a/double3x3_reduce"
  type: CONVOLUTION
  blobs_lr: 1
  weight_decay: 1
  convolution_param {
    num_output: 96
    bias_term: false
    kernel_size: 1
    weight_filler {
      type: "xavier"
    }
  }
}
layers {
  bottom: "inception_4a/double3x3_reduce"
  top: "inception_4a/double3x3_reduce/bn"
  name: "inception_4a/double3x3_reduce/bn"
  type: BN
  blobs_lr: 1
  blobs_lr: 1
  weight_decay: 0
  weight_decay: 0
  bn_param {
    scale_filler {
      type: "constant"
      value: 1
    }
    shift_filler {
      type: "constant"
      value: 0
    }
  }
}
layers {
  bottom: "inception_4a/double3x3_reduce/bn"
  top: "inception_4a/double3x3_reduce/bn"
  name: "inception_4a/relu_double3x3_reduce"
  type: RELU
}
layers {
  bottom: "inception_4a/double3x3_reduce/bn"
  top: "inception_4a/double3x3a"
  name: "inception_4a/double3x3a"
  type: CONVOLUTION
  blobs_lr: 1
  weight_decay: 1
  convolution_param {
    num_output: 128
    bias_term: false
    pad: 1
    kernel_size: 3
    weight_filler {
      type: "xavier"
    }
  }
}
layers {
  bottom: "inception_4a/double3x3a"
  top: "inception_4a/double3x3a/bn"
  name: "inception_4a/double3x3a/bn"
  type: BN
  blobs_lr: 1
  blobs_lr: 1
  weight_decay: 0
  weight_decay: 0
  bn_param {
    scale_filler {
      type: "constant"
      value: 1
    }
    shift_filler {
      type: "constant"
      value: 0
    }
  }
}
layers {
  bottom: "inception_4a/double3x3a/bn"
  top: "inception_4a/double3x3a/bn"
  name: "inception_4a/relu_double3x3a"
  type: RELU
}
layers {
  bottom: "inception_4a/double3x3a/bn"
  top: "inception_4a/double3x3b"
  name: "inception_4a/double3x3b"
  type: CONVOLUTION
  blobs_lr: 1
  weight_decay: 1
  convolution_param {
    num_output: 128
    bias_term: false
    pad: 1
    kernel_size: 3
    weight_filler {
      type: "xavier"
    }
  }
}
layers {
  bottom: "inception_4a/double3x3b"
  top: "inception_4a/double3x3b/bn"
  name: "inception_4a/double3x3b/bn"
  type: BN
  blobs_lr: 1
  blobs_lr: 1
  weight_decay: 0
  weight_decay: 0
  bn_param {
    scale_filler {
      type: "constant"
      value: 1
    }
    shift_filler {
      type: "constant"
      value: 0
    }
  }
}
layers {
  bottom: "inception_4a/double3x3b/bn"
  top: "inception_4a/double3x3b/bn"
  name: "inception_4a/relu_double3x3b"
  type: RELU
}
layers {
  bottom: "inception_3c/output"
  top: "inception_4a/pool"
  name: "inception_4a/pool"
  type: POOLING
  pooling_param {
    pool: AVE
    kernel_size: 3
    stride: 1
    pad: 1
  }
}
layers {
  bottom: "inception_4a/pool"
  top: "inception_4a/pool_proj"
  name: "inception_4a/pool_proj"
  type: CONVOLUTION
  blobs_lr: 1
  weight_decay: 1
  convolution_param {
    num_output: 128
    bias_term: false
    kernel_size: 1
    weight_filler {
      type: "xavier"
    }
  }
}
layers {
  bottom: "inception_4a/pool_proj"
  top: "inception_4a/pool_proj/bn"
  name: "inception_4a/pool_proj/bn"
  type: BN
  blobs_lr: 1
  blobs_lr: 1
  weight_decay: 0
  weight_decay: 0
  bn_param {
    scale_filler {
      type: "constant"
      value: 1
    }
    shift_filler {
      type: "constant"
      value: 0
    }
  }
}
layers {
  bottom: "inception_4a/pool_proj/bn"
  top: "inception_4a/pool_proj/bn"
  name: "inception_4a/relu_pool_proj"
  type: RELU
}
layers {
  bottom: "inception_4a/1x1/bn"
  bottom: "inception_4a/3x3/bn"
  bottom: "inception_4a/double3x3b/bn"
  bottom: "inception_4a/pool_proj/bn"
  top: "inception_4a/output"
  name: "inception_4a/output"
  type: CONCAT
}
layers {
  bottom: "inception_4a/output"
  top: "loss1/ave_pool"
  name: "loss1/ave_pool"
  type: POOLING
  pooling_param {
    pool: AVE
    kernel_size: 5
    stride: 3
  }
}
layers {
  bottom: "loss1/ave_pool"
  top: "loss1/conv"
  name: "loss1/conv"
  type: CONVOLUTION
  blobs_lr: 1
  weight_decay: 1
  convolution_param {
    num_output: 128
    bias_term: false
    kernel_size: 1
    weight_filler {
      type: "xavier"
    }
  }
}
layers {
  bottom: "loss1/conv"
  top: "loss1/conv/bn"
  name: "loss1/conv/bn"
  type: BN
  blobs_lr: 1
  blobs_lr: 1
  weight_decay: 0
  weight_decay: 0
  bn_param {
    scale_filler {
      type: "constant"
      value: 1
    }
    shift_filler {
      type: "constant"
      value: 0
    }
  }
}
layers {
  bottom: "loss1/conv/bn"
  top: "loss1/conv/bn"
  name: "loss1/relu_conv"
  type: RELU
}
layers {
  bottom: "loss1/conv/bn"
  top: "loss1/fc"
  name: "loss1/fc"
  type: INNER_PRODUCT
  blobs_lr: 1
  weight_decay: 1
  inner_product_param {
    num_output: 1024
    bias_term: false
    weight_filler {
      type: "xavier"
    }
  }
}
layers {
  bottom: "loss1/fc"
  top: "loss1/fc/bn"
  name: "loss1/fc/bn"
  type: BN
  blobs_lr: 1
  blobs_lr: 1
  weight_decay: 0
  weight_decay: 0
  bn_param {
    scale_filler {
      type: "constant"
      value: 1
    }
    shift_filler {
      type: "constant"
      value: 0
    }
  }
}
layers {
  bottom: "loss1/fc/bn"
  top: "loss1/fc/bn"
  name: "loss1/relu_fc"
  type: RELU
}
layers {
  bottom: "loss1/fc/bn"
  top: "loss1/classifier"
  name: "loss1/classifier"
  type: INNER_PRODUCT
  blobs_lr: 1
  blobs_lr: 2
  weight_decay: 1
  weight_decay: 0
  inner_product_param {
    num_output: 1000
    weight_filler {
      type: "xavier"
    }
    bias_filler {
      type: "constant"
    }
  }
}
layers {
  bottom: "loss1/classifier"
  bottom: "label"
  top: "loss1/loss1"
  name: "loss1/loss"
  type: SOFTMAX_LOSS
  loss_weight: 0.3
}
layers {
  bottom: "inception_4a/output"
  top: "inception_4b/1x1"
  name: "inception_4b/1x1"
  type: CONVOLUTION
  blobs_lr: 1
  weight_decay: 1
  convolution_param {
    num_output: 192
    bias_term: false
    kernel_size: 1
    weight_filler {
      type: "xavier"
    }
  }
}
layers {
  bottom: "inception_4b/1x1"
  top: "inception_4b/1x1/bn"
  name: "inception_4b/1x1/bn"
  type: BN
  blobs_lr: 1
  blobs_lr: 1
  weight_decay: 0
  weight_decay: 0
  bn_param {
    scale_filler {
      type: "constant"
      value: 1
    }
    shift_filler {
      type: "constant"
      value: 0
    }
  }
}
layers {
  bottom: "inception_4b/1x1/bn"
  top: "inception_4b/1x1/bn"
  name: "inception_4b/relu_1x1"
  type: RELU
}
layers {
  bottom: "inception_4a/output"
  top: "inception_4b/3x3_reduce"
  name: "inception_4b/3x3_reduce"
  type: CONVOLUTION
  blobs_lr: 1
  weight_decay: 1
  convolution_param {
    num_output: 96
    bias_term: false
    kernel_size: 1
    weight_filler {
      type: "xavier"
    }
  }
}
layers {
  bottom: "inception_4b/3x3_reduce"
  top: "inception_4b/3x3_reduce/bn"
  name: "inception_4b/3x3_reduce/bn"
  type: BN
  blobs_lr: 1
  blobs_lr: 1
  weight_decay: 0
  weight_decay: 0
  bn_param {
    scale_filler {
      type: "constant"
      value: 1
    }
    shift_filler {
      type: "constant"
      value: 0
    }
  }
}
layers {
  bottom: "inception_4b/3x3_reduce/bn"
  top: "inception_4b/3x3_reduce/bn"
  name: "inception_4b/relu_3x3_reduce"
  type: RELU
}
layers {
  bottom: "inception_4b/3x3_reduce/bn"
  top: "inception_4b/3x3"
  name: "inception_4b/3x3"
  type: CONVOLUTION
  blobs_lr: 1
  weight_decay: 1
  convolution_param {
    num_output: 128
    bias_term: false
    pad: 1
    kernel_size: 3
    weight_filler {
      type: "xavier"
    }
  }
}
layers {
  bottom: "inception_4b/3x3"
  top: "inception_4b/3x3/bn"
  name: "inception_4b/3x3/bn"
  type: BN
  blobs_lr: 1
  blobs_lr: 1
  weight_decay: 0
  weight_decay: 0
  bn_param {
    scale_filler {
      type: "constant"
      value: 1
    }
    shift_filler {
      type: "constant"
      value: 0
    }
  }
}
layers {
  bottom: "inception_4b/3x3/bn"
  top: "inception_4b/3x3/bn"
  name: "inception_4b/relu_3x3"
  type: RELU
}
layers {
  bottom: "inception_4a/output"
  top: "inception_4b/double3x3_reduce"
  name: "inception_4b/double3x3_reduce"
  type: CONVOLUTION
  blobs_lr: 1
  weight_decay: 1
  convolution_param {
    num_output: 96
    bias_term: false
    kernel_size: 1
    weight_filler {
      type: "xavier"
    }
  }
}
layers {
  bottom: "inception_4b/double3x3_reduce"
  top: "inception_4b/double3x3_reduce/bn"
  name: "inception_4b/double3x3_reduce/bn"
  type: BN
  blobs_lr: 1
  blobs_lr: 1
  weight_decay: 0
  weight_decay: 0
  bn_param {
    scale_filler {
      type: "constant"
      value: 1
    }
    shift_filler {
      type: "constant"
      value: 0
    }
  }
}
layers {
  bottom: "inception_4b/double3x3_reduce/bn"
  top: "inception_4b/double3x3_reduce/bn"
  name: "inception_4b/relu_double3x3_reduce"
  type: RELU
}
layers {
  bottom: "inception_4b/double3x3_reduce/bn"
  top: "inception_4b/double3x3a"
  name: "inception_4b/double3x3a"
  type: CONVOLUTION
  blobs_lr: 1
  weight_decay: 1
  convolution_param {
    num_output: 128
    bias_term: false
    pad: 1
    kernel_size: 3
    weight_filler {
      type: "xavier"
    }
  }
}
layers {
  bottom: "inception_4b/double3x3a"
  top: "inception_4b/double3x3a/bn"
  name: "inception_4b/double3x3a/bn"
  type: BN
  blobs_lr: 1
  blobs_lr: 1
 
I0720 22:37:04.961313 11675 layer_factory.hpp:78] Creating layer data
I0720 22:37:04.961338 11675 data_transformer.cpp:24] Loading mean file from/media/data1/image/ilsvrc12/imagenet_mean.binaryproto
I0720 22:37:05.038393 11675 net.cpp:68] Creating Layer data
I0720 22:37:05.038429 11675 net.cpp:357] data -> data
I0720 22:37:05.038660 11675 net.cpp:357] data -> label
I0720 22:37:05.038679 11675 net.cpp:97] Setting up data
I0720 22:37:05.038691 11675 data_layer.cpp:35] Opening dataset /media/data0/image/ilsvrc12/ilsvrc12_train_lmdb
I0720 22:37:05.041775 11675 data_layer.cpp:74] output data size: 32,3,224,224
I0720 22:37:05.047216 11675 net.cpp:104] Top shape: 32 3 224 224 (4816896)
I0720 22:37:05.047262 11675 net.cpp:104] Top shape: 32 1 1 1 (32)
I0720 22:37:05.047272 11675 layer_factory.hpp:78] Creating layer label_data_1_split
I0720 22:37:05.047292 11675 net.cpp:68] Creating Layer label_data_1_split
I0720 22:37:05.047303 11675 net.cpp:395] label_data_1_split <- label
I0720 22:37:05.047320 11675 net.cpp:357] label_data_1_split -> label_data_1_split_0
I0720 22:37:05.047336 11675 net.cpp:357] label_data_1_split -> label_data_1_split_1
I0720 22:37:05.047348 11675 net.cpp:357] label_data_1_split -> label_data_1_split_2
I0720 22:37:05.047358 11675 net.cpp:97] Setting up label_data_1_split
I0720 22:37:05.047396 11675 net.cpp:104] Top shape: 32 1 1 1 (32)
I0720 22:37:05.047405 11675 net.cpp:104] Top shape: 32 1 1 1 (32)
I0720 22:37:05.047412 11675 net.cpp:104] Top shape: 32 1 1 1 (32)
I0720 22:37:05.047420 11675 layer_factory.hpp:78] Creating layer conv1/7x7_s2
I0720 22:37:05.047432 11675 net.cpp:68] Creating Layer conv1/7x7_s2
I0720 22:37:05.047441 11675 net.cpp:395] conv1/7x7_s2 <- data
I0720 22:37:05.047451 11675 net.cpp:357] conv1/7x7_s2 -> conv1/7x7_s2
I0720 22:37:05.047462 11675 net.cpp:97] Setting up conv1/7x7_s2
I0720 22:37:05.142024 11675 net.cpp:104] Top shape: 32 64 112 112 (25690112)
I0720 22:37:05.142068 11675 layer_factory.hpp:78] Creating layer conv1/7x7_s2/bn
I0720 22:37:05.142277 11675 net.cpp:68] Creating Layer conv1/7x7_s2/bn
I0720 22:37:05.142298 11675 net.cpp:395] conv1/7x7_s2/bn <- conv1/7x7_s2
I0720 22:37:05.142313 11675 net.cpp:357] conv1/7x7_s2/bn -> conv1/7x7_s2/bn
I0720 22:37:05.142334 11675 net.cpp:97] Setting up conv1/7x7_s2/bn
I0720 22:37:05.142357 11675 net.cpp:104] Top shape: 32 64 112 112 (25690112)
I0720 22:37:05.142376 11675 layer_factory.hpp:78] Creating layer conv1/relu_7x7
I0720 22:37:05.142396 11675 net.cpp:68] Creating Layer conv1/relu_7x7
I0720 22:37:05.142412 11675 net.cpp:395] conv1/relu_7x7 <- conv1/7x7_s2/bn
I0720 22:37:05.142428 11675 net.cpp:346] conv1/relu_7x7 -> conv1/7x7_s2/bn (in-place)
I0720 22:37:05.142446 11675 net.cpp:97] Setting up conv1/relu_7x7
I0720 22:37:05.142663 11675 net.cpp:104] Top shape: 32 64 112 112 (25690112)
I0720 22:37:05.142678 11675 layer_factory.hpp:78] Creating layer pool1/3x3_s2
I0720 22:37:05.142693 11675 net.cpp:68] Creating Layer pool1/3x3_s2
I0720 22:37:05.142702 11675 net.cpp:395] pool1/3x3_s2 <- conv1/7x7_s2/bn
I0720 22:37:05.142712 11675 net.cpp:357] pool1/3x3_s2 -> pool1/3x3_s2
I0720 22:37:05.142724 11675 net.cpp:97] Setting up pool1/3x3_s2
I0720 22:37:05.143103 11675 net.cpp:104] Top shape: 32 64 56 56 (6422528)
I0720 22:37:05.143120 11675 layer_factory.hpp:78] Creating layer conv2/3x3_reduce
I0720 22:37:05.143131 11675 net.cpp:68] Creating Layer conv2/3x3_reduce
I0720 22:37:05.143139 11675 net.cpp:395] conv2/3x3_reduce <- pool1/3x3_s2
I0720 22:37:05.143149 11675 net.cpp:357] conv2/3x3_reduce -> conv2/3x3_reduce
I0720 22:37:05.143162 11675 net.cpp:97] Setting up conv2/3x3_reduce
I0720 22:37:05.143488 11675 net.cpp:104] Top shape: 32 64 56 56 (6422528)
I0720 22:37:05.143507 11675 layer_factory.hpp:78] Creating layer conv2/3x3_reduce/bn
I0720 22:37:05.143518 11675 net.cpp:68] Creating Layer conv2/3x3_reduce/bn
I0720 22:37:05.143527 11675 net.cpp:395] conv2/3x3_reduce/bn <- conv2/3x3_reduce
I0720 22:37:05.143537 11675 net.cpp:357] conv2/3x3_reduce/bn -> conv2/3x3_reduce/bn
I0720 22:37:05.143548 11675 net.cpp:97] Setting up conv2/3x3_reduce/bn
I0720 22:37:05.143564 11675 net.cpp:104] Top shape: 32 64 56 56 (6422528)
I0720 22:37:05.143587 11675 layer_factory.hpp:78] Creating layer conv2/relu_3x3_reduce
I0720 22:37:05.143606 11675 net.cpp:68] Creating Layer conv2/relu_3x3_reduce
I0720 22:37:05.143616 11675 net.cpp:395] conv2/relu_3x3_reduce <- conv2/3x3_reduce/bn
I0720 22:37:05.143630 11675 net.cpp:346] conv2/relu_3x3_reduce -> conv2/3x3_reduce/bn (in-place)
I0720 22:37:05.143647 11675 net.cpp:97] Setting up conv2/relu_3x3_reduce
I0720 22:37:05.143728 11675 net.cpp:104] Top shape: 32 64 56 56 (6422528)
I0720 22:37:05.143741 11675 layer_factory.hpp:78] Creating layer conv2/3x3
I0720 22:37:05.143753 11675 net.cpp:68] Creating Layer conv2/3x3
I0720 22:37:05.143761 11675 net.cpp:395] conv2/3x3 <- conv2/3x3_reduce/bn
I0720 22:37:05.143779 11675 net.cpp:357] conv2/3x3 -> conv2/3x3
I0720 22:37:05.143796 11675 net.cpp:97] Setting up conv2/3x3
I0720 22:37:05.144675 11675 net.cpp:104] Top shape: 32 192 56 56 (19267584)
I0720 22:37:05.144693 11675 layer_factory.hpp:78] Creating layer conv2/3x3/bn
I0720 22:37:05.144704 11675 net.cpp:68] Creating Layer conv2/3x3/bn
I0720 22:37:05.144713 11675 net.cpp:395] conv2/3x3/bn <- conv2/3x3
I0720 22:37:05.144723 11675 net.cpp:357] conv2/3x3/bn -> conv2/3x3/bn
I0720 22:37:05.144734 11675 net.cpp:97] Setting up conv2/3x3/bn
I0720 22:37:05.144783 11675 net.cpp:104] Top shape: 32 192 56 56 (19267584)
I0720 22:37:05.144804 11675 layer_factory.hpp:78] Creating layer conv2/relu_3x3
I0720 22:37:05.144821 11675 net.cpp:68] Creating Layer conv2/relu_3x3
I0720 22:37:05.144832 11675 net.cpp:395] conv2/relu_3x3 <- conv2/3x3/bn
I0720 22:37:05.144842 11675 net.cpp:346] conv2/relu_3x3 -> conv2/3x3/bn (in-place)
I0720 22:37:05.144853 11675 net.cpp:97] Setting up conv2/relu_3x3
I0720 22:37:05.145040 11675 net.cpp:104] Top shape: 32 192 56 56 (19267584)
I0720 22:37:05.145054 11675 layer_factory.hpp:78] Creating layer pool2/3x3_s2
I0720 22:37:05.145069 11675 net.cpp:68] Creating Layer pool2/3x3_s2
I0720 22:37:05.145087 11675 net.cpp:395] pool2/3x3_s2 <- conv2/3x3/bn
I0720 22:37:05.145105 11675 net.cpp:357] pool2/3x3_s2 -> pool2/3x3_s2
I0720 22:37:05.145119 11675 net.cpp:97] Setting up pool2/3x3_s2
I0720 22:37:05.145186 11675 net.cpp:104] Top shape: 32 192 28 28 (4816896)
I0720 22:37:05.145200 11675 layer_factory.hpp:78] Creating layer pool2/3x3_s2_pool2/3x3_s2_0_split
I0720 22:37:05.145218 11675 net.cpp:68] Creating Layer pool2/3x3_s2_pool2/3x3_s2_0_split
I0720 22:37:05.145231 11675 net.cpp:395] pool2/3x3_s2_pool2/3x3_s2_0_split <- pool2/3x3_s2
I0720 22:37:05.145241 11675 net.cpp:357] pool2/3x3_s2_pool2/3x3_s2_0_split -> pool2/3x3_s2_pool2/3x3_s2_0_split_0
I0720 22:37:05.145253 11675 net.cpp:357] pool2/3x3_s2_pool2/3x3_s2_0_split -> pool2/3x3_s2_pool2/3x3_s2_0_split_1
I0720 22:37:05.145274 11675 net.cpp:357] pool2/3x3_s2_pool2/3x3_s2_0_split -> pool2/3x3_s2_pool2/3x3_s2_0_split_2
I0720 22:37:05.145292 11675 net.cpp:357] pool2/3x3_s2_pool2/3x3_s2_0_split -> pool2/3x3_s2_pool2/3x3_s2_0_split_3
I0720 22:37:05.145304 11675 net.cpp:97] Setting up pool2/3x3_s2_pool2/3x3_s2_0_split
I0720 22:37:05.145314 11675 net.cpp:104] Top shape: 32 192 28 28 (4816896)
I0720 22:37:05.145326 11675 net.cpp:104] Top shape: 32 192 28 28 (4816896)
I0720 22:37:05.145341 11675 net.cpp:104] Top shape: 32 192 28 28 (4816896)
I0720 22:37:05.145351 11675 net.cpp:104] Top shape: 32 192 28 28 (4816896)
I0720 22:37:05.145359 11675 layer_factory.hpp:78] Creating layer inception_3a/1x1
I0720 22:37:05.145370 11675 net.cpp:68] Creating Layer inception_3a/1x1
I0720 22:37:05.145385 11675 net.cpp:395] inception_3a/1x1 <- pool2/3x3_s2_pool2/3x3_s2_0_split_0
I0720 22:37:05.145406 11675 net.cpp:357] inception_3a/1x1 -> inception_3a/1x1
I0720 22:37:05.145422 11675 net.cpp:97] Setting up inception_3a/1x1
I0720 22:37:05.145791 11675 net.cpp:104] Top shape: 32 64 28 28 (1605632)
I0720 22:37:05.145808 11675 layer_factory.hpp:78] Creating layer inception_3a/1x1/bn
I0720 22:37:05.145820 11675 net.cpp:68] Creating Layer inception_3a/1x1/bn
I0720 22:37:05.145828 11675 net.cpp:395] inception_3a/1x1/bn <- inception_3a/1x1
I0720 22:37:05.145839 11675 net.cpp:357] inception_3a/1x1/bn -> inception_3a/1x1/bn
I0720 22:37:05.145850 11675 net.cpp:97] Setting up inception_3a/1x1/bn
I0720 22:37:05.145865 11675 net.cpp:104] Top shape: 32 64 28 28 (1605632)
I0720 22:37:05.145885 11675 layer_factory.hpp:78] Creating layer inception_3a/relu_1x1
I0720 22:37:05.145903 11675 net.cpp:68] Creating Layer inception_3a/relu_1x1
I0720 22:37:05.145915 11675 net.cpp:395] inception_3a/relu_1x1 <- inception_3a/1x1/bn
I0720 22:37:05.145926 11675 net.cpp:346] inception_3a/relu_1x1 -> inception_3a/1x1/bn (in-place)
I0720 22:37:05.145944 11675 net.cpp:97] Setting up inception_3a/relu_1x1
I0720 22:37:05.146023 11675 net.cpp:104] Top shape: 32 64 28 28 (1605632)
I0720 22:37:05.146036 11675 layer_factory.hpp:78] Creating layer inception_3a/3x3_reduce
I0720 22:37:05.146047 11675 net.cpp:68] Creating Layer inception_3a/3x3_reduce
I0720 22:37:05.146061 11675 net.cpp:395] inception_3a/3x3_reduce <- pool2/3x3_s2_pool2/3x3_s2_0_split_1
I0720 22:37:05.146078 11675 net.cpp:357] inception_3a/3x3_reduce -> inception_3a/3x3_reduce
I0720 22:37:05.146091 11675 net.cpp:97] Setting up inception_3a/3x3_reduce
I0720 22:37:05.146461 11675 net.cpp:104] Top shape: 32 64 28 28 (1605632)
I0720 22:37:05.146479 11675 layer_factory.hpp:78] Creating layer inception_3a/3x3_reduce/bn
I0720 22:37:05.146502 11675 net.cpp:68] Creating Layer inception_3a/3x3_reduce/bn
I0720 22:37:05.146510 11675 net.cpp:395] inception_3a/3x3_reduce/bn <- inception_3a/3x3_reduce
I0720 22:37:05.146522 11675 net.cpp:357] inception_3a/3x3_reduce/bn -> inception_3a/3x3_reduce/bn
I0720 22:37:05.146533 11675 net.cpp:97] Setting up inception_3a/3x3_reduce/bn
I0720 22:37:05.146556 11675 net.cpp:104] Top shape: 32 64 28 28 (1605632)
I0720 22:37:05.146575 11675 layer_factory.hpp:78] Creating layer inception_3a/relu_3x3_reduce
I0720 22:37:05.146586 11675 net.cpp:68] Creating Layer inception_3a/relu_3x3_reduce
I0720 22:37:05.146600 11675 net.cpp:395] inception_3a/relu_3x3_reduce <- inception_3a/3x3_reduce/bn
I0720 22:37:05.146616 11675 net.cpp:346] inception_3a/relu_3x3_reduce -> inception_3a/3x3_reduce/bn (in-place)
I0720 22:37:05.146628 11675 net.cpp:97] Setting up inception_3a/relu_3x3_reduce
I0720 22:37:05.146703 11675 net.cpp:104] Top shape: 32 64 28 28 (1605632)
I0720 22:37:05.146715 11675 layer_factory.hpp:78] Creating layer inception_3a/3x3
I0720 22:37:05.146728 11675 net.cpp:68] Creating Layer inception_3a/3x3
I0720 22:37:05.146742 11675 net.cpp:395] inception_3a/3x3 <- inception_3a/3x3_reduce/bn
I0720 22:37:05.146759 11675 net.cpp:357] inception_3a/3x3 -> inception_3a/3x3
I0720 22:37:05.146770 11675 net.cpp:97] Setting up inception_3a/3x3
I0720 22:37:05.147253 11675 net.cpp:104] Top shape: 32 64 28 28 (1605632)
I0720 22:37:05.147270 11675 layer_factory.hpp:78] Creating layer inception_3a/3x3/bn
I0720 22:37:05.147281 11675 net.cpp:68] Creating Layer inception_3a/3x3/bn
I0720 22:37:05.147289 11675 net.cpp:395] inception_3a/3x3/bn <- inception_3a/3x3
I0720 22:37:05.147300 11675 net.cpp:357] inception_3a/3x3/bn -> inception_3a/3x3/bn
I0720 22:37:05.147311 11675 net.cpp:97] Setting up inception_3a/3x3/bn
I0720 22:37:05.147325 11675 net.cpp:104] Top shape: 32 64 28 28 (1605632)
I0720 22:37:05.147348 11675 layer_factory.hpp:78] Creating layer inception_3a/relu_3x3
I0720 22:37:05.147367 11675 net.cpp:68] Creating Layer inception_3a/relu_3x3
I0720 22:37:05.147377 11675 net.cpp:395] inception_3a/relu_3x3 <- inception_3a/3x3/bn
I0720 22:37:05.147389 11675 net.cpp:346] inception_3a/relu_3x3 -> inception_3a/3x3/bn (in-place)
I0720 22:37:05.147408 11675 net.cpp:97] Setting up inception_3a/relu_3x3
I0720 22:37:05.147590 11675 net.cpp:104] Top shape: 32 64 28 28 (1605632)
I0720 22:37:05.147609 11675 layer_factory.hpp:78] Creating layer inception_3a/double3x3_reduce
I0720 22:37:05.147621 11675 net.cpp:68] Creating Layer inception_3a/double3x3_reduce
I0720 22:37:05.147630 11675 net.cpp:395] inception_3a/double3x3_reduce <- pool2/3x3_s2_pool2/3x3_s2_0_split_2
I0720 22:37:05.147640 11675 net.cpp:357] inception_3a/double3x3_reduce -> inception_3a/double3x3_reduce
I0720 22:37:05.147651 11675 net.cpp:97] Setting up inception_3a/double3x3_reduce
I0720 22:37:05.148003 11675 net.cpp:104] Top shape: 32 64 28 28 (1605632)
I0720 22:37:05.148021 11675 layer_factory.hpp:78] Creating layer inception_3a/double3x3_reduce/bn
I0720 22:37:05.148032 11675 net.cpp:68] Creating Layer inception_3a/double3x3_reduce/bn
I0720 22:37:05.148041 11675 net.cpp:395] inception_3a/double3x3_reduce/bn <- inception_3a/double3x3_reduce
I0720 22:37:05.148051 11675 net.cpp:357] inception_3a/double3x3_reduce/bn -> inception_3a/double3x3_reduce/bn
I0720 22:37:05.148062 11675 net.cpp:97] Setting up inception_3a/double3x3_reduce/bn
I0720 22:37:05.148077 11675 net.cpp:104] Top shape: 32 64 28 28 (1605632)
I0720 22:37:05.148097 11675 layer_factory.hpp:78] Creating layer inception_3a/relu_double3x3_reduce
I0720 22:37:05.148114 11675 net.cpp:68] Creating Layer inception_3a/relu_double3x3_reduce
I0720 22:37:05.148125 11675 net.cpp:395] inception_3a/relu_double3x3_reduce <- inception_3a/double3x3_reduce/bn
I0720 22:37:05.148134 11675 net.cpp:346] inception_3a/relu_double3x3_reduce -> inception_3a/double3x3_reduce/bn (in-place)
I0720 22:37:05.148149 11675 net.cpp:97] Setting up inception_3a/relu_double3x3_reduce
I0720 22:37:05.148213 11675 net.cpp:104] Top shape: 32 64 28 28 (1605632)
I0720 22:37:05.148243 11675 layer_factory.hpp:78] Creating layer inception_3a/double3x3a
I0720 22:37:05.148255 11675 net.cpp:68] Creating Layer inception_3a/double3x3a
I0720 22:37:05.148264 11675 net.cpp:395] inception_3a/double3x3a <- inception_3a/double3x3_reduce/bn
I0720 22:37:05.148274 11675 net.cpp:357] inception_3a/double3x3a -> inception_3a/double3x3a
I0720 22:37:05.148289 11675 net.cpp:97] Setting up inception_3a/double3x3a
I0720 22:37:05.148869 11675 net.cpp:104] Top shape: 32 96 28 28 (2408448)
I0720 22:37:05.148885 11675 layer_factory.hpp:78] Creating layer inception_3a/double3x3a/bn
I0720 22:37:05.148896 11675 net.cpp:68] Creating Layer inception_3a/double3x3a/bn
I0720 22:37:05.148905 11675 net.cpp:395] inception_3a/double3x3a/bn <- inception_3a/double3x3a
I0720 22:37:05.148916 11675 net.cpp:357] inception_3a/double3x3a/bn -> inception_3a/double3x3a/bn
I0720 22:37:05.148926 11675 net.cpp:97] Setting up inception_3a/double3x3a/bn
I0720 22:37:05.148941 11675 net.cpp:104] Top shape: 32 96 28 28 (2408448)
I0720 22:37:05.148959 11675 layer_factory.hpp:78] Creating layer inception_3a/relu_double3x3a
I0720 22:37:05.148977 11675 net.cpp:68] Creating Layer inception_3a/relu_double3x3a
I0720 22:37:05.148988 11675 net.cpp:395] inception_3a/relu_double3x3a <- inception_3a/double3x3a/bn
I0720 22:37:05.148998 11675 net.cpp:346] inception_3a/relu_double3x3a -> inception_3a/double3x3a/bn (in-place)
I0720 22:37:05.149013 11675 net.cpp:97] Setting up inception_3a/relu_double3x3a
I0720 22:37:05.149077 11675 net.cpp:104] Top shape: 32 96 28 28 (2408448)
I0720 22:37:05.149093 11675 layer_factory.hpp:78] Creating layer inception_3a/double3x3b
I0720 22:37:05.149106 11675 net.cpp:68] Creating Layer inception_3a/double3x3b
I0720 22:37:05.149113 11675 net.cpp:395] inception_3a/double3x3b <- inception_3a/double3x3a/bn
I0720 22:37:05.149123 11675 net.cpp:357] inception_3a/double3x3b -> inception_3a/double3x3b
I0720 22:37:05.149135 11675 net.cpp:97] Setting up inception_3a/double3x3b
I0720 22:37:05.149883 11675 net.cpp:104] Top shape: 32 96 28 28 (2408448)
I0720 22:37:05.149901 11675 layer_factory.hpp:78] Creating layer inception_3a/double3x3b/bn
I0720 22:37:05.149912 11675 net.cpp:68] Creating Layer inception_3a/double3x3b/bn
I0720 22:37:05.149921 11675 net.cpp:395] inception_3a/double3x3b/bn <- inception_3a/double3x3b
I0720 22:37:05.149931 11675 net.cpp:357] inception_3a/double3x3b/bn -> inception_3a/double3x3b/bn
I0720 22:37:05.149942 11675 net.cpp:97] Setting up inception_3a/double3x3b/bn
I0720 22:37:05.149956 11675 net.cpp:104] Top shape: 32 96 28 28 (2408448)
I0720 22:37:05.149976 11675 layer_factory.hpp:78] Creating layer inception_3a/relu_double3x3b
I0720 22:37:05.149993 11675 net.cpp:68] Creating Layer inception_3a/relu_double3x3b
I0720 22:37:05.150004 11675 net.cpp:395] inception_3a/relu_double3x3b <- inception_3a/double3x3b/bn
I0720 22:37:05.150014 11675 net.cpp:346] inception_3a/relu_double3x3b -> inception_3a/double3x3b/bn (in-place)
I0720 22:37:05.150029 11675 net.cpp:97] Setting up inception_3a/relu_double3x3b
I0720 22:37:05.150096 11675 net.cpp:104] Top shape: 32 96 28 28 (2408448)
I0720 22:37:05.150112 11675 layer_factory.hpp:78] Creating layer inception_3a/pool
I0720 22:37:05.150121 11675 layer_factory.cpp:51] CUDNN does not support padding or multiple tops. Using Caffe's own pooling layer.
I0720 22:37:05.150133 11675 net.cpp:68] Creating Layer inception_3a/pool
I0720 22:37:05.150141 11675 net.cpp:395] inception_3a/pool <- pool2/3x3_s2_pool2/3x3_s2_0_split_3
I0720 22:37:05.150156 11675 net.cpp:357] inception_3a/pool -> inception_3a/pool
I0720 22:37:05.150176 11675 net.cpp:97] Setting up inception_3a/pool
I0720 22:37:05.150185 11675 net.cpp:104] Top shape: 32 192 28 28 (4816896)
I0720 22:37:05.150194 11675 layer_factory.hpp:78] Creating layer inception_3a/pool_proj
I0720 22:37:05.150208 11675 net.cpp:68] Creating Layer inception_3a/pool_proj
I0720 22:37:05.150224 11675 net.cpp:395] inception_3a/pool_proj <- inception_3a/pool
I0720 22:37:05.150244 11675 net.cpp:357] inception_3a/pool_proj -> inception_3a/pool_proj
I0720 22:37:05.150267 11675 net.cpp:97] Setting up inception_3a/pool_proj
I0720 22:37:05.150594 11675 net.cpp:104] Top shape: 32 32 28 28 (802816)
I0720 22:37:05.150612 11675 layer_factory.hpp:78] Creating layer inception_3a/pool_proj/bn
I0720 22:37:05.150624 11675 net.cpp:68] Creating Layer inception_3a/pool_proj/bn
I0720 22:37:05.150632 11675 net.cpp:395] inception_3a/pool_proj/bn <- inception_3a/pool_proj
I0720 22:37:05.150642 11675 net.cpp:357] inception_3a/pool_proj/bn -> inception_3a/pool_proj/bn
I0720 22:37:05.150653 11675 net.cpp:97] Setting up inception_3a/pool_proj/bn
I0720 22:37:05.150668 11675 net.cpp:104] Top shape: 32 32 28 28 (802816)
I0720 22:37:05.150687 11675 layer_factory.hpp:78] Creating layer inception_3a/relu_pool_proj
I0720 22:37:05.150704 11675 net.cpp:68] Creating Layer inception_3a/relu_pool_proj
I0720 22:37:05.150715 11675 net.cpp:395] inception_3a/relu_pool_proj <- inception_3a/pool_proj/bn
I0720 22:37:05.150724 11675 net.cpp:346] inception_3a/relu_pool_proj -> inception_3a/pool_proj/bn (in-place)
I0720 22:37:05.150739 11675 net.cpp:97] Setting up inception_3a/relu_pool_proj
I0720 22:37:05.150943 11675 net.cpp:104] Top shape: 32 32 28 28 (802816)
I0720 22:37:05.150960 11675 layer_factory.hpp:78] Creating layer inception_3a/output
I0720 22:37:05.150975 11675 net.cpp:68] Creating Layer inception_3a/output
I0720 22:37:05.150985 11675 net.cpp:395] inception_3a/output <- inception_3a/1x1/bn
I0720 22:37:05.150993 11675 net.cpp:395] inception_3a/output <- inception_3a/3x3/bn
I0720 22:37:05.151002 11675 net.cpp:395] inception_3a/output <- inception_3a/double3x3b/bn
I0720 22:37:05.151011 11675 net.cpp:395] inception_3a/output <- inception_3a/pool_proj/bn
I0720 22:37:05.151026 11675 net.cpp:357] inception_3a/output -> inception_3a/output
I0720 22:37:05.151057 11675 net.cpp:97] Setting up inception_3a/output
I0720 22:37:05.151070 11675 net.cpp:104] Top shape: 32 256 28 28 (6422528)
I0720 22:37:05.151078 11675 layer_factory.hpp:78] Creating layer inception_3a/output_inception_3a/output_0_split
I0720 22:37:05.151093 11675 net.cpp:68] Creating Layer inception_3a/output_inception_3a/output_0_split
I0720 22:37:05.151108 11675 net.cpp:395] inception_3a/output_inception_3a/output_0_split <- inception_3a/output
I0720 22:37:05.151120 11675 net.cpp:357] inception_3a/output_inception_3a/output_0_split -> inception_3a/output_inception_3a/output_0_split_0
I0720 22:37:05.151132 11675 net.cpp:357] inception_3a/output_inception_3a/output_0_split -> inception_3a/output_inception_3a/output_0_split_1
I0720 22:37:05.151149 11675 net.cpp:357] inception_3a/output_inception_3a/output_0_split -> inception_3a/output_inception_3a/output_0_split_2
I0720 22:37:05.151171 11675 net.cpp:357] inception_3a/output_inception_3a/output_0_split -> inception_3a/output_inception_3a/output_0_split_3
I0720 22:37:05.151188 11675 net.cpp:97] Setting up inception_3a/output_inception_3a/output_0_split
I0720 22:37:05.151198 11675 net.cpp:104] Top shape: 32 256 28 28 (6422528)
I0720 22:37:05.151206 11675 net.cpp:104] Top shape: 32 256 28 28 (6422528)
I0720 22:37:05.151213 11675 net.cpp:104] Top shape: 32 256 28 28 (6422528)
I0720 22:37:05.151221 11675 net.cpp:104] Top shape: 32 256 28 28 (6422528)
I0720 22:37:05.151228 11675 layer_factory.hpp:78] Creating layer inception_3b/1x1
I0720 22:37:05.151242 11675 net.cpp:68] Creating Layer inception_3b/1x1
I0720 22:37:05.151257 11675 net.cpp:395] inception_3b/1x1 <- inception_3a/output_inception_3a/output_0_split_0
I0720 22:37:05.151273 11675 net.cpp:357] inception_3b/1x1 -> inception_3b/1x1
I0720 22:37:05.151284 11675 net.cpp:97] Setting up inception_3b/1x1
I0720 22:37:05.151707 11675 net.cpp:104] Top shape: 32 64 28 28 (1605632)
I0720 22:37:05.151726 11675 layer_factory.hpp:78] Creating layer inception_3b/1x1/bn
I0720 22:37:05.151737 11675 net.cpp:68] Creating Layer inception_3b/1x1/bn
I0720 22:37:05.151746 11675 net.cpp:395] inception_3b/1x1/bn <- inception_3b/1x1
I0720 22:37:05.151757 11675 net.cpp:357] inception_3b/1x1/bn -> inception_3b/1x1/bn
I0720 22:37:05.151767 11675 net.cpp:97] Setting up inception_3b/1x1/bn
I0720 22:37:05.151803 11675 net.cpp:104] Top shape: 32 64 28 28 (1605632)
I0720 22:37:05.151823 11675 layer_factory.hpp:78] Creating layer inception_3b/relu_1x1
I0720 22:37:05.151835 11675 net.cpp:68] Creating Layer inception_3b/relu_1x1
I0720 22:37:05.151851 11675 net.cpp:395] inception_3b/relu_1x1 <- inception_3b/1x1/bn
I0720 22:37:05.151865 11675 net.cpp:346] inception_3b/relu_1x1 -> inception_3b/1x1/bn (in-place)
I0720 22:37:05.151877 11675 net.cpp:97] Setting up inception_3b/relu_1x1
I0720 22:37:05.151964 11675 net.cpp:104] Top shape: 32 64 28 28 (1605632)
I0720 22:37:05.151984 11675 layer_factory.hpp:78] Creating layer inception_3b/3x3_reduce
I0720 22:37:05.151998 11675 net.cpp:68] Creating Layer inception_3b/3x3_reduce
I0720 22:37:05.152006 11675 net.cpp:395] inception_3b/3x3_reduce <- inception_3a/output_inception_3a/output_0_split_1
I0720 22:37:05.152022 11675 net.cpp:357] inception_3b/3x3_reduce -> inception_3b/3x3_reduce
I0720 22:37:05.152043 11675 net.cpp:97] Setting up inception_3b/3x3_reduce
I0720 22:37:05.152463 11675 net.cpp:104] Top shape: 32 64 28 28 (1605632)
I0720 22:37:05.152482 11675 layer_factory.hpp:78] Creating layer inception_3b/3x3_reduce/bn
I0720 22:37:05.152494 11675 net.cpp:68] Creating Layer inception_3b/3x3_reduce/bn
I0720 22:37:05.152503 11675 net.cpp:395] inception_3b/3x3_reduce/bn <- inception_3b/3x3_reduce
I0720 22:37:05.152513 11675 net.cpp:357] inception_3b/3x3_reduce/bn -> inception_3b/3x3_reduce/bn
I0720 22:37:05.152524 11675 net.cpp:97] Setting up inception_3b/3x3_reduce/bn
I0720 22:37:05.152546 11675 net.cpp:104] Top shape: 32 64 28 28 (1605632)
I0720 22:37:05.152578 11675 layer_factory.hpp:78] Creating layer inception_3b/relu_3x3_reduce
I0720 22:37:05.152590 11675 net.cpp:68] Creating Layer inception_3b/relu_3x3_reduce
I0720 22:37:05.152598 11675 net.cpp:395] inception_3b/relu_3x3_reduce <- inception_3b/3x3_reduce/bn
I0720 22:37:05.152616 11675 net.cpp:346] inception_3b/relu_3x3_reduce -> inception_3b/3x3_reduce/bn (in-place)
I0720 22:37:05.152633 11675 net.cpp:97] Setting up inception_3b/relu_3x3_reduce
I0720 22:37:05.152709 11675 net.cpp:104] Top shape: 32 64 28 28 (1605632)
I0720 22:37:05.152722 11675 layer_factory.hpp:78] Creating layer inception_3b/3x3
I0720 22:37:05.152739 11675 net.cpp:68] Creating Layer inception_3b/3x3
I0720 22:37:05.152755 11675 net.cpp:395] inception_3b/3x3 <- inception_3b/3x3_reduce/bn
I0720 22:37:05.152767 11675 net.cpp:357] inception_3b/3x3 -> inception_3b/3x3
I0720 22:37:05.152778 11675 net.cpp:97] Setting up inception_3b/3x3
I0720 22:37:05.153440 11675 net.cpp:104] Top shape: 32 96 28 28 (2408448)
I0720 22:37:05.153458 11675 layer_factory.hpp:78] Creating layer inception_3b/3x3/bn
I0720 22:37:05.153471 11675 net.cpp:68] Creating Layer inception_3b/3x3/bn
I0720 22:37:05.153481 11675 net.cpp:395] inception_3b/3x3/bn <- inception_3b/3x3
I0720 22:37:05.153491 11675 net.cpp:357] inception_3b/3x3/bn -> inception_3b/3x3/bn
I0720 22:37:05.153501 11675 net.cpp:97] Setting up inception_3b/3x3/bn
I0720 22:37:05.153520 11675 net.cpp:104] Top shape: 32 96 28 28 (2408448)
I0720 22:37:05.153543 11675 layer_factory.hpp:78] Creating layer inception_3b/relu_3x3
I0720 22:37:05.153558 11675 net.cpp:68] Creating Layer inception_3b/relu_3x3
I0720 22:37:05.153568 11675 net.cpp:395] inception_3b/relu_3x3 <- inception_3b/3x3/bn
I0720 22:37:05.153581 11675 net.cpp:346] inception_3b/relu_3x3 -> inception_3b/3x3/bn (in-place)
I0720 22:37:05.153599 11675 net.cpp:97] Setting up inception_3b/relu_3x3
I0720 22:37:05.153795 11675 net.cpp:104] Top shape: 32 96 28 28 (2408448)
I0720 22:37:05.153810 11675 layer_factory.hpp:78] Creating layer inception_3b/double3x3_reduce
I0720 22:37:05.153823 11675 net.cpp:68] Creating Layer inception_3b/double3x3_reduce
I0720 22:37:05.153831 11675 net.cpp:395] inception_3b/double3x3_reduce <- inception_3a/output_inception_3a/output_0_split_2
I0720 22:37:05.153842 11675 net.cpp:357] inception_3b/double3x3_reduce -> inception_3b/double3x3_reduce
I0720 22:37:05.153853 11675 net.cpp:97] Setting up inception_3b/double3x3_reduce
I0720 22:37:05.154264 11675 net.cpp:104] Top shape: 32 64 28 28 (1605632)
I0720 22:37:05.154283 11675 layer_factory.hpp:78] Creating layer inception_3b/double3x3_reduce/bn
I0720 22:37:05.154297 11675 net.cpp:68] Creating Layer inception_3b/double3x3_reduce/bn
I0720 22:37:05.154306 11675 net.cpp:395] inception_3b/double3x3_reduce/bn <- inception_3b/double3x3_reduce
I0720 22:37:05.154316 11675 net.cpp:357] inception_3b/double3x3_reduce/bn -> inception_3b/double3x3_reduce/bn
I0720 22:37:05.154328 11675 net.cpp:97] Setting up inception_3b/double3x3_reduce/bn
I0720 22:37:05.154350 11675 net.cpp:104] Top shape: 32 64 28 28 (1605632)
I0720 22:37:05.154369 11675 layer_factory.hpp:78] Creating layer inception_3b/relu_double3x3_reduce
I0720 22:37:05.154383 11675 net.cpp:68] Creating Layer inception_3b/relu_double3x3_reduce
I0720 22:37:05.154394 11675 net.cpp:395] inception_3b/relu_double3x3_reduce <- inception_3b/double3x3_reduce/bn
I0720 22:37:05.154407 11675 net.cpp:346] inception_3b/relu_double3x3_reduce -> inception_3b/double3x3_reduce/bn (in-place)
I0720 22:37:05.154425 11675 net.cpp:97] Setting up inception_3b/relu_double3x3_reduce
I0720 22:37:05.154503 11675 net.cpp:104] Top shape: 32 64 28 28 (1605632)
I0720 22:37:05.154516 11675 layer_factory.hpp:78] Creating layer inception_3b/double3x3a
I0720 22:37:05.154528 11675 net.cpp:68] Creating Layer inception_3b/double3x3a
I0720 22:37:05.154536 11675 net.cpp:395] inception_3b/double3x3a <- inception_3b/double3x3_reduce/bn
I0720 22:37:05.154551 11675 net.cpp:357] inception_3b/double3x3a -> inception_3b/double3x3a
I0720 22:37:05.154569 11675 net.cpp:97] Setting up inception_3b/double3x3a
I0720 22:37:05.155239 11675 net.cpp:104] Top shape: 32 96 28 28 (2408448)
I0720 22:37:05.155256 11675 layer_factory.hpp:78] Creating layer inception_3b/double3x3a/bn
I0720 22:37:05.155269 11675 net.cpp:68] Creating Layer inception_3b/double3x3a/bn
I0720 22:37:05.155279 11675 net.cpp:395] inception_3b/double3x3a/bn <- inception_3b/double3x3a
I0720 22:37:05.155289 11675 net.cpp:357] inception_3b/double3x3a/bn -> inception_3b/double3x3a/bn
I0720 22:37:05.155300 11675 net.cpp:97] Setting up inception_3b/double3x3a/bn
I0720 22:37:05.155323 11675 net.cpp:104] Top shape: 32 96 28 28 (2408448)
I0720 22:37:05.155344 11675 layer_factory.hpp:78] Creating layer inception_3b/relu_double3x3a
I0720 22:37:05.155359 11675 net.cpp:68] Creating Layer inception_3b/relu_double3x3a
I0720 22:37:05.155367 11675 net.cpp:395] inception_3b/relu_double3x3a <- inception_3b/double3x3a/bn
I0720 22:37:05.155382 11675 net.cpp:346] inception_3b/relu_double3x3a -> inception_3b/double3x3a/bn (in-place)
I0720 22:37:05.155401 11675 net.cpp:97] Setting up inception_3b/relu_double3x3a
I0720 22:37:05.155478 11675 net.cpp:104] Top shape: 32 96 28 28 (2408448)
I0720 22:37:05.155490 11675 layer_factory.hpp:78] Creating layer inception_3b/double3x3b
I0720 22:37:05.155500 11675 net.cpp:68] Creating Layer inception_3b/double3x3b
I0720 22:37:05.155515 11675 net.cpp:395] inception_3b/double3x3b <- inception_3b/double3x3a/bn
I0720 22:37:05.155534 11675 net.cpp:357] inception_3b/double3x3b -> inception_3b/double3x3b
I0720 22:37:05.155547 11675 net.cpp:97] Setting up inception_3b/double3x3b
I0720 22:37:05.156381 11675 net.cpp:104] Top shape: 32 96 28 28 (2408448)
I0720 22:37:05.156399 11675 layer_factory.hpp:78] Creating layer inception_3b/double3x3b/bn
I0720 22:37:05.156412 11675 net.cpp:68] Creating Layer inception_3b/double3x3b/bn
I0720 22:37:05.156421 11675 net.cpp:395] inception_3b/double3x3b/bn <- inception_3b/double3x3b
I0720 22:37:05.156431 11675 net.cpp:357] inception_3b/double3x3b/bn -> inception_3b/double3x3b/bn
I0720 22:37:05.156442 11675 net.cpp:97] Setting up inception_3b/double3x3b/bn
I0720 22:37:05.156463 11675 net.cpp:104] Top shape: 32 96 28 28 (2408448)
I0720 22:37:05.156483 11675 layer_factory.hpp:78] Creating layer inception_3b/relu_double3x3b
I0720 22:37:05.156500 11675 net.cpp:68] Creating Layer inception_3b/relu_double3x3b
I0720 22:37:05.156509 11675 net.cpp:395] inception_3b/relu_double3x3b <- inception_3b/double3x3b/bn
I0720 22:37:05.156540 11675 net.cpp:346] inception_3b/relu_double3x3b -> inception_3b/double3x3b/bn (in-place)
I0720 22:37:05.156555 11675 net.cpp:97] Setting up inception_3b/relu_double3x3b
I0720 22:37:05.156626 11675 net.cpp:104] Top shape: 32 96 28 28 (2408448)
I0720 22:37:05.156653 11675 layer_factory.hpp:78] Creating layer inception_3b/pool
I0720 22:37:05.156669 11675 layer_factory.cpp:51] CUDNN does not support padding or multiple tops. Using Caffe's own pooling layer.
I0720 22:37:05.156682 11675 net.cpp:68] Creating Layer inception_3b/pool
I0720 22:37:05.156692 11675 net.cpp:395] inception_3b/pool <- inception_3a/output_inception_3a/output_0_split_3
I0720 22:37:05.156705 11675 net.cpp:357] inception_3b/pool -> inception_3b/pool
I0720 22:37:05.156726 11675 net.cpp:97] Setting up inception_3b/pool
I0720 22:37:05.156744 11675 net.cpp:104] Top shape: 32 256 28 28 (6422528)
I0720 22:37:05.156755 11675 layer_factory.hpp:78] Creating layer inception_3b/pool_proj
I0720 22:37:05.156765 11675 net.cpp:68] Creating Layer inception_3b/pool_proj
I0720 22:37:05.156774 11675 net.cpp:395] inception_3b/pool_proj <- inception_3b/pool
I0720 22:37:05.156787 11675 net.cpp:357] inception_3b/pool_proj -> inception_3b/pool_proj
I0720 22:37:05.156806 11675 net.cpp:97] Setting up inception_3b/pool_proj
I0720 22:37:05.157224 11675 net.cpp:104] Top shape: 32 64 28 28 (1605632)
I0720 22:37:05.157243 11675 layer_factory.hpp:78] Creating layer inception_3b/pool_proj/bn
I0720 22:37:05.157254 11675 net.cpp:68] Creating Layer inception_3b/pool_proj/bn
I0720 22:37:05.157264 11675 net.cpp:395] inception_3b/pool_proj/bn <- inception_3b/pool_proj
I0720 22:37:05.157275 11675 net.cpp:357] inception_3b/pool_proj/bn -> inception_3b/pool_proj/bn
I0720 22:37:05.157286 11675 net.cpp:97] Setting up inception_3b/pool_proj/bn
I0720 22:37:05.157306 11675 net.cpp:104] Top shape: 32 64 28 28 (1605632)
I0720 22:37:05.157326 11675 layer_factory.hpp:78] Creating layer inception_3b/relu_pool_proj
I0720 22:37:05.157341 11675 net.cpp:68] Creating Layer inception_3b/relu_pool_proj
I0720 22:37:05.157351 11675 net.cpp:395] inception_3b/relu_pool_proj <- inception_3b/pool_proj/bn
I0720 22:37:05.157361 11675 net.cpp:346] inception_3b/relu_pool_proj -> inception_3b/pool_proj/bn (in-place)
I0720 22:37:05.157379 11675 net.cpp:97] Setting up inception_3b/relu_pool_proj
I0720 22:37:05.157577 11675 net.cpp:104] Top shape: 32 64 28 28 (1605632)
I0720 22:37:05.157594 11675 layer_factory.hpp:78] Creating layer inception_3b/output
I0720 22:37:05.157604 11675 net.cpp:68] Creating Layer inception_3b/output
I0720 22:37:05.157613 11675 net.cpp:395] inception_3b/output <- inception_3b/1x1/bn
I0720 22:37:05.157623 11675 net.cpp:395] inception_3b/output <- inception_3b/3x3/bn
I0720 22:37:05.157631 11675 net.cpp:395] inception_3b/output <- inception_3b/double3x3b/bn
I0720 22:37:05.157639 11675 net.cpp:395] inception_3b/output <- inception_3b/pool_proj/bn
I0720 22:37:05.157650 11675 net.cpp:357] inception_3b/output -> inception_3b/output
I0720 22:37:05.157670 11675 net.cpp:97] Setting up inception_3b/output
I0720 22:37:05.157686 11675 net.cpp:104] Top shape: 32 320 28 28 (8028160)
I0720 22:37:05.157696 11675 layer_factory.hpp:78] Creating layer inception_3b/output_inception_3b/output_0_split
I0720 22:37:05.157706 11675 net.cpp:68] Creating Layer inception_3b/output_inception_3b/output_0_split
I0720 22:37:05.157713 11675 net.cpp:395] inception_3b/output_inception_3b/output_0_split <- inception_3b/output
I0720 22:37:05.157724 11675 net.cpp:357] inception_3b/output_inception_3b/output_0_split -> inception_3b/output_inception_3b/output_0_split_0
I0720 22:37:05.157744 11675 net.cpp:357] inception_3b/output_inception_3b/output_0_split -> inception_3b/output_inception_3b/output_0_split_1
I0720 22:37:05.157758 11675 net.cpp:357] inception_3b/output_inception_3b/output_0_split -> inception_3b/output_inception_3b/output_0_split_2
I0720 22:37:05.157768 11675 net.cpp:97] Setting up inception_3b/output_inception_3b/output_0_split
I0720 22:37:05.157781 11675 net.cpp:104] Top shape: 32 320 28 28 (8028160)
I0720 22:37:05.157814 11675 net.cpp:104] Top shape: 32 320 28 28 (8028160)
I0720 22:37:05.157825 11675 net.cpp:104] Top shape: 32 320 28 28 (8028160)
I0720 22:37:05.157835 11675 layer_factory.hpp:78] Creating layer inception_3c/3x3_reduce
I0720 22:37:05.157845 11675 net.cpp:68] Creating Layer inception_3c/3x3_reduce
I0720 22:37:05.157855 11675 net.cpp:395] inception_3c/3x3_reduce <- inception_3b/output_inception_3b/output_0_split_0
I0720 22:37:05.157872 11675 net.cpp:357] inception_3c/3x3_reduce -> inception_3c/3x3_reduce
I0720 22:37:05.157886 11675 net.cpp:97] Setting up inception_3c/3x3_reduce
I0720 22:37:05.158465 11675 net.cpp:104] Top shape: 32 128 28 28 (3211264)
I0720 22:37:05.158483 11675 layer_factory.hpp:78] Creating layer inception_3c/3x3_reduce/bn
I0720 22:37:05.158496 11675 net.cpp:68] Creating Layer inception_3c/3x3_reduce/bn
I0720 22:37:05.158505 11675 net.cpp:395] inception_3c/3x3_reduce/bn <- inception_3c/3x3_reduce
I0720 22:37:05.158516 11675 net.cpp:357] inception_3c/3x3_reduce/bn -> inception_3c/3x3_reduce/bn
I0720 22:37:05.158527 11675 net.cpp:97] Setting up inception_3c/3x3_reduce/bn
I0720 22:37:05.158547 11675 net.cpp:104] Top shape: 32 128 28 28 (3211264)
I0720 22:37:05.158568 11675 layer_factory.hpp:78] Creating layer inception_3c/relu_3x3_reduce
I0720 22:37:05.158591 11675 net.cpp:68] Creating Layer inception_3c/relu_3x3_reduce
I0720 22:37:05.158603 11675 net.cpp:395] inception_3c/relu_3x3_reduce <- inception_3c/3x3_reduce/bn
I0720 22:37:05.158622 11675 net.cpp:346] inception_3c/relu_3x3_reduce -> inception_3c/3x3_reduce/bn (in-place)
I0720 22:37:05.158635 11675 net.cpp:97] Setting up inception_3c/relu_3x3_reduce
I0720 22:37:05.158720 11675 net.cpp:104] Top shape: 32 128 28 28 (3211264)
I0720 22:37:05.158735 11675 layer_factory.hpp:78] Creating layer inception_3c/3x3
I0720 22:37:05.158756 11675 net.cpp:68] Creating Layer inception_3c/3x3
I0720 22:37:05.158767 11675 net.cpp:395] inception_3c/3x3 <- inception_3c/3x3_reduce/bn
I0720 22:37:05.158777 11675 net.cpp:357] inception_3c/3x3 -> inception_3c/3x3
I0720 22:37:05.158792 11675 net.cpp:97] Setting up inception_3c/3x3
I0720 22:37:05.160290 11675 net.cpp:104] Top shape: 32 160 14 14 (1003520)
I0720 22:37:05.160307 11675 layer_factory.hpp:78] Creating layer inception_3c/3x3/bn
I0720 22:37:05.160318 11675 net.cpp:68] Creating Layer inception_3c/3x3/bn
I0720 22:37:05.160327 11675 net.cpp:395] inception_3c/3x3/bn <- inception_3c/3x3
I0720 22:37:05.160341 11675 net.cpp:357] inception_3c/3x3/bn -> inception_3c/3x3/bn
I0720 22:37:05.160352 11675 net.cpp:97] Setting up inception_3c/3x3/bn
I0720 22:37:05.160372 11675 net.cpp:104] Top shape: 32 160 14 14 (1003520)
I0720 22:37:05.160403 11675 layer_factory.hpp:78] Creating layer inception_3c/relu_3x3
I0720 22:37:05.160415 11675 net.cpp:68] Creating Layer inception_3c/relu_3x3
I0720 22:37:05.160429 11675 net.cpp:395] inception_3c/relu_3x3 <- inception_3c/3x3/bn
I0720 22:37:05.160447 11675 net.cpp:346] inception_3c/relu_3x3 -> inception_3c/3x3/bn (in-place)
I0720 22:37:05.160460 11675 net.cpp:97] Setting up inception_3c/relu_3x3
I0720 22:37:05.160531 11675 net.cpp:104] Top shape: 32 160 14 14 (1003520)
I0720 22:37:05.160544 11675 layer_factory.hpp:78] Creating layer inception_3c/double3x3_reduce
I0720 22:37:05.160564 11675 net.cpp:68] Creating Layer inception_3c/double3x3_reduce
I0720 22:37:05.160578 11675 net.cpp:395] inception_3c/double3x3_reduce <- inception_3b/output_inception_3b/output_0_split_1
I0720 22:37:05.160588 11675 net.cpp:357] inception_3c/double3x3_reduce -> inception_3c/double3x3_reduce
I0720 22:37:05.160601 11675 net.cpp:97] Setting up inception_3c/double3x3_reduce
I0720 22:37:05.161048 11675 net.cpp:104] Top shape: 32 64 28 28 (1605632)
I0720 22:37:05.161067 11675 layer_factory.hpp:78] Creating layer inception_3c/double3x3_reduce/bn
I0720 22:37:05.161079 11675 net.cpp:68] Creating Layer inception_3c/double3x3_reduce/bn
I0720 22:37:05.161088 11675 net.cpp:395] inception_3c/double3x3_reduce/bn <- inception_3c/double3x3_reduce
I0720 22:37:05.161098 11675 net.cpp:357] inception_3c/double3x3_reduce/bn -> inception_3c/double3x3_reduce/bn
I0720 22:37:05.161123 11675 net.cpp:97] Setting up inception_3c/double3x3_reduce/bn
I0720 22:37:05.161150 11675 net.cpp:104] Top shape: 32 64 28 28 (1605632)
I0720 22:37:05.161166 11675 layer_factory.hpp:78] Creating layer inception_3c/relu_double3x3_reduce
I0720 22:37:05.161177 11675 net.cpp:68] Creating Layer inception_3c/relu_double3x3_reduce
I0720 22:37:05.161190 11675 net.cpp:395] inception_3c/relu_double3x3_reduce <- inception_3c/double3x3_reduce/bn
I0720 22:37:05.161207 11675 net.cpp:346] inception_3c/relu_double3x3_reduce -> inception_3c/double3x3_reduce/bn (in-place)
I0720 22:37:05.161219 11675 net.cpp:97] Setting up inception_3c/relu_double3x3_reduce
I0720 22:37:05.161291 11675 net.cpp:104] Top shape: 32 64 28 28 (1605632)
I0720 22:37:05.161305 11675 layer_factory.hpp:78] Creating layer inception_3c/double3x3a
I0720 22:37:05.161319 11675 net.cpp:68] Creating Layer inception_3c/double3x3a
I0720 22:37:05.161334 11675 net.cpp:395] inception_3c/double3x3a <- inception_3c/double3x3_reduce/bn
I0720 22:37:05.161350 11675 net.cpp:357] inception_3c/double3x3a -> inception_3c/double3x3a
I0720 22:37:05.161361 11675 net.cpp:97] Setting up inception_3c/double3x3a
I0720 22:37:05.162016 11675 net.cpp:104] Top shape: 32 96 28 28 (2408448)
I0720 22:37:05.162034 11675 layer_factory.hpp:78] Creating layer inception_3c/double3x3a/bn
I0720 22:37:05.162047 11675 net.cpp:68] Creating Layer inception_3c/double3x3a/bn
I0720 22:37:05.162056 11675 net.cpp:395] inception_3c/double3x3a/bn <- inception_3c/double3x3a
I0720 22:37:05.162068 11675 net.cpp:357] inception_3c/double3x3a/bn -> inception_3c/double3x3a/bn
I0720 22:37:05.162080 11675 net.cpp:97] Setting up inception_3c/double3x3a/bn
I0720 22:37:05.162102 11675 net.cpp:104] Top shape: 32 96 28 28 (2408448)
I0720 22:37:05.162123 11675 layer_factory.hpp:78] Creating layer inception_3c/relu_double3x3a
I0720 22:37:05.162142 11675 net.cpp:68] Creating Layer inception_3c/relu_double3x3a
I0720 22:37:05.162158 11675 net.cpp:395] inception_3c/relu_double3x3a <- inception_3c/double3x3a/bn
I0720 22:37:05.162169 11675 net.cpp:346] inception_3c/relu_double3x3a -> inception_3c/double3x3a/bn (in-place)
I0720 22:37:05.162184 11675 net.cpp:97] Setting up inception_3c/relu_double3x3a
I0720 22:37:05.162391 11675 net.cpp:104] Top shape: 32 96 28 28 (2408448)
I0720 22:37:05.162407 11675 layer_factory.hpp:78] Creating layer inception_3c/double3x3b
I0720 22:37:05.162420 11675 net.cpp:68] Creating Layer inception_3c/double3x3b
I0720 22:37:05.162427 11675 net.cpp:395] inception_3c/double3x3b <- inception_3c/double3x3a/bn
I0720 22:37:05.162437 11675 net.cpp:357] inception_3c/double3x3b -> inception_3c/double3x3b
I0720 22:37:05.162456 11675 net.cpp:97] Setting up inception_3c/double3x3b
I0720 22:37:05.163301 11675 net.cpp:104] Top shape: 32 96 14 14 (602112)
I0720 22:37:05.163319 11675 layer_factory.hpp:78] Creating layer inception_3c/double3x3b/bn
I0720 22:37:05.163332 11675 net.cpp:68] Creating Layer inception_3c/double3x3b/bn
I0720 22:37:05.163341 11675 net.cpp:395] inception_3c/double3x3b/bn <- inception_3c/double3x3b
I0720 22:37:05.163352 11675 net.cpp:357] inception_3c/double3x3b/bn -> inception_3c/double3x3b/bn
I0720 22:37:05.163363 11675 net.cpp:97] Setting up inception_3c/double3x3b/bn
I0720 22:37:05.163401 11675 net.cpp:104] Top shape: 32 96 14 14 (602112)
I0720 22:37:05.163434 11675 layer_factory.hpp:78] Creating layer inception_3c/relu_double3x3b
I0720 22:37:05.163447 11675 net.cpp:68] Creating Layer inception_3c/relu_double3x3b
I0720 22:37:05.163461 11675 net.cpp:395] inception_3c/relu_double3x3b <- inception_3c/double3x3b/bn
I0720 22:37:05.163480 11675 net.cpp:346] inception_3c/relu_double3x3b -> inception_3c/double3x3b/bn (in-place)
I0720 22:37:05.163496 11675 net.cpp:97] Setting up inception_3c/relu_double3x3b
I0720 22:37:05.163578 11675 net.cpp:104] Top shape: 32 96 14 14 (602112)
I0720 22:37:05.163596 11675 layer_factory.hpp:78] Creating layer inception_3c/pool/3x3_s2
I0720 22:37:05.163614 11675 net.cpp:68] Creating Layer inception_3c/pool/3x3_s2
I0720 22:37:05.163642 11675 net.cpp:395] inception_3c/pool/3x3_s2 <- inception_3b/output_inception_3b/output_0_split_2
I0720 22:37:05.163663 11675 net.cpp:357] inception_3c/pool/3x3_s2 -> inception_3c/pool/3x3_s2
I0720 22:37:05.163678 11675 net.cpp:97] Setting up inception_3c/pool/3x3_s2
I0720 22:37:05.163774 11675 net.cpp:104] Top shape: 32 320 14 14 (2007040)
I0720 22:37:05.163792 11675 layer_factory.hpp:78] Creating layer inception_3c/output
I0720 22:37:05.163810 11675 net.cpp:68] Creating Layer inception_3c/output
I0720 22:37:05.163823 11675 net.cpp:395] inception_3c/output <- inception_3c/3x3/bn
I0720 22:37:05.163833 11675 net.cpp:395] inception_3c/output <- inception_3c/double3x3b/bn
I0720 22:37:05.163846 11675 net.cpp:395] inception_3c/output <- inception_3c/pool/3x3_s2
I0720 22:37:05.163864 11675 net.cpp:357] inception_3c/output -> inception_3c/output
I0720 22:37:05.163883 11675 net.cpp:97] Setting up inception_3c/output
I0720 22:37:05.163899 11675 net.cpp:104] Top shape: 32 576 14 14 (3612672)
I0720 22:37:05.163910 11675 layer_factory.hpp:78] Creating layer inception_3c/output_inception_3c/output_0_split
I0720 22:37:05.163920 11675 net.cpp:68] Creating Layer inception_3c/output_inception_3c/output_0_split
I0720 22:37:05.163935 11675 net.cpp:395] inception_3c/output_inception_3c/output_0_split <- inception_3c/output
I0720 22:37:05.163956 11675 net.cpp:357] inception_3c/output_inception_3c/output_0_split -> inception_3c/output_inception_3c/output_0_split_0
I0720 22:37:05.163971 11675 net.cpp:357] inception_3c/output_inception_3c/output_0_split -> inception_3c/output_inception_3c/output_0_split_1
I0720 22:37:05.163985 11675 net.cpp:357] inception_3c/output_inception_3c/output_0_split -> inception_3c/output_inception_3c/output_0_split_2
I0720 22:37:05.164005 11675 net.cpp:357] inception_3c/output_inception_3c/output_0_split -> inception_3c/output_inception_3c/output_0_split_3
I0720 22:37:05.164018 11675 net.cpp:97] Setting up inception_3c/output_inception_3c/output_0_split
I0720 22:37:05.164033 11675 net.cpp:104] Top shape: 32 576 14 14 (3612672)
I0720 22:37:05.164049 11675 net.cpp:104] Top shape: 32 576 14 14 (3612672)
I0720 22:37:05.164064 11675 net.cpp:104] Top shape: 32 576 14 14 (3612672)
I0720 22:37:05.164075 11675 net.cpp:104] Top shape: 32 576 14 14 (3612672)
I0720 22:37:05.164083 11675 layer_factory.hpp:78] Creating layer inception_4a/1x1
I0720 22:37:05.164095 11675 net.cpp:68] Creating Layer inception_4a/1x1
I0720 22:37:05.164106 11675 net.cpp:395] inception_4a/1x1 <- inception_3c/output_inception_3c/output_0_split_0
I0720 22:37:05.164125 11675 net.cpp:357] inception_4a/1x1 -> inception_4a/1x1
I0720 22:37:05.164139 11675 net.cpp:97] Setting up inception_4a/1x1
I0720 22:37:05.165261 11675 net.cpp:104] Top shape: 32 224 14 14 (1404928)
I0720 22:37:05.165279 11675 layer_factory.hpp:78] Creating layer inception_4a/1x1/bn
I0720 22:37:05.165292 11675 net.cpp:68] Creating Layer inception_4a/1x1/bn
I0720 22:37:05.165300 11675 net.cpp:395] inception_4a/1x1/bn <- inception_4a/1x1
I0720 22:37:05.165310 11675 net.cpp:357] inception_4a/1x1/bn -> inception_4a/1x1/bn
I0720 22:37:05.165321 11675 net.cpp:97] Setting up inception_4a/1x1/bn
I0720 22:37:05.165343 11675 net.cpp:104] Top shape: 32 224 14 14 (1404928)
I0720 22:37:05.165364 11675 layer_factory.hpp:78] Creating layer inception_4a/relu_1x1
I0720 22:37:05.165380 11675 net.cpp:68] Creating Layer inception_4a/relu_1x1
I0720 22:37:05.165395 11675 net.cpp:395] inception_4a/relu_1x1 <- inception_4a/1x1/bn
I0720 22:37:05.165408 11675 net.cpp:346] inception_4a/relu_1x1 -> inception_4a/1x1/bn (in-place)
I0720 22:37:05.165421 11675 net.cpp:97] Setting up inception_4a/relu_1x1
I0720 22:37:05.165515 11675 net.cpp:104] Top shape: 32 224 14 14 (1404928)
I0720 22:37:05.165534 11675 layer_factory.hpp:78] Creating layer inception_4a/3x3_reduce
I0720 22:37:05.165552 11675 net.cpp:68] Creating Layer inception_4a/3x3_reduce
I0720 22:37:05.165565 11675 net.cpp:395] inception_4a/3x3_reduce <- inception_3c/output_inception_3c/output_0_split_1
I0720 22:37:05.165580 11675 net.cpp:357] inception_4a/3x3_reduce -> inception_4a/3x3_reduce
I0720 22:37:05.165612 11675 net.cpp:97] Setting up inception_4a/3x3_reduce
I0720 22:37:05.166158 11675 net.cpp:104] Top shape: 32 64 14 14 (401408)
I0720 22:37:05.166177 11675 layer_factory.hpp:78] Creating layer inception_4a/3x3_reduce/bn
I0720 22:37:05.166188 11675 net.cpp:68] Creating Layer inception_4a/3x3_reduce/bn
I0720 22:37:05.166198 11675 net.cpp:395] inception_4a/3x3_reduce/bn <- inception_4a/3x3_reduce
I0720 22:37:05.166209 11675 net.cpp:357] inception_4a/3x3_reduce/bn -> inception_4a/3x3_reduce/bn
I0720 22:37:05.166221 11675 net.cpp:97] Setting up inception_4a/3x3_reduce/bn
I0720 22:37:05.166241 11675 net.cpp:104] Top shape: 32 64 14 14 (401408)
I0720 22:37:05.166261 11675 layer_factory.hpp:78] Creating layer inception_4a/relu_3x3_reduce
I0720 22:37:05.166273 11675 net.cpp:68] Creating Layer inception_4a/relu_3x3_reduce
I0720 22:37:05.166288 11675 net.cpp:395] inception_4a/relu_3x3_reduce <- inception_4a/3x3_reduce/bn
I0720 22:37:05.166303 11675 net.cpp:346] inception_4a/relu_3x3_reduce -> inception_4a/3x3_reduce/bn (in-place)
I0720 22:37:05.166316 11675 net.cpp:97] Setting up inception_4a/relu_3x3_reduce
I0720 22:37:05.166519 11675 net.cpp:104] Top shape: 32 64 14 14 (401408)
I0720 22:37:05.166535 11675 layer_factory.hpp:78] Creating layer inception_4a/3x3
I0720 22:37:05.166545 11675 net.cpp:68] Creating Layer inception_4a/3x3
I0720 22:37:05.166554 11675 net.cpp:395] inception_4a/3x3 <- inception_4a/3x3_reduce/bn
I0720 22:37:05.166566 11675 net.cpp:357] inception_4a/3x3 -> inception_4a/3x3
I0720 22:37:05.166579 11675 net.cpp:97] Setting up inception_4a/3x3
I0720 22:37:05.167219 11675 net.cpp:104] Top shape: 32 96 14 14 (602112)
I0720 22:37:05.167238 11675 layer_factory.hpp:78] Creating layer inception_4a/3x3/bn
I0720 22:37:05.167250 11675 net.cpp:68] Creating Layer inception_4a/3x3/bn
I0720 22:37:05.167259 11675 net.cpp:395] inception_4a/3x3/bn <- inception_4a/3x3
I0720 22:37:05.167271 11675 net.cpp:357] inception_4a/3x3/bn -> inception_4a/3x3/bn
I0720 22:37:05.167282 11675 net.cpp:97] Setting up inception_4a/3x3/bn
I0720 22:37:05.167304 11675 net.cpp:104] Top shape: 32 96 14 14 (602112)
I0720 22:37:05.167322 11675 layer_factory.hpp:78] Creating layer inception_4a/relu_3x3
I0720 22:37:05.167335 11675 net.cpp:68] Creating Layer inception_4a/relu_3x3
I0720 22:37:05.167350 11675 net.cpp:395] inception_4a/relu_3x3 <- inception_4a/3x3/bn
I0720 22:37:05.167364 11675 net.cpp:346] inception_4a/relu_3x3 -> inception_4a/3x3/bn (in-place)
I0720 22:37:05.167377 11675 net.cpp:97] Setting up inception_4a/relu_3x3
I0720 22:37:05.167474 11675 net.cpp:104] Top shape: 32 96 14 14 (602112)
I0720 22:37:05.167493 11675 layer_factory.hpp:78] Creating layer inception_4a/double3x3_reduce
I0720 22:37:05.167511 11675 net.cpp:68] Creating Layer inception_4a/double3x3_reduce
I0720 22:37:05.167522 11675 net.cpp:395] inception_4a/double3x3_reduce <- inception_3c/output_inception_3c/output_0_split_2
I0720 22:37:05.167539 11675 net.cpp:357] inception_4a/double3x3_reduce -> inception_4a/double3x3_reduce
I0720 22:37:05.167560 11675 net.cpp:97] Setting up inception_4a/double3x3_reduce
I0720 22:37:05.168242 11675 net.cpp:104] Top shape: 32 96 14 14 (602112)
I0720 22:37:05.168261 11675 layer_factory.hpp:78] Creating layer inception_4a/double3x3_reduce/bn
I0720 22:37:05.168272 11675 net.cpp:68] Creating Layer inception_4a/double3x3_reduce/bn
I0720 22:37:05.168282 11675 net.cpp:395] inception_4a/double3x3_reduce/bn <- inception_4a/double3x3_reduce
I0720 22:37:05.168292 11675 net.cpp:357] inception_4a/double3x3_reduce/bn -> inception_4a/double3x3_reduce/bn
I0720 22:37:05.168303 11675 net.cpp:97] Setting up inception_4a/double3x3_reduce/bn
I0720 22:37:05.168318 11675 net.cpp:104] Top shape: 32 96 14 14 (602112)
I0720 22:37:05.168352 11675 layer_factory.hpp:78] Creating layer inception_4a/relu_double3x3_reduce
I0720 22:37:05.168367 11675 net.cpp:68] Creating Layer inception_4a/relu_double3x3_reduce
I0720 22:37:05.168386 11675 net.cpp:395] inception_4a/relu_double3x3_reduce <- inception_4a/double3x3_reduce/bn
I0720 22:37:05.168413 11675 net.cpp:346] inception_4a/relu_double3x3_reduce -> inception_4a/double3x3_reduce/bn (in-place)
I0720 22:37:05.168434 11675 net.cpp:97] Setting up inception_4a/relu_double3x3_reduce
I0720 22:37:05.168514 11675 net.cpp:104] Top shape: 32 96 14 14 (602112)
I0720 22:37:05.168532 11675 layer_factory.hpp:78] Creating layer inception_4a/double3x3a
I0720 22:37:05.168551 11675 net.cpp:68] Creating Layer inception_4a/double3x3a
I0720 22:37:05.168562 11675 net.cpp:395] inception_4a/double3x3a <- inception_4a/double3x3_reduce/bn
I0720 22:37:05.168591 11675 net.cpp:357] inception_4a/double3x3a -> inception_4a/double3x3a
I0720 22:37:05.168609 11675 net.cpp:97] Setting up inception_4a/double3x3a
I0720 22:37:05.169622 11675 net.cpp:104] Top shape: 32 128 14 14 (802816)
I0720 22:37:05.169641 11675 layer_factory.hpp:78] Creating layer inception_4a/double3x3a/bn
I0720 22:37:05.169653 11675 net.cpp:68] Creating Layer inception_4a/double3x3a/bn
I0720 22:37:05.169663 11675 net.cpp:395] inception_4a/double3x3a/bn <- inception_4a/double3x3a
I0720 22:37:05.169674 11675 net.cpp:357] inception_4a/double3x3a/bn -> inception_4a/double3x3a/bn
I0720 22:37:05.169687 11675 net.cpp:97] Setting up inception_4a/double3x3a/bn
I0720 22:37:05.169710 11675 net.cpp:104] Top shape: 32 128 14 14 (802816)
I0720 22:37:05.169730 11675 layer_factory.hpp:78] Creating layer inception_4a/relu_double3x3a
I0720 22:37:05.169745 11675 net.cpp:68] Creating Layer inception_4a/relu_double3x3a
I0720 22:37:05.169761 11675 net.cpp:395] inception_4a/relu_double3x3a <- inception_4a/double3x3a/bn
I0720 22:37:05.169775 11675 net.cpp:346] inception_4a/relu_double3x3a -> inception_4a/double3x3a/bn (in-place)
I0720 22:37:05.169788 11675 net.cpp:97] Setting up inception_4a/relu_double3x3a
I0720 22:37:05.169993 11675 net.cpp:104] Top shape: 32 128 14 14 (802816)
I0720 22:37:05.170009 11675 layer_factory.hpp:78] Creating layer inception_4a/double3x3b
I0720 22:37:05.170020 11675 net.cpp:68] Creating Layer inception_4a/double3x3b
I0720 22:37:05.170028 11675 net.cpp:395] inception_4a/double3x3b <- inception_4a/double3x3a/bn
I0720 22:37:05.170040 11675 net.cpp:357] inception_4a/double3x3b -> inception_4a/double3x3b
I0720 22:37:05.170065 11675 net.cpp:97] Setting up inception_4a/double3x3b
I0720 22:37:05.171324 11675 net.cpp:104] Top shape: 32 128 14 14 (802816)
I0720 22:37:05.171342 11675 layer_factory.hpp:78] Creating layer inception_4a/double3x3b/bn
I0720 22:37:05.171355 11675 net.cpp:68] Creating Layer inception_4a/double3x3b/bn
I0720 22:37:05.171365 11675 net.cpp:395] inception_4a/double3x3b/bn <- inception_4a/double3x3b
I0720 22:37:05.171375 11675 net.cpp:357] inception_4a/double3x3b/bn -> inception_4a/double3x3b/bn
I0720 22:37:05.171386 11675 net.cpp:97] Setting up inception_4a/double3x3b/bn
I0720 22:37:05.171407 11675 net.cpp:104] Top shape: 32 128 14 14 (802816)
I0720 22:37:05.171427 11675 layer_factory.hpp:78] Creating layer inception_4a/relu_double3x3b
I0720 22:37:05.171437 11675 net.cpp:68] Creating Layer inception_4a/relu_double3x3b
I0720 22:37:05.171450 11675 net.cpp:395] inception_4a/relu_double3x3b <- inception_4a/double3x3b/bn
I0720 22:37:05.171469 11675 net.cpp:346] inception_4a/relu_double3x3b -> inception_4a/double3x3b/bn (in-place)
I0720 22:37:05.171483 11675 net.cpp:97] Setting up inception_4a/relu_double3x3b
I0720 22:37:05.171564 11675 net.cpp:104] Top shape: 32 128 14 14 (802816)
I0720 22:37:05.171577 11675 layer_factory.hpp:78] Creating layer inception_4a/pool
I0720 22:37:05.171589 11675 layer_factory.cpp:51] CUDNN does not support padding or multiple tops. Using Caffe's own pooling layer.
I0720 22:37:05.171607 11675 net.cpp:68] Creating Layer inception_4a/pool
I0720 22:37:05.171623 11675 net.cpp:395] inception_4a/pool <- inception_3c/output_inception_3c/output_0_split_3
I0720 22:37:05.171646 11675 net.cpp:357] inception_4a/pool -> inception_4a/pool
I0720 22:37:05.171661 11675 net.cpp:97] Setting up inception_4a/pool
I0720 22:37:05.171679 11675 net.cpp:104] Top shape: 32 576 14 14 (3612672)
I0720 22:37:05.171700 11675 layer_factory.hpp:78] Creating layer inception_4a/pool_proj
I0720 22:37:05.171735 11675 net.cpp:68] Creating Layer inception_4a/pool_proj
I0720 22:37:05.171746 11675 net.cpp:395] inception_4a/pool_proj <- inception_4a/pool
I0720 22:37:05.171764 11675 net.cpp:357] inception_4a/pool_proj -> inception_4a/pool_proj
I0720 22:37:05.171785 11675 net.cpp:97] Setting up inception_4a/pool_proj
I0720 22:37:05.172571 11675 net.cpp:104] Top shape: 32 128 14 14 (802816)
I0720 22:37:05.172590 11675 layer_factory.hpp:78] Creating layer inception_4a/pool_proj/bn
I0720 22:37:05.172600 11675 net.cpp:68] Creating Layer inception_4a/pool_proj/bn
I0720 22:37:05.172610 11675 net.cpp:395] inception_4a/pool_proj/bn <- inception_4a/pool_proj
I0720 22:37:05.172621 11675 net.cpp:357] inception_4a/pool_proj/bn -> inception_4a/pool_proj/bn
I0720 22:37:05.172633 11675 net.cpp:97] Setting up inception_4a/pool_proj/bn
I0720 22:37:05.172655 11675 net.cpp:104] Top shape: 32 128 14 14 (802816)
I0720 22:37:05.172688 11675 layer_factory.hpp:78] Creating layer inception_4a/relu_pool_proj
I0720 22:37:05.172705 11675 net.cpp:68] Creating Layer inception_4a/relu_pool_proj
I0720 22:37:05.172719 11675 net.cpp:395] inception_4a/relu_pool_proj <- inception_4a/pool_proj/bn
I0720 22:37:05.172734 11675 net.cpp:346] inception_4a/relu_pool_proj -> inception_4a/pool_proj/bn (in-place)
I0720 22:37:05.172752 11675 net.cpp:97] Setting up inception_4a/relu_pool_proj
I0720 22:37:05.172837 11675 net.cpp:104] Top shape: 32 128 14 14 (802816)
I0720 22:37:05.172854 11675 layer_factory.hpp:78] Creating layer inception_4a/output
I0720 22:37:05.172873 11675 net.cpp:68] Creating Layer inception_4a/output
I0720 22:37:05.172884 11675 net.cpp:395] inception_4a/output <- inception_4a/1x1/bn
I0720 22:37:05.172896 11675 net.cpp:395] inception_4a/output <- inception_4a/3x3/bn
I0720 22:37:05.172914 11675 net.cpp:395] inception_4a/output <- inception_4a/double3x3b/bn
I0720 22:37:05.172930 11675 net.cpp:395] inception_4a/output <- inception_4a/pool_proj/bn
I0720 22:37:05.172948 11675 net.cpp:357] inception_4a/output -> inception_4a/output
I0720 22:37:05.172963 11675 net.cpp:97] Setting up inception_4a/output
I0720 22:37:05.172976 11675 net.cpp:104] Top shape: 32 576 14 14 (3612672)
I0720 22:37:05.172991 11675 layer_factory.hpp:78] Creating layer inception_4a/output_inception_4a/output_0_split
I0720 22:37:05.173010 11675 net.cpp:68] Creating Layer inception_4a/output_inception_4a/output_0_split
I0720 22:37:05.173022 11675 net.cpp:395] inception_4a/output_inception_4a/output_0_split <- inception_4a/output
I0720 22:37:05.173039 11675 net.cpp:357] inception_4a/output_inception_4a/output_0_split -> inception_4a/output_inception_4a/output_0_split_0
I0720 22:37:05.173055 11675 net.cpp:357] inception_4a/output_inception_4a/output_0_split -> inception_4a/output_inception_4a/output_0_split_1
I0720 22:37:05.173071 11675 net.cpp:357] inception_4a/output_inception_4a/output_0_split -> inception_4a/output_inception_4a/output_0_split_2
I0720 22:37:05.173094 11675 net.cpp:357] inception_4a/output_inception_4a/output_0_split -> inception_4a/output_inception_4a/output_0_split_3
I0720 22:37:05.173108 11675 net.cpp:357] inception_4a/output_inception_4a/output_0_split -> inception_4a/output_inception_4a/output_0_split_4
I0720 22:37:05.173120 11675 net.cpp:97] Setting up inception_4a/output_inception_4a/output_0_split
I0720 22:37:05.173130 11675 net.cpp:104] Top shape: 32 576 14 14 (3612672)
I0720 22:37:05.173141 11675 net.cpp:104] Top shape: 32 576 14 14 (3612672)
I0720 22:37:05.173156 11675 net.cpp:104] Top shape: 32 576 14 14 (3612672)
I0720 22:37:05.173166 11675 net.cpp:104] Top shape: 32 576 14 14 (3612672)
I0720 22:37:05.173173 11675 net.cpp:104] Top shape: 32 576 14 14 (3612672)
I0720 22:37:05.173187 11675 layer_factory.hpp:78] Creating layer loss1/ave_pool
I0720 22:37:05.173207 11675 net.cpp:68] Creating Layer loss1/ave_pool
I0720 22:37:05.173223 11675 net.cpp:395] loss1/ave_pool <- inception_4a/output_inception_4a/output_0_split_0
I0720 22:37:05.173234 11675 net.cpp:357] loss1/ave_pool -> loss1/ave_pool
I0720 22:37:05.173245 11675 net.cpp:97] Setting up loss1/ave_pool
I0720 22:37:05.173328 11675 net.cpp:104] Top shape: 32 576 4 4 (294912)
I0720 22:37:05.173348 11675 layer_factory.hpp:78] Creating layer loss1/conv
I0720 22:37:05.173365 11675 net.cpp:68] Creating Layer loss1/conv
I0720 22:37:05.173382 11675 net.cpp:395] loss1/conv <- loss1/ave_pool
I0720 22:37:05.173395 11675 net.cpp:357] loss1/conv -> loss1/conv
I0720 22:37:05.173410 11675 net.cpp:97] Setting up loss1/conv
I0720 22:37:05.174192 11675 net.cpp:104] Top shape: 32 128 4 4 (65536)
I0720 22:37:05.174211 11675 layer_factory.hpp:78] Creating layer loss1/conv/bn
I0720 22:37:05.174223 11675 net.cpp:68] Creating Layer loss1/conv/bn
I0720 22:37:05.174232 11675 net.cpp:395] loss1/conv/bn <- loss1/conv
I0720 22:37:05.174242 11675 net.cpp:357] loss1/conv/bn -> loss1/conv/bn
I0720 22:37:05.174253 11675 net.cpp:97] Setting up loss1/conv/bn
I0720 22:37:05.174273 11675 net.cpp:104] Top shape: 32 128 4 4 (65536)
I0720 22:37:05.174293 11675 layer_factory.hpp:78] Creating layer loss1/relu_conv
I0720 22:37:05.174305 11675 net.cpp:68] Creating Layer loss1/relu_conv
I0720 22:37:05.174320 11675 net.cpp:395] loss1/relu_conv <- loss1/conv/bn
I0720 22:37:05.174335 11675 net.cpp:346] loss1/relu_conv -> loss1/conv/bn (in-place)
I0720 22:37:05.174347 11675 net.cpp:97] Setting up loss1/relu_conv
I0720 22:37:05.174558 11675 net.cpp:104] Top shape: 32 128 4 4 (65536)
I0720 22:37:05.174574 11675 layer_factory.hpp:78] Creating layer loss1/fc
I0720 22:37:05.174587 11675 net.cpp:68] Creating Layer loss1/fc
I0720 22:37:05.174597 11675 net.cpp:395] loss1/fc <- loss1/conv/bn
I0720 22:37:05.174607 11675 net.cpp:357] loss1/fc -> loss1/fc
I0720 22:37:05.174618 11675 net.cpp:97] Setting up loss1/fc
I0720 22:37:05.187805 11675 net.cpp:104] Top shape: 32 1024 1 1 (32768)
I0720 22:37:05.187845 11675 layer_factory.hpp:78] Creating layer loss1/fc/bn
I0720 22:37:05.187862 11675 net.cpp:68] Creating Layer loss1/fc/bn
I0720 22:37:05.187875 11675 net.cpp:395] loss1/fc/bn <- loss1/fc
I0720 22:37:05.187888 11675 net.cpp:357] loss1/fc/bn -> loss1/fc/bn
I0720 22:37:05.187902 11675 net.cpp:97] Setting up loss1/fc/bn
I0720 22:37:05.187918 11675 net.cpp:104] Top shape: 32 1024 1 1 (32768)
I0720 22:37:05.187930 11675 layer_factory.hpp:78] Creating layer loss1/relu_fc
I0720 22:37:05.187947 11675 net.cpp:68] Creating Layer loss1/relu_fc
I0720 22:37:05.187960 11675 net.cpp:395] loss1/relu_fc <- loss1/fc/bn
I0720 22:37:05.187975 11675 net.cpp:346] loss1/relu_fc -> loss1/fc/bn (in-place)
I0720 22:37:05.187991 11675 net.cpp:97] Setting up loss1/relu_fc
I0720 22:37:05.188120 11675 net.cpp:104] Top shape: 32 1024 1 1 (32768)
I0720 22:37:05.188143 11675 layer_factory.hpp:78] Creating layer loss1/classifier
I0720 22:37:05.188159 11675 net.cpp:68] Creating Layer loss1/classifier
I0720 22:37:05.188169 11675 net.cpp:395] loss1/classifier <- loss1/fc/bn
I0720 22:37:05.188179 11675 net.cpp:357] loss1/classifier -> loss1/classifier
I0720 22:37:05.188191 11675 net.cpp:97] Setting up loss1/classifier
I0720 22:37:05.194849 11675 net.cpp:104] Top shape: 32 1000 1 1 (32000)
I0720 22:37:05.194881 11675 layer_factory.hpp:78] Creating layer loss1/loss
I0720 22:37:05.194895 11675 net.cpp:68] Creating Layer loss1/loss
I0720 22:37:05.194905 11675 net.cpp:395] loss1/loss <- loss1/classifier
I0720 22:37:05.194916 11675 net.cpp:395] loss1/loss <- label_data_1_split_0
I0720 22:37:05.194926 11675 net.cpp:357] loss1/loss -> loss1/loss1
I0720 22:37:05.194937 11675 net.cpp:97] Setting up loss1/loss
I0720 22:37:05.194947 11675 layer_factory.hpp:78] Creating layer loss1/loss
I0720 22:37:05.195111 11675 net.cpp:104] Top shape: 1 1 1 1 (1)
I0720 22:37:05.195127 11675 net.cpp:110]     with loss weight 0.3
I0720 22:37:05.195154 11675 layer_factory.hpp:78] Creating layer inception_4b/1x1
I0720 22:37:05.195168 11675 net.cpp:68] Creating Layer inception_4b/1x1
I0720 22:37:05.195178 11675 net.cpp:395] inception_4b/1x1 <- inception_4a/output_inception_4a/output_0_split_1
I0720 22:37:05.195197 11675 net.cpp:357] inception_4b/1x1 -> inception_4b/1x1
I0720 22:37:05.195217 11675 net.cpp:97] Setting up inception_4b/1x1
I0720 22:37:05.196359 11675 net.cpp:104] Top shape: 32 192 14 14 (1204224)
I0720 22:37:05.196377 11675 layer_factory.hpp:78] Creating layer inception_4b/1x1/bn
I0720 22:37:05.196391 11675 net.cpp:68] Creating Layer inception_4b/1x1/bn
I0720 22:37:05.196400 11675 net.cpp:395] inception_4b/1x1/bn <- inception_4b/1x1
I0720 22:37:05.196410 11675 net.cpp:357] inception_4b/1x1/bn -> inception_4b/1x1/bn
I0720 22:37:05.196421 11675 net.cpp:97] Setting up inception_4b/1x1/bn
I0720 22:37:05.196444 11675 net.cpp:104] Top shape: 32 192 14 14 (1204224)
I0720 22:37:05.196463 11675 layer_factory.hpp:78] Creating layer inception_4b/relu_1x1
I0720 22:37:05.196490 11675 net.cpp:68] Creating Layer inception_4b/relu_1x1
I0720 22:37:05.196504 11675 net.cpp:395] inception_4b/relu_1x1 <- inception_4b/1x1/bn
I0720 22:37:05.196516 11675 net.cpp:346] inception_4b/relu_1x1 -> inception_4b/1x1/bn (in-place)
I0720 22:37:05.196535 11675 net.cpp:97] Setting up inception_4b/relu_1x1
I0720 22:37:05.196625 11675 net.cpp:104] Top shape: 32 192 14 14 (1204224)
I0720 22:37:05.196645 11675 layer_factory.hpp:78] Creating layer inception_4b/3x3_reduce
I0720 22:37:05.196660 11675 net.cpp:68] Creating Layer inception_4b/3x3_reduce
I0720 22:37:05.196672 11675 net.cpp:395] inception_4b/3x3_reduce <- inception_4a/output_inception_4a/output_0_split_2
I0720 22:37:05.196691 11675 net.cpp:357] inception_4b/3x3_reduce -> inception_4b/3x3_reduce
I0720 22:37:05.196712 11675 net.cpp:97] Setting up inception_4b/3x3_reduce
I0720 22:37:05.197404 11675 net.cpp:104] Top shape: 32 96 14 14 (602112)
I0720 22:37:05.197422 11675 layer_factory.hpp:78] Creating layer inception_4b/3x3_reduce/bn
I0720 22:37:05.197433 11675 net.cpp:68] Creating Layer inception_4b/3x3_reduce/bn
I0720 22:37:05.197443 11675 net.cpp:395] inception_4b/3x3_reduce/bn <- inception_4b/3x3_reduce
I0720 22:37:05.197454 11675 net.cpp:357] inception_4b/3x3_reduce/bn -> inception_4b/3x3_reduce/bn
I0720 22:37:05.197466 11675 net.cpp:97] Setting up inception_4b/3x3_reduce/bn
I0720 22:37:05.197486 11675 net.cpp:104] Top shape: 32 96 14 14 (602112)
I0720 22:37:05.197507 11675 layer_factory.hpp:78] Creating layer inception_4b/relu_3x3_reduce
I0720 22:37:05.197523 11675 net.cpp:68] Creating Layer inception_4b/relu_3x3_reduce
I0720 22:37:05.197540 11675 net.cpp:395] inception_4b/relu_3x3_reduce <- inception_4b/3x3_reduce/bn
I0720 22:37:05.197556 11675 net.cpp:346] inception_4b/relu_3x3_reduce -> inception_4b/3x3_reduce/bn (in-place)
I0720 22:37:05.197571 11675 net.cpp:97] Setting up inception_4b/relu_3x3_reduce
I0720 22:37:05.197772 11675 net.cpp:104] Top shape: 32 96 14 14 (602112)
I0720 22:37:05.197788 11675 layer_factory.hpp:78] Creating layer inception_4b/3x3
I0720 22:37:05.197800 11675 net.cpp:68] Creating Layer inception_4b/3x3
I0720 22:37:05.197809 11675 net.cpp:395] inception_4b/3x3 <- inception_4b/3x3_reduce/bn
I0720 22:37:05.197819 11675 net.cpp:357] inception_4b/3x3 -> inception_4b/3x3
I0720 22:37:05.197830 11675 net.cpp:97] Setting up inception_4b/3x3
I0720 22:37:05.198870 11675 net.cpp:104] Top shape: 32 128 14 14 (802816)
I0720 22:37:05.198894 11675 layer_factory.hpp:78] Creating layer inception_4b/3x3/bn
I0720 22:37:05.198914 11675 net.cpp:68] Creating Layer inception_4b/3x3/bn
I0720 22:37:05.198925 11675 net.cpp:395] inception_4b/3x3/bn <- inception_4b/3x3
I0720 22:37:05.198936 11675 net.cpp:357] inception_4b/3x3/bn -> inception_4b/3x3/bn
I0720 22:37:05.198952 11675 net.cpp:97] Setting up inception_4b/3x3/bn
I0720 22:37:05.198979 11675 net.cpp:104] Top shape: 32 128 14 14 (802816)
I0720 22:37:05.199000 11675 layer_factory.hpp:78] Creating layer inception_4b/relu_3x3
I0720 22:37:05.199013 11675 net.cpp:68] Creating Layer inception_4b/relu_3x3
I0720 22:37:05.199023 11675 net.cpp:395] inception_4b/relu_3x3 <- inception_4b/3x3/bn
I0720 22:37:05.199040 11675 net.cpp:346] inception_4b/relu_3x3 -> inception_4b/3x3/bn (in-place)
I0720 22:37:05.199059 11675 net.cpp:97] Setting up inception_4b/relu_3x3
I0720 22:37:05.199141 11675 net.cpp:104] Top shape: 32 128 14 14 (802816)
I0720 22:37:05.199159 11675 layer_factory.hpp:78] Creating layer inception_4b/double3x3_reduce
I0720 22:37:05.199189 11675 net.cpp:68] Creating Layer inception_4b/double3x3_reduce
I0720 22:37:05.199208 11675 net.cpp:395] inception_4b/double3x3_reduce <- inception_4a/output_inception_4a/output_0_split_3
I0720 22:37:05.199228 11675 net.cpp:357] inception_4b/double3x3_reduce -> inception_4b/double3x3_reduce
I0720 22:37:05.199242 11675 net.cpp:97] Setting up inception_4b/double3x3_reduce
I0720 22:37:05.199921 11675 net.cpp:104] Top shape: 32 96 14 14 (602112)
I0720 22:37:05.199939 11675 layer_factory.hpp:78] Creating layer inception_4b/double3x3_reduce/bn
I0720 22:37:05.199952 11675 net.cpp:68] Creating Layer inception_4b/double3x3_reduce/bn
I0720 22:37:05.199972 11675 net.cpp:395] inception_4b/double3x3_reduce/bn <- inception_4b/double3x3_reduce
I0720 22:37:05.199986 11675 net.cpp:357] inception_4b/double3x3_reduce/bn -> inception_4b/double3x3_reduce/bn
I0720 22:37:05.200003 11675 net.cpp:97] Setting up inception_4b/double3x3_reduce/bn
I0720 22:37:05.200027 11675 net.cpp:104] Top shape: 32 96 14 14 (602112)
I0720 22:37:05.200045 11675 layer_factory.hpp:78] Creating layer inception_4b/relu_double3x3_reduce
I0720 22:37:05.200062 11675 net.cpp:68] Creating Layer inception_4b/relu_double3x3_reduce
I0720 22:37:05.200073 11675 net.cpp:395] inception_4b/relu_double3x3_reduce <- inception_4b/double3x3_reduce/bn
I0720 22:37:05.200088 11675 net.cpp:346] inception_4b/relu_double3x3_reduce -> inception_4b/double3x3_reduce/bn (in-place)
I0720 22:37:05.200106 11675 net.cpp:97] Setting up inception_4b/relu_double3x3_reduce
I0720 22:37:05.200186 11675 net.cpp:104] Top shape: 32 96 14 14 (602112)
I0720 22:37:05.200204 11675 layer_factory.hpp:78] Creating layer inception_4b/double3x3a
I0720 22:37:05.200225 11675 net.cpp:68] Creating Layer inception_4b/double3x3a
I0720 22:37:05.200239 11675 net.cpp:395] inception_4b/double3x3a <- inception_4b/double3x3_reduce/bn
I0720 22:37:05.200253 11675 net.cpp:357] inception_4b/double3x3a -> inception_4b/double3x3a
I0720 22:37:05.200273 11675 net.cpp:97] Setting up inception_4b/double3x3a
I0720 22:37:05.201288 11675 net.cpp:104] Top shape: 32 128 14 14 (802816)
I0720 22:37:05.201308 11675 layer_factory.hpp:78] Creating layer inception_4b/double3x3a/bn
I0720 22:37:05.201319 11675 net.cpp:68] Creating Layer inception_4b/double3x3a/bn
I0720 22:37:05.201329 11675 net.cpp:395] inception_4b/double3x3a/bn <- inception_4b/double3x3a
I0720 22:37:05.201339 11675 net.cpp:357] inception_4b/double3x3a/bn -> inception_4b/double3x3a/bn
I0720 22:37:05.201350 11675 net.cpp:97] Setting up inception_4b/double3x3a/bn
I0720 22:37:05.201372 11675 net.cpp:104] Top shape: 32 128 14 14 (802816)
I0720 22:37:05.201393 11675 layer_factory.hpp:78] Creating layer inception_4b/relu_double3x3a
I0720 22:37:05.201426 11675 net.cpp:68] Creating Layer inception_4b/relu_double3x3a
I0720 22:37:05.201439 11675 net.cpp:395] inception_4b/relu_double3x3a <- inception_4b/double3x3a/bn
I0720 22:37:05.201452 11675 net.cpp:346] inception_4b/relu_double3x3a -> inception_4b/double3x3a/bn (in-place)
I0720 22:37:05.201470 11675 net.cpp:97] Setting up inception_4b/relu_double3x3a
I0720 22:37:05.201551 11675 net.cpp:104] Top shape: 32 128 14 14 (802816)
I0720 22:37:05.201570 11675 layer_factory.hpp:78] Creating layer inception_4b/double3x3b
I0720 22:37:05.201608 11675 net.cpp:68] Creating Layer inception_4b/double3x3b
I0720 22:37:05.201627 11675 net.cpp:395] inception_4b/double3x3b <- inception_4b/double3x3a/bn
I0720 22:37:05.201647 11675 net.cpp:357] inception_4b/double3x3b -> inception_4b/double3x3b
I0720 22:37:05.201663 11675 net.cpp:97] Setting up inception_4b/double3x3b
I0720 22:37:05.202910 11675 net.cpp:104] Top shape: 32 128 14 14 (802816)
I0720 22:37:05.202929 11675 layer_factory.hpp:78] Creating layer inception_4b/double3x3b/bn
I0720 22:37:05.202940 11675 net.cpp:68] Creating Layer inception_4b/double3x3b/bn
I0720 22:37:05.202950 11675 net.cpp:395] inception_4b/double3x3b/bn <- inception_4b/double3x3b
I0720 22:37:05.202961 11675 net.cpp:357] inception_4b/double3x3b/bn -> inception_4b/double3x3b/bn
I0720 22:37:05.202991 11675 net.cpp:97] Setting up inception_4b/double3x3b/bn
I0720 22:37:05.203016 11675 net.cpp:104] Top shape: 32 128 14 14 (802816)
I0720 22:37:05.203033 11675 layer_factory.hpp:78] Creating layer inception_4b/relu_double3x3b
I0720 22:37:05.203050 11675 net.cpp:68] Creating Layer inception_4b/relu_double3x3b
I0720 22:37:05.203060 11675 net.cpp:395] inception_4b/relu_double3x3b <- inception_4b/double3x3b/bn
I0720 22:37:05.203078 11675 net.cpp:346] inception_4b/relu_double3x3b -> inception_4b/double3x3b/bn (in-place)
I0720 22:37:05.203097 11675 net.cpp:97] Setting up inception_4b/relu_double3x3b
I0720 22:37:05.203291 11675 net.cpp:104] Top shape: 32 128 14 14 (802816)
I0720 22:37:05.203306 11675 layer_factory.hpp:78] Creating layer inception_4b/pool
I0720 22:37:05.203315 11675 layer_factory.cpp:51] CUDNN does not support padding or multiple tops. Using Caffe's own pooling layer.
I0720 22:37:05.203327 11675 net.cpp:68] Creating Layer inception_4b/pool
I0720 22:37:05.203336 11675 net.cpp:395] inception_4b/pool <- inception_4a/output_inception_4a/output_0_split_4
I0720 22:37:05.203346 11675 net.cpp:357] inception_4b/pool -> inception_4b/pool
I0720 22:37:05.203356 11675 net.cpp:97] Setting up inception_4b/pool
I0720 22:37:05.203374 11675 net.cpp:104] Top shape: 32 576 14 14 (3612672)
I0720 22:37:05.203402 11675 layer_factory.hpp:78] Creating layer inception_4b/pool_proj
I0720 22:37:05.203418 11675 net.cpp:68] Creating Layer inception_4b/pool_proj
I0720 22:37:05.203434 11675 net.cpp:395] inception_4b/pool_proj <- inception_4b/pool
I0720 22:37:05.203450 11675 net.cpp:357] inception_4b/pool_proj -> inception_4b/pool_proj
I0720 22:37:05.203466 11675 net.cpp:97] Setting up inception_4b/pool_proj
I0720 22:37:05.204267 11675 net.cpp:104] Top shape: 32 128 14 14 (802816)
I0720 22:37:05.204284 11675 layer_factory.hpp:78] Creating layer inception_4b/pool_proj/bn
I0720 22:37:05.204298 11675 net.cpp:68] Creating Layer inception_4b/pool_proj/bn
I0720 22:37:05.204306 11675 net.cpp:395] inception_4b/pool_proj/bn <- inception_4b/pool_proj
I0720 22:37:05.204316 11675 net.cpp:357] inception_4b/pool_proj/bn -> inception_4b/pool_proj/bn
I0720 22:37:05.204341 11675 net.cpp:97] Setting up inception_4b/pool_proj/bn
I0720 22:37:05.204370 11675 net.cpp:104] Top shape: 32 128 14 14 (802816)
I0720 22:37:05.204387 11675 layer_factory.hpp:78] Creating layer inception_4b/relu_pool_proj
I0720 22:37:05.204404 11675 net.cpp:68] Creating Layer inception_4b/relu_pool_proj
I0720 22:37:05.204414 11675 net.cpp:395] inception_4b/relu_pool_proj <- inception_4b/pool_proj/bn
I0720 22:37:05.204432 11675 net.cpp:346] inception_4b/relu_pool_proj -> inception_4b/pool_proj/bn (in-place)
I0720 22:37:05.204452 11675 net.cpp:97] Setting up inception_4b/relu_pool_proj
I0720 22:37:05.204535 11675 net.cpp:104] Top shape: 32 128 14 14 (802816)
I0720 22:37:05.204562 11675 layer_factory.hpp:78] Creating layer inception_4b/output
I0720 22:37:05.204576 11675 net.cpp:68] Creating Layer inception_4b/output
I0720 22:37:05.204588 11675 net.cpp:395] inception_4b/output <- inception_4b/1x1/bn
I0720 22:37:05.204605 11675 net.cpp:395] inception_4b/output <- inception_4b/3x3/bn
I0720 22:37:05.204622 11675 net.cpp:395] inception_4b/output <- inception_4b/double3x3b/bn
I0720 22:37:05.204639 11675 net.cpp:395] inception_4b/output <- inception_4b/pool_proj/bn
I0720 22:37:05.204653 11675 net.cpp:357] inception_4b/output -> inception_4b/output
I0720 22:37:05.204669 11675 net.cpp:97] Setting up inception_4b/output
I0720 22:37:05.204686 11675 net.cpp:104] Top shape: 32 576 14 14 (3612672)
I0720 22:37:05.204699 11675 layer_factory.hpp:78] Creating layer inception_4b/output_inception_4b/output_0_split
I0720 22:37:05.204712 11675 net.cpp:68] Creating Layer inception_4b/output_inception_4b/output_0_split
I0720 22:37:05.204727 11675 net.cpp:395] inception_4b/output_inception_4b/output_0_split <- inception_4b/output
I0720 22:37:05.204741 11675 net.cpp:357] inception_4b/output_inception_4b/output_0_split -> inception_4b/output_inception_4b/output_0_split_0
I0720 22:37:05.204776 11675 net.cpp:357] inception_4b/output_inception_4b/output_0_split -> inception_4b/output_inception_4b/output_0_split_1
I0720 22:37:05.204794 11675 net.cpp:357] inception_4b/output_inception_4b/output_0_split -> inception_4b/output_inception_4b/output_0_split_2
I0720 22:37:05.204809 11675 net.cpp:357] inception_4b/output_inception_4b/output_0_split -> inception_4b/output_inception_4b/output_0_split_3
I0720 22:37:05.204828 11675 net.cpp:97] Setting up inception_4b/output_inception_4b/output_0_split
I0720 22:37:05.204841 11675 net.cpp:104] Top shape: 32 576 14 14 (3612672)
I0720 22:37:05.204852 11675 net.cpp:104] Top shape: 32 576 14 14 (3612672)
I0720 22:37:05.204869 11675 net.cpp:104] Top shape: 32 576 14 14 (3612672)
I0720 22:37:05.204882 11675 net.cpp:104] Top shape: 32 576 14 14 (3612672)
I0720 22:37:05.204891 11675 layer_factory.hpp:78] Creating layer inception_4c/1x1
I0720 22:37:05.204901 11675 net.cpp:68] Creating Layer inception_4c/1x1
I0720 22:37:05.204910 11675 net.cpp:395] inception_4c/1x1 <- inception_4b/output_inception_4b/output_0_split_0
I0720 22:37:05.204927 11675 net.cpp:357] inception_4c/1x1 -> inception_4c/1x1
I0720 22:37:05.204946 11675 net.cpp:97] Setting up inception_4c/1x1
I0720 22:37:05.205835 11675 net.cpp:104] Top shape: 32 160 14 14 (1003520)
I0720 22:37:05.205853 11675 layer_factory.hpp:78] Creating layer inception_4c/1x1/bn
I0720 22:37:05.205867 11675 net.cpp:68] Creating Layer inception_4c/1x1/bn
I0720 22:37:05.205875 11675 net.cpp:395] inception_4c/1x1/bn <- inception_4c/1x1
I0720 22:37:05.205885 11675 net.cpp:357] inception_4c/1x1/bn -> inception_4c/1x1/bn
I0720 22:37:05.205896 11675 net.cpp:97] Setting up inception_4c/1x1/bn
I0720 22:37:05.205920 11675 net.cpp:104] Top shape: 32 160 14 14 (1003520)
I0720 22:37:05.205942 11675 layer_factory.hpp:78] Creating layer inception_4c/relu_1x1
I0720 22:37:05.205958 11675 net.cpp:68] Creating Layer inception_4c/relu_1x1
I0720 22:37:05.205973 11675 net.cpp:395] inception_4c/relu_1x1 <- inception_4c/1x1/bn
I0720 22:37:05.205987 11675 net.cpp:346] inception_4c/relu_1x1 -> inception_4c/1x1/bn (in-place)
I0720 22:37:05.206003 11675 net.cpp:97] Setting up inception_4c/relu_1x1
I0720 22:37:05.206084 11675 net.cpp:104] Top shape: 32 160 14 14 (1003520)
I0720 22:37:05.206102 11675 layer_factory.hpp:78] Creating layer inception_4c/3x3_reduce
I0720 22:37:05.206125 11675 net.cpp:68] Creating Layer inception_4c/3x3_reduce
I0720 22:37:05.206138 11675 net.cpp:395] inception_4c/3x3_reduce <- inception_4b/output_inception_4b/output_0_split_1
I0720 22:37:05.206151 11675 net.cpp:357] inception_4c/3x3_reduce -> inception_4c/3x3_reduce
I0720 22:37:05.206167 11675 net.cpp:97] Setting up inception_4c/3x3_reduce
I0720 22:37:05.206940 11675 net.cpp:104] Top shape: 32 128 14 14 (802816)
I0720 22:37:05.206959 11675 layer_factory.hpp:78] Creating layer inception_4c/3x3_reduce/bn
I0720 22:37:05.206970 11675 net.cpp:68] Creating Layer inception_4c/3x3_reduce/bn
I0720 22:37:05.206980 11675 net.cpp:395] inception_4c/3x3_reduce/bn <- inception_4c/3x3_reduce
I0720 22:37:05.206990 11675 net.cpp:357] inception_4c/3x3_reduce/bn -> inception_4c/3x3_reduce/bn
I0720 22:37:05.207001 11675 net.cpp:97] Setting up inception_4c/3x3_reduce/bn
I0720 22:37:05.207022 11675 net.cpp:104] Top shape: 32 128 14 14 (802816)
I0720 22:37:05.207043 11675 layer_factory.hpp:78] Creating layer inception_4c/relu_3x3_reduce
I0720 22:37:05.207058 11675 net.cpp:68] Creating Layer inception_4c/relu_3x3_reduce
I0720 22:37:05.207073 11675 net.cpp:395] inception_4c/relu_3x3_reduce <- inception_4c/3x3_reduce/bn
I0720 22:37:05.207090 11675 net.cpp:346] inception_4c/relu_3x3_reduce -> inception_4c/3x3_reduce/bn (in-place)
I0720 22:37:05.207104 11675 net.cpp:97] Setting up inception_4c/relu_3x3_reduce
I0720 22:37:05.207316 11675 net.cpp:104] Top shape: 32 128 14 14 (802816)
I0720 22:37:05.207332 11675 layer_factory.hpp:78] Creating layer inception_4c/3x3
I0720 22:37:05.207345 11675 net.cpp:68] Creating Layer inception_4c/3x3
I0720 22:37:05.207353 11675 net.cpp:395] inception_4c/3x3 <- inception_4c/3x3_reduce/bn
I0720 22:37:05.207376 11675 net.cpp:357] inception_4c/3x3 -> inception_4c/3x3
I0720 22:37:05.207391 11675 net.cpp:97] Setting up inception_4c/3x3
I0720 22:37:05.208873 11675 net.cpp:104] Top shape: 32 160 14 14 (1003520)
I0720 22:37:05.208892 11675 layer_factory.hpp:78] Creating layer inception_4c/3x3/bn
I0720 22:37:05.208904 11675 net.cpp:68] Creating Layer inception_4c/3x3/bn
I0720 22:37:05.208912 11675 net.cpp:395] inception_4c/3x3/bn <- inception_4c/3x3
I0720 22:37:05.208925 11675 net.cpp:357] inception_4c/3x3/bn -> inception_4c/3x3/bn
I0720 22:37:05.208936 11675 net.cpp:97] Setting up inception_4c/3x3/bn
I0720 22:37:05.208958 11675 net.cpp:104] Top shape: 32 160 14 14 (1003520)
I0720 22:37:05.208976 11675 layer_factory.hpp:78] Creating layer inception_4c/relu_3x3
I0720 22:37:05.208991 11675 net.cpp:68] Creating Layer inception_4c/relu_3x3
I0720 22:37:05.209007 11675 net.cpp:395] inception_4c/relu_3x3 <- inception_4c/3x3/bn
I0720 22:37:05.209020 11675 net.cpp:346] inception_4c/relu_3x3 -> inception_4c/3x3/bn (in-place)
I0720 22:37:05.209034 11675 net.cpp:97] Setting up inception_4c/relu_3x3
I0720 22:37:05.209115 11675 net.cpp:104] Top shape: 32 160 14 14 (1003520)
I0720 22:37:05.209132 11675 layer_factory.hpp:78] Creating layer inception_4c/double3x3_reduce
I0720 22:37:05.209153 11675 net.cpp:68] Creating Layer inception_4c/double3x3_reduce
I0720 22:37:05.209170 11675 net.cpp:395] inception_4c/double3x3_reduce <- inception_4b/output_inception_4b/output_0_split_2
I0720 22:37:05.209185 11675 net.cpp:357] inception_4c/double3x3_reduce -> inception_4c/double3x3_reduce
I0720 22:37:05.209204 11675 net.cpp:97] Setting up inception_4c/double3x3_reduce
I0720 22:37:05.209978 11675 net.cpp:104] Top shape: 32 128 14 14 (802816)
I0720 22:37:05.209996 11675 layer_factory.hpp:78] Creating layer inception_4c/double3x3_reduce/bn
I0720 22:37:05.210007 11675 net.cpp:68] Creating Layer inception_4c/double3x3_reduce/bn
I0720 22:37:05.210016 11675 net.cpp:395] inception_4c/double3x3_reduce/bn <- inception_4c/double3x3_reduce
I0720 22:37:05.210027 11675 net.cpp:357] inception_4c/double3x3_reduce/bn -> inception_4c/double3x3_reduce/bn
I0720 22:37:05.210039 11675 net.cpp:97] Setting up inception_4c/double3x3_reduce/bn
I0720 22:37:05.210060 11675 net.cpp:104] Top shape: 32 128 14 14 (802816)
I0720 22:37:05.210082 11675 layer_factory.hpp:78] Creating layer inception_4c/relu_double3x3_reduce
I0720 22:37:05.210095 11675 net.cpp:68] Creating Layer inception_4c/relu_double3x3_reduce
I0720 22:37:05.210110 11675 net.cpp:395] inception_4c/relu_double3x3_reduce <- inception_4c/double3x3_reduce/bn
I0720 22:37:05.210129 11675 net.cpp:346] inception_4c/relu_double3x3_reduce -> inception_4c/double3x3_reduce/bn (in-place)
I0720 22:37:05.210144 11675 net.cpp:97] Setting up inception_4c/relu_double3x3_reduce
I0720 22:37:05.210227 11675 net.cpp:104] Top shape: 32 128 14 14 (802816)
I0720 22:37:05.210239 11675 layer_factory.hpp:78] Creating layer inception_4c/double3x3a
I0720 22:37:05.210254 11675 net.cpp:68] Creating Layer inception_4c/double3x3a
I0720 22:37:05.210271 11675 net.cpp:395] inception_4c/double3x3a <- inception_4c/double3x3_reduce/bn
I0720 22:37:05.210291 11675 net.cpp:357] inception_4c/double3x3a -> inception_4c/double3x3a
I0720 22:37:05.210325 11675 net.cpp:97] Setting up inception_4c/double3x3a
I0720 22:37:05.211807 11675 net.cpp:104] Top shape: 32 160 14 14 (1003520)
I0720 22:37:05.211838 11675 layer_factory.hpp:78] Creating layer inception_4c/double3x3a/bn
I0720 22:37:05.211850 11675 net.cpp:68] Creating Layer inception_4c/double3x3a/bn
I0720 22:37:05.211859 11675 net.cpp:395] inception_4c/double3x3a/bn <- inception_4c/double3x3a
I0720 22:37:05.211870 11675 net.cpp:357] inception_4c/double3x3a/bn -> inception_4c/double3x3a/bn
I0720 22:37:05.211886 11675 net.cpp:97] Setting up inception_4c/double3x3a/bn
I0720 22:37:05.211911 11675 net.cpp:104] Top shape: 32 160 14 14 (1003520)
I0720 22:37:05.211930 11675 layer_factory.hpp:78] Creating layer inception_4c/relu_double3x3a
I0720 22:37:05.211946 11675 net.cpp:68] Creating Layer inception_4c/relu_double3x3a
I0720 22:37:05.211971 11675 net.cpp:395] inception_4c/relu_double3x3a <- inception_4c/double3x3a/bn
I0720 22:37:05.211992 11675 net.cpp:346] inception_4c/relu_double3x3a -> inception_4c/double3x3a/bn (in-place)
I0720 22:37:05.212010 11675 net.cpp:97] Setting up inception_4c/relu_double3x3a
I0720 22:37:05.212100 11675 net.cpp:104] Top shape: 32 160 14 14 (1003520)
I0720 22:37:05.212116 11675 layer_factory.hpp:78] Creating layer inception_4c/double3x3b
I0720 22:37:05.212128 11675 net.cpp:68] Creating Layer inception_4c/double3x3b
I0720 22:37:05.212144 11675 net.cpp:395] inception_4c/double3x3b <- inception_4c/double3x3a/bn
I0720 22:37:05.212164 11675 net.cpp:357] inception_4c/double3x3b -> inception_4c/double3x3b
I0720 22:37:05.212182 11675 net.cpp:97] Setting up inception_4c/double3x3b
I0720 22:37:05.213943 11675 net.cpp:104] Top shape: 32 160 14 14 (1003520)
I0720 22:37:05.213963 11675 layer_factory.hpp:78] Creating layer inception_4c/double3x3b/bn
I0720 22:37:05.213973 11675 net.cpp:68] Creating Layer inception_4c/double3x3b/bn
I0720 22:37:05.213982 11675 net.cpp:395] inception_4c/double3x3b/bn <- inception_4c/double3x3b
I0720 22:37:05.213994 11675 net.cpp:357] inception_4c/double3x3b/bn -> inception_4c/double3x3b/bn
I0720 22:37:05.214006 11675 net.cpp:97] Setting up inception_4c/double3x3b/bn
I0720 22:37:05.214028 11675 net.cpp:104] Top shape: 32 160 14 14 (1003520)
I0720 22:37:05.214046 11675 layer_factory.hpp:78] Creating layer inception_4c/relu_double3x3b
I0720 22:37:05.214057 11675 net.cpp:68] Creating Layer inception_4c/relu_double3x3b
I0720 22:37:05.214071 11675 net.cpp:395] inception_4c/relu_double3x3b <- inception_4c/double3x3b/bn
I0720 22:37:05.214088 11675 net.cpp:346] inception_4c/relu_double3x3b -> inception_4c/double3x3b/bn (in-place)
I0720 22:37:05.214102 11675 net.cpp:97] Setting up inception_4c/relu_double3x3b
I0720 22:37:05.214309 11675 net.cpp:104] Top shape: 32 160 14 14 (1003520)
I0720 22:37:05.214325 11675 layer_factory.hpp:78] Creating layer inception_4c/pool
I0720 22:37:05.214334 11675 layer_factory.cpp:51] CUDNN does not support padding or multiple tops. Using Caffe's own pooling layer.
I0720 22:37:05.214344 11675 net.cpp:68] Creating Layer inception_4c/pool
I0720 22:37:05.214354 11675 net.cpp:395] inception_4c/pool <- inception_4b/output_inception_4b/output_0_split_3
I0720 22:37:05.214364 11675 net.cpp:357] inception_4c/pool -> inception_4c/pool
I0720 22:37:05.214375 11675 net.cpp:97] Setting up inception_4c/pool
I0720 22:37:05.214390 11675 net.cpp:104] Top shape: 32 576 14 14 (3612672)
I0720 22:37:05.214406 11675 layer_factory.hpp:78] Creating layer inception_4c/pool_proj
I0720 22:37:05.214422 11675 net.cpp:68] Creating Layer inception_4c/pool_proj
I0720 22:37:05.214433 11675 net.cpp:395] inception_4c/pool_proj <- inception_4c/pool
I0720 22:37:05.214452 11675 net.cpp:357] inception_4c/pool_proj -> inception_4c/pool_proj
I0720 22:37:05.214467 11675 net.cpp:97] Setting up inception_4c/pool_proj
I0720 22:37:05.215240 11675 net.cpp:104] Top shape: 32 128 14 14 (802816)
I0720 22:37:05.215257 11675 layer_factory.hpp:78] Creating layer inception_4c/pool_proj/bn
I0720 22:37:05.215270 11675 net.cpp:68] Creating Layer inception_4c/pool_proj/bn
I0720 22:37:05.215279 11675 net.cpp:395] inception_4c/pool_proj/bn <- inception_4c/pool_proj
I0720 22:37:05.215289 11675 net.cpp:357] inception_4c/pool_proj/bn -> inception_4c/pool_proj/bn
I0720 22:37:05.215301 11675 net.cpp:97] Setting up inception_4c/pool_proj/bn
I0720 22:37:05.215322 11675 net.cpp:104] Top shape: 32 128 14 14 (802816)
I0720 22:37:05.215344 11675 layer_factory.hpp:78] Creating layer inception_4c/relu_pool_proj
I0720 22:37:05.215361 11675 net.cpp:68] Creating Layer inception_4c/relu_pool_proj
I0720 22:37:05.215378 11675 net.cpp:395] inception_4c/relu_pool_proj <- inception_4c/pool_proj/bn
I0720 22:37:05.215390 11675 net.cpp:346] inception_4c/relu_pool_proj -> inception_4c/pool_proj/bn (in-place)
I0720 22:37:05.215404 11675 net.cpp:97] Setting up inception_4c/relu_pool_proj
I0720 22:37:05.215486 11675 net.cpp:104] Top shape: 32 128 14 14 (802816)
I0720 22:37:05.215517 11675 layer_factory.hpp:78] Creating layer inception_4c/output
I0720 22:37:05.215536 11675 net.cpp:68] Creating Layer inception_4c/output
I0720 22:37:05.215549 11675 net.cpp:395] inception_4c/output <- inception_4c/1x1/bn
I0720 22:37:05.215560 11675 net.cpp:395] inception_4c/output <- inception_4c/3x3/bn
I0720 22:37:05.215579 11675 net.cpp:395] inception_4c/output <- inception_4c/double3x3b/bn
I0720 22:37:05.215595 11675 net.cpp:395] inception_4c/output <- inception_4c/pool_proj/bn
I0720 22:37:05.215616 11675 net.cpp:357] inception_4c/output -> inception_4c/output
I0720 22:37:05.215631 11675 net.cpp:97] Setting up inception_4c/output
I0720 22:37:05.215641 11675 net.cpp:104] Top shape: 32 608 14 14 (3813376)
I0720 22:37:05.215657 11675 layer_factory.hpp:78] Creating layer inception_4c/output_inception_4c/output_0_split
I0720 22:37:05.215675 11675 net.cpp:68] Creating Layer inception_4c/output_inception_4c/output_0_split
I0720 22:37:05.215687 11675 net.cpp:395] inception_4c/output_inception_4c/output_0_split <- inception_4c/output
I0720 22:37:05.215708 11675 net.cpp:357] inception_4c/output_inception_4c/output_0_split -> inception_4c/output_inception_4c/output_0_split_0
I0720 22:37:05.215728 11675 net.cpp:357] inception_4c/output_inception_4c/output_0_split -> inception_4c/output_inception_4c/output_0_split_1
I0720 22:37:05.215742 11675 net.cpp:357] inception_4c/output_inception_4c/output_0_split -> inception_4c/output_inception_4c/output_0_split_2
I0720 22:37:05.215764 11675 net.cpp:357] inception_4c/output_inception_4c/output_0_split -> inception_4c/output_inception_4c/output_0_split_3
I0720 22:37:05.215780 11675 net.cpp:97] Setting up inception_4c/output_inception_4c/output_0_split
I0720 22:37:05.215790 11675 net.cpp:104] Top shape: 32 608 14 14 (3813376)
I0720 22:37:05.215797 11675 net.cpp:104] Top shape: 32 608 14 14 (3813376)
I0720 22:37:05.215806 11675 net.cpp:104] Top shape: 32 608 14 14 (3813376)
I0720 22:37:05.215817 11675 net.cpp:104] Top shape: 32 608 14 14 (3813376)
I0720 22:37:05.215832 11675 layer_factory.hpp:78] Creating layer inception_4d/1x1
I0720 22:37:05.215844 11675 net.cpp:68] Creating Layer inception_4d/1x1
I0720 22:37:05.215855 11675 net.cpp:395] inception_4d/1x1 <- inception_4c/output_inception_4c/output_0_split_0
I0720 22:37:05.215878 11675 net.cpp:357] inception_4d/1x1 -> inception_4d/1x1
I0720 22:37:05.215898 11675 net.cpp:97] Setting up inception_4d/1x1
I0720 22:37:05.216610 11675 net.cpp:104] Top shape: 32 96 14 14 (602112)
I0720 22:37:05.216629 11675 layer_factory.hpp:78] Creating layer inception_4d/1x1/bn
I0720 22:37:05.216641 11675 net.cpp:68] Creating Layer inception_4d/1x1/bn
I0720 22:37:05.216650 11675 net.cpp:395] inception_4d/1x1/bn <- inception_4d/1x1
I0720 22:37:05.216660 11675 net.cpp:357] inception_4d/1x1/bn -> inception_4d/1x1/bn
I0720 22:37:05.216672 11675 net.cpp:97] Setting up inception_4d/1x1/bn
I0720 22:37:05.216694 11675 net.cpp:104] Top shape: 32 96 14 14 (602112)
I0720 22:37:05.216716 11675 layer_factory.hpp:78] Creating layer inception_4d/relu_1x1
I0720 22:37:05.216732 11675 net.cpp:68] Creating Layer inception_4d/relu_1x1
I0720 22:37:05.216748 11675 net.cpp:395] inception_4d/relu_1x1 <- inception_4d/1x1/bn
I0720 22:37:05.216759 11675 net.cpp:346] inception_4d/relu_1x1 -> inception_4d/1x1/bn (in-place)
I0720 22:37:05.216774 11675 net.cpp:97] Setting up inception_4d/relu_1x1
I0720 22:37:05.216855 11675 net.cpp:104] Top shape: 32 96 14 14 (602112)
I0720 22:37:05.216873 11675 layer_factory.hpp:78] Creating layer inception_4d/3x3_reduce
I0720 22:37:05.216892 11675 net.cpp:68] Creating Layer inception_4d/3x3_reduce
I0720 22:37:05.216908 11675 net.cpp:395] inception_4d/3x3_reduce <- inception_4c/output_inception_4c/output_0_split_1
I0720 22:37:05.216928 11675 net.cpp:357] inception_4d/3x3_reduce -> inception_4d/3x3_reduce
I0720 22:37:05.216948 11675 net.cpp:97] Setting up inception_4d/3x3_reduce
I0720 22:37:05.217787 11675 net.cpp:104] Top shape: 32 128 14 14 (802816)
I0720 22:37:05.217804 11675 layer_factory.hpp:78] Creating layer inception_4d/3x3_reduce/bn
I0720 22:37:05.217828 11675 net.cpp:68] Creating Layer inception_4d/3x3_reduce/bn
I0720 22:37:05.217839 11675 net.cpp:395] inception_4d/3x3_reduce/bn <- inception_4d/3x3_reduce
I0720 22:37:05.217849 11675 net.cpp:357] inception_4d/3x3_reduce/bn -> inception_4d/3x3_reduce/bn
I0720 22:37:05.217865 11675 net.cpp:97] Setting up inception_4d/3x3_reduce/bn
I0720 22:37:05.217890 11675 net.cpp:104] Top shape: 32 128 14 14 (802816)
I0720 22:37:05.217908 11675 layer_factory.hpp:78] Creating layer inception_4d/relu_3x3_reduce
I0720 22:37:05.217924 11675 net.cpp:68] Creating Layer inception_4d/relu_3x3_reduce
I0720 22:37:05.217936 11675 net.cpp:395] inception_4d/relu_3x3_reduce <- inception_4d/3x3_reduce/bn
I0720 22:37:05.217950 11675 net.cpp:346] inception_4d/relu_3x3_reduce -> inception_4d/3x3_reduce/bn (in-place)
I0720 22:37:05.217970 11675 net.cpp:97] Setting up inception_4d/relu_3x3_reduce
I0720 22:37:05.218055 11675 net.cpp:104] Top shape: 32 128 14 14 (802816)
I0720 22:37:05.218075 11675 layer_factory.hpp:78] Creating layer inception_4d/3x3
I0720 22:37:05.218091 11675 net.cpp:68] Creating Layer inception_4d/3x3
I0720 22:37:05.218101 11675 net.cpp:395] inception_4d/3x3 <- inception_4d/3x3_reduce/bn
I0720 22:37:05.218122 11675 net.cpp:357] inception_4d/3x3 -> inception_4d/3x3
I0720 22:37:05.218142 11675 net.cpp:97] Setting up inception_4d/3x3
I0720 22:37:05.219848 11675 net.cpp:104] Top shape: 32 192 14 14 (1204224)
I0720 22:37:05.219866 11675 layer_factory.hpp:78] Creating layer inception_4d/3x3/bn
I0720 22:37:05.219879 11675 net.cpp:68] Creating Layer inception_4d/3x3/bn
I0720 22:37:05.219888 11675 net.cpp:395] inception_4d/3x3/bn <- inception_4d/3x3
I0720 22:37:05.219898 11675 net.cpp:357] inception_4d/3x3/bn -> inception_4d/3x3/bn
I0720 22:37:05.219909 11675 net.cpp:97] Setting up inception_4d/3x3/bn
I0720 22:37:05.219930 11675 net.cpp:104] Top shape: 32 192 14 14 (1204224)
I0720 22:37:05.219949 11675 layer_factory.hpp:78] Creating layer inception_4d/relu_3x3
I0720 22:37:05.219961 11675 net.cpp:68] Creating Layer inception_4d/relu_3x3
I0720 22:37:05.219976 11675 net.cpp:395] inception_4d/relu_3x3 <- inception_4d/3x3/bn
I0720 22:37:05.219993 11675 net.cpp:346] inception_4d/relu_3x3 -> inception_4d/3x3/bn (in-place)
I0720 22:37:05.220007 11675 net.cpp:97] Setting up inception_4d/relu_3x3
I0720 22:37:05.220213 11675 net.cpp:104] Top shape: 32 192 14 14 (1204224)
I0720 22:37:05.220229 11675 layer_factory.hpp:78] Creating layer inception_4d/double3x3_reduce
I0720 22:37:05.220242 11675 net.cpp:68] Creating Layer inception_4d/double3x3_reduce
I0720 22:37:05.220250 11675 net.cpp:395] inception_4d/double3x3_reduce <- inception_4c/output_inception_4c/output_0_split_2
I0720 22:37:05.220263 11675 net.cpp:357] inception_4d/double3x3_reduce -> inception_4d/double3x3_reduce
I0720 22:37:05.220273 11675 net.cpp:97] Setting up inception_4d/double3x3_reduce
I0720 22:37:05.221179 11675 net.cpp:104] Top shape: 32 160 14 14 (1003520)
I0720 22:37:05.221199 11675 layer_factory.hpp:78] Creating layer inception_4d/double3x3_reduce/bn
I0720 22:37:05.221210 11675 net.cpp:68] Creating Layer inception_4d/double3x3_reduce/bn
I0720 22:37:05.221220 11675 net.cpp:395] inception_4d/double3x3_reduce/bn <- inception_4d/double3x3_reduce
I0720 22:37:05.221231 11675 net.cpp:357] inception_4d/double3x3_reduce/bn -> inception_4d/double3x3_reduce/bn
I0720 22:37:05.221243 11675 net.cpp:97] Setting up inception_4d/double3x3_reduce/bn
I0720 22:37:05.221268 11675 net.cpp:104] Top shape: 32 160 14 14 (1003520)
I0720 22:37:05.221284 11675 layer_factory.hpp:78] Creating layer inception_4d/relu_double3x3_reduce
I0720 22:37:05.221295 11675 net.cpp:68] Creating Layer inception_4d/relu_double3x3_reduce
I0720 22:37:05.221307 11675 net.cpp:395] inception_4d/relu_double3x3_reduce <- inception_4d/double3x3_reduce/bn
I0720 22:37:05.221325 11675 net.cpp:346] inception_4d/relu_double3x3_reduce -> inception_4d/double3x3_reduce/bn (in-place)
I0720 22:37:05.221340 11675 net.cpp:97] Setting up inception_4d/relu_double3x3_reduce
I0720 22:37:05.221421 11675 net.cpp:104] Top shape: 32 160 14 14 (1003520)
I0720 22:37:05.221446 11675 layer_factory.hpp:78] Creating layer inception_4d/double3x3a
I0720 22:37:05.221464 11675 net.cpp:68] Creating Layer inception_4d/double3x3a
I0720 22:37:05.221482 11675 net.cpp:395] inception_4d/double3x3a <- inception_4d/double3x3_reduce/bn
I0720 22:37:05.221504 11675 net.cpp:357] inception_4d/double3x3a -> inception_4d/double3x3a
I0720 22:37:05.221518 11675 net.cpp:97] Setting up inception_4d/double3x3a
I0720 22:37:05.223578 11675 net.cpp:104] Top shape: 32 192 14 14 (1204224)
I0720 22:37:05.223597 11675 layer_factory.hpp:78] Creating layer inception_4d/double3x3a/bn
I0720 22:37:05.223608 11675 net.cpp:68] Creating Layer inception_4d/double3x3a/bn
I0720 22:37:05.223616 11675 net.cpp:395] inception_4d/double3x3a/bn <- inception_4d/double3x3a
I0720 22:37:05.223628 11675 net.cpp:357] inception_4d/double3x3a/bn -> inception_4d/double3x3a/bn
I0720 22:37:05.223639 11675 net.cpp:97] Setting up inception_4d/double3x3a/bn
I0720 22:37:05.223662 11675 net.cpp:104] Top shape: 32 192 14 14 (1204224)
I0720 22:37:05.223680 11675 layer_factory.hpp:78] Creating layer inception_4d/relu_double3x3a
I0720 22:37:05.223695 11675 net.cpp:68] Creating Layer inception_4d/relu_double3x3a
I0720 22:37:05.223708 11675 net.cpp:395] inception_4d/relu_double3x3a <- inception_4d/double3x3a/bn
I0720 22:37:05.223728 11675 net.cpp:346] inception_4d/relu_double3x3a -> inception_4d/double3x3a/bn (in-place)
I0720 22:37:05.223742 11675 net.cpp:97] Setting up inception_4d/relu_double3x3a
I0720 22:37:05.223825 11675 net.cpp:104] Top shape: 32 192 14 14 (1204224)
I0720 22:37:05.223839 11675 layer_factory.hpp:78] Creating layer inception_4d/double3x3b
I0720 22:37:05.223856 11675 net.cpp:68] Creating Layer inception_4d/double3x3b
I0720 22:37:05.223873 11675 net.cpp:395] inception_4d/double3x3b <- inception_4d/double3x3a/bn
I0720 22:37:05.223894 11675 net.cpp:357] inception_4d/double3x3b -> inception_4d/double3x3b
I0720 22:37:05.223912 11675 net.cpp:97] Setting up inception_4d/double3x3b
I0720 22:37:05.226310 11675 net.cpp:104] Top shape: 32 192 14 14 (1204224)
I0720 22:37:05.226328 11675 layer_factory.hpp:78] Creating layer inception_4d/double3x3b/bn
I0720 22:37:05.226341 11675 net.cpp:68] Creating Layer inception_4d/double3x3b/bn
I0720 22:37:05.226351 11675 net.cpp:395] inception_4d/double3x3b/bn <- inception_4d/double3x3b
I0720 22:37:05.226361 11675 net.cpp:357] inception_4d/double3x3b/bn -> inception_4d/double3x3b/bn
I0720 22:37:05.226372 11675 net.cpp:97] Setting up inception_4d/double3x3b/bn
I0720 22:37:05.226392 11675 net.cpp:104] Top shape: 32 192 14 14 (1204224)
I0720 22:37:05.226415 11675 layer_factory.hpp:78] Creating layer inception_4d/relu_double3x3b
I0720 22:37:05.226429 11675 net.cpp:68] Creating Layer inception_4d/relu_double3x3b
I0720 22:37:05.226445 11675 net.cpp:395] inception_4d/relu_double3x3b <- inception_4d/double3x3b/bn
I0720 22:37:05.226460 11675 net.cpp:346] inception_4d/relu_double3x3b -> inception_4d/double3x3b/bn (in-place)
I0720 22:37:05.226474 11675 net.cpp:97] Setting up inception_4d/relu_double3x3b
I0720 22:37:05.226554 11675 net.cpp:104] Top shape: 32 192 14 14 (1204224)
I0720 22:37:05.226569 11675 layer_factory.hpp:78] Creating layer inception_4d/pool
I0720 22:37:05.226584 11675 layer_factory.cpp:51] CUDNN does not support padding or multiple tops. Using Caffe's own pooling layer.
I0720 22:37:05.226601 11675 net.cpp:68] Creating Layer inception_4d/pool
I0720 22:37:05.226620 11675 net.cpp:395] inception_4d/pool <- inception_4c/output_inception_4c/output_0_split_3
I0720 22:37:05.226636 11675 net.cpp:357] inception_4d/pool -> inception_4d/pool
I0720 22:37:05.226649 11675 net.cpp:97] Setting up inception_4d/pool
I0720 22:37:05.226666 11675 net.cpp:104] Top shape: 32 608 14 14 (3813376)
I0720 22:37:05.226681 11675 layer_factory.hpp:78] Creating layer inception_4d/pool_proj
I0720 22:37:05.226696 11675 net.cpp:68] Creating Layer inception_4d/pool_proj
I0720 22:37:05.226711 11675 net.cpp:395] inception_4d/pool_proj <- inception_4d/pool
I0720 22:37:05.226727 11675 net.cpp:357] inception_4d/pool_proj -> inception_4d/pool_proj
I0720 22:37:05.226760 11675 net.cpp:97] Setting up inception_4d/pool_proj
I0720 22:37:05.227560 11675 net.cpp:104] Top shape: 32 128 14 14 (802816)
I0720 22:37:05.227577 11675 layer_factory.hpp:78] Creating layer inception_4d/pool_proj/bn
I0720 22:37:05.227591 11675 net.cpp:68] Creating Layer inception_4d/pool_proj/bn
I0720 22:37:05.227599 11675 net.cpp:395] inception_4d/pool_proj/bn <- inception_4d/pool_proj
I0720 22:37:05.227610 11675 net.cpp:357] inception_4d/pool_proj/bn -> inception_4d/pool_proj/bn
I0720 22:37:05.227622 11675 net.cpp:97] Setting up inception_4d/pool_proj/bn
I0720 22:37:05.227643 11675 net.cpp:104] Top shape: 32 128 14 14 (802816)
I0720 22:37:05.227663 11675 layer_factory.hpp:78] Creating layer inception_4d/relu_pool_proj
I0720 22:37:05.227677 11675 net.cpp:68] Creating Layer inception_4d/relu_pool_proj
I0720 22:37:05.227699 11675 net.cpp:395] inception_4d/relu_pool_proj <- inception_4d/pool_proj/bn
I0720 22:37:05.227713 11675 net.cpp:346] inception_4d/relu_pool_proj -> inception_4d/pool_proj/bn (in-place)
I0720 22:37:05.227728 11675 net.cpp:97] Setting up inception_4d/relu_pool_proj
I0720 22:37:05.227933 11675 net.cpp:104] Top shape: 32 128 14 14 (802816)
I0720 22:37:05.227948 11675 layer_factory.hpp:78] Creating layer inception_4d/output
I0720 22:37:05.227960 11675 net.cpp:68] Creating Layer inception_4d/output
I0720 22:37:05.227969 11675 net.cpp:395] inception_4d/output <- inception_4d/1x1/bn
I0720 22:37:05.227978 11675 net.cpp:395] inception_4d/output <- inception_4d/3x3/bn
I0720 22:37:05.227988 11675 net.cpp:395] inception_4d/output <- inception_4d/double3x3b/bn
I0720 22:37:05.227996 11675 net.cpp:395] inception_4d/output <- inception_4d/pool_proj/bn
I0720 22:37:05.228010 11675 net.cpp:357] inception_4d/output -> inception_4d/output
I0720 22:37:05.228030 11675 net.cpp:97] Setting up inception_4d/output
I0720 22:37:05.228044 11675 net.cpp:104] Top shape: 32 608 14 14 (3813376)
I0720 22:37:05.228055 11675 layer_factory.hpp:78] Creating layer inception_4d/output_inception_4d/output_0_split
I0720 22:37:05.228072 11675 net.cpp:68] Creating Layer inception_4d/output_inception_4d/output_0_split
I0720 22:37:05.228085 11675 net.cpp:395] inception_4d/output_inception_4d/output_0_split <- inception_4d/output
I0720 22:37:05.228098 11675 net.cpp:357] inception_4d/output_inception_4d/output_0_split -> inception_4d/output_inception_4d/output_0_split_0
I0720 22:37:05.228119 11675 net.cpp:357] inception_4d/output_inception_4d/output_0_split -> inception_4d/output_inception_4d/output_0_split_1
I0720 22:37:05.228140 11675 net.cpp:357] inception_4d/output_inception_4d/output_0_split -> inception_4d/output_inception_4d/output_0_split_2
I0720 22:37:05.228155 11675 net.cpp:357] inception_4d/output_inception_4d/output_0_split -> inception_4d/output_inception_4d/output_0_split_3
I0720 22:37:05.228166 11675 net.cpp:97] Setting up inception_4d/output_inception_4d/output_0_split
I0720 22:37:05.228179 11675 net.cpp:104] Top shape: 32 608 14 14 (3813376)
I0720 22:37:05.228194 11675 net.cpp:104] Top shape: 32 608 14 14 (3813376)
I0720 22:37:05.228204 11675 net.cpp:104] Top shape: 32 608 14 14 (3813376)
I0720 22:37:05.228214 11675 net.cpp:104] Top shape: 32 608 14 14 (3813376)
I0720 22:37:05.228229 11675 layer_factory.hpp:78] Creating layer loss2/ave_pool
I0720 22:37:05.228250 11675 net.cpp:68] Creating Layer loss2/ave_pool
I0720 22:37:05.228263 11675 net.cpp:395] loss2/ave_pool <- inception_4d/output_inception_4d/output_0_split_0
I0720 22:37:05.228276 11675 net.cpp:357] loss2/ave_pool -> loss2/ave_pool
I0720 22:37:05.228286 11675 net.cpp:97] Setting up loss2/ave_pool
I0720 22:37:05.228359 11675 net.cpp:104] Top shape: 32 608 4 4 (311296)
I0720 22:37:05.228379 11675 layer_factory.hpp:78] Creating layer loss2/conv
I0720 22:37:05.228396 11675 net.cpp:68] Creating Layer loss2/conv
I0720 22:37:05.228412 11675 net.cpp:395] loss2/conv <- loss2/ave_pool
I0720 22:37:05.228427 11675 net.cpp:357] loss2/conv -> loss2/conv
I0720 22:37:05.228446 11675 net.cpp:97] Setting up loss2/conv
I0720 22:37:05.229297 11675 net.cpp:104] Top shape: 32 128 4 4 (65536)
I0720 22:37:05.229315 11675 layer_factory.hpp:78] Creating layer loss2/conv/bn
I0720 22:37:05.229327 11675 net.cpp:68] Creating Layer loss2/conv/bn
I0720 22:37:05.229336 11675 net.cpp:395] loss2/conv/bn <- loss2/conv
I0720 22:37:05.229346 11675 net.cpp:357] loss2/conv/bn -> loss2/conv/bn
I0720 22:37:05.229358 11675 net.cpp:97] Setting up loss2/conv/bn
I0720 22:37:05.229378 11675 net.cpp:104] Top shape: 32 128 4 4 (65536)
I0720 22:37:05.229399 11675 layer_factory.hpp:78] Creating layer loss2/relu_conv
I0720 22:37:05.229416 11675 net.cpp:68] Creating Layer loss2/relu_conv
I0720 22:37:05.229432 11675 net.cpp:395] loss2/relu_conv <- loss2/conv/bn
I0720 22:37:05.229445 11675 net.cpp:346] loss2/relu_conv -> loss2/conv/bn (in-place)
I0720 22:37:05.229461 11675 net.cpp:97] Setting up loss2/relu_conv
I0720 22:37:05.229584 11675 net.cpp:104] Top shape: 32 128 4 4 (65536)
I0720 22:37:05.229598 11675 layer_factory.hpp:78] Creating layer loss2/fc
I0720 22:37:05.229615 11675 net.cpp:68] Creating Layer loss2/fc
I0720 22:37:05.229632 11675 net.cpp:395] loss2/fc <- loss2/conv/bn
I0720 22:37:05.229651 11675 net.cpp:357] loss2/fc -> loss2/fc
I0720 22:37:05.229665 11675 net.cpp:97] Setting up loss2/fc
I0720 22:37:05.242838 11675 net.cpp:104] Top shape: 32 1024 1 1 (32768)
I0720 22:37:05.242871 11675 layer_factory.hpp:78] Creating layer loss2/fc/bn
I0720 22:37:05.242884 11675 net.cpp:68] Creating Layer loss2/fc/bn
I0720 22:37:05.242894 11675 net.cpp:395] loss2/fc/bn <- loss2/fc
I0720 22:37:05.242907 11675 net.cpp:357] loss2/fc/bn -> loss2/fc/bn
I0720 22:37:05.242918 11675 net.cpp:97] Setting up loss2/fc/bn
I0720 22:37:05.242933 11675 net.cpp:104] Top shape: 32 1024 1 1 (32768)
I0720 22:37:05.242945 11675 layer_factory.hpp:78] Creating layer loss2/relu_fc
I0720 22:37:05.242961 11675 net.cpp:68] Creating Layer loss2/relu_fc
I0720 22:37:05.242977 11675 net.cpp:395] loss2/relu_fc <- loss2/fc/bn
I0720 22:37:05.242995 11675 net.cpp:346] loss2/relu_fc -> loss2/fc/bn (in-place)
I0720 22:37:05.243012 11675 net.cpp:97] Setting up loss2/relu_fc
I0720 22:37:05.243281 11675 net.cpp:104] Top shape: 32 1024 1 1 (32768)
I0720 22:37:05.243298 11675 layer_factory.hpp:78] Creating layer loss2/classifier
I0720 22:37:05.243310 11675 net.cpp:68] Creating Layer loss2/classifier
I0720 22:37:05.243319 11675 net.cpp:395] loss2/classifier <- loss2/fc/bn
I0720 22:37:05.243330 11675 net.cpp:357] loss2/classifier -> loss2/classifier
I0720 22:37:05.243341 11675 net.cpp:97] Setting up loss2/classifier
I0720 22:37:05.250254 11675 net.cpp:104] Top shape: 32 1000 1 1 (32000)
I0720 22:37:05.250275 11675 layer_factory.hpp:78] Creating layer loss2/loss
I0720 22:37:05.250288 11675 net.cpp:68] Creating Layer loss2/loss
I0720 22:37:05.250296 11675 net.cpp:395] loss2/loss <- loss2/classifier
I0720 22:37:05.250305 11675 net.cpp:395] loss2/loss <- label_data_1_split_1
I0720 22:37:05.250318 11675 net.cpp:357] loss2/loss -> loss2/loss1
I0720 22:37:05.250329 11675 net.cpp:97] Setting up loss2/loss
I0720 22:37:05.250345 11675 layer_factory.hpp:78] Creating layer loss2/loss
I0720 22:37:05.250497 11675 net.cpp:104] Top shape: 1 1 1 1 (1)
I0720 22:37:05.250519 11675 net.cpp:110]     with loss weight 0.3
I0720 22:37:05.250541 11675 layer_factory.hpp:78] Creating layer inception_4e/3x3_reduce
I0720 22:37:05.250555 11675 net.cpp:68] Creating Layer inception_4e/3x3_reduce
I0720 22:37:05.250565 11675 net.cpp:395] inception_4e/3x3_reduce <- inception_4d/output_inception_4d/output_0_split_1
I0720 22:37:05.250581 11675 net.cpp:357] inception_4e/3x3_reduce -> inception_4e/3x3_reduce
I0720 22:37:05.250602 11675 net.cpp:97] Setting up inception_4e/3x3_reduce
I0720 22:37:05.251417 11675 net.cpp:104] Top shape: 32 128 14 14 (802816)
I0720 22:37:05.251435 11675 layer_factory.hpp:78] Creating layer inception_4e/3x3_reduce/bn
I0720 22:37:05.251448 11675 net.cpp:68] Creating Layer inception_4e/3x3_reduce/bn
I0720 22:37:05.251458 11675 net.cpp:395] inception_4e/3x3_reduce/bn <- inception_4e/3x3_reduce
I0720 22:37:05.251468 11675 net.cpp:357] inception_4e/3x3_reduce/bn -> inception_4e/3x3_reduce/bn
I0720 22:37:05.251513 11675 net.cpp:97] Setting up inception_4e/3x3_reduce/bn
I0720 22:37:05.251541 11675 net.cpp:104] Top shape: 32 128 14 14 (802816)
I0720 22:37:05.251556 11675 layer_factory.hpp:78] Creating layer inception_4e/relu_3x3_reduce
I0720 22:37:05.251571 11675 net.cpp:68] Creating Layer inception_4e/relu_3x3_reduce
I0720 22:37:05.251588 11675 net.cpp:395] inception_4e/relu_3x3_reduce <- inception_4e/3x3_reduce/bn
I0720 22:37:05.251605 11675 net.cpp:346] inception_4e/relu_3x3_reduce -> inception_4e/3x3_reduce/bn (in-place)
I0720 22:37:05.251622 11675 net.cpp:97] Setting up inception_4e/relu_3x3_reduce
I0720 22:37:05.251718 11675 net.cpp:104] Top shape: 32 128 14 14 (802816)
I0720 22:37:05.251732 11675 layer_factory.hpp:78] Creating layer inception_4e/3x3
I0720 22:37:05.251745 11675 net.cpp:68] Creating Layer inception_4e/3x3
I0720 22:37:05.251761 11675 net.cpp:395] inception_4e/3x3 <- inception_4e/3x3_reduce/bn
I0720 22:37:05.251782 11675 net.cpp:357] inception_4e/3x3 -> inception_4e/3x3
I0720 22:37:05.251799 11675 net.cpp:97] Setting up inception_4e/3x3
I0720 22:37:05.253577 11675 net.cpp:104] Top shape: 32 192 7 7 (301056)
I0720 22:37:05.253597 11675 layer_factory.hpp:78] Creating layer inception_4e/3x3/bn
I0720 22:37:05.253608 11675 net.cpp:68] Creating Layer inception_4e/3x3/bn
I0720 22:37:05.253618 11675 net.cpp:395] inception_4e/3x3/bn <- inception_4e/3x3
I0720 22:37:05.253629 11675 net.cpp:357] inception_4e/3x3/bn -> inception_4e/3x3/bn
I0720 22:37:05.253641 11675 net.cpp:97] Setting up inception_4e/3x3/bn
I0720 22:37:05.253662 11675 net.cpp:104] Top shape: 32 192 7 7 (301056)
I0720 22:37:05.253684 11675 layer_factory.hpp:78] Creating layer inception_4e/relu_3x3
I0720 22:37:05.253701 11675 net.cpp:68] Creating Layer inception_4e/relu_3x3
I0720 22:37:05.253717 11675 net.cpp:395] inception_4e/relu_3x3 <- inception_4e/3x3/bn
I0720 22:37:05.253728 11675 net.cpp:346] inception_4e/relu_3x3 -> inception_4e/3x3/bn (in-place)
I0720 22:37:05.253743 11675 net.cpp:97] Setting up inception_4e/relu_3x3
I0720 22:37:05.253823 11675 net.cpp:104] Top shape: 32 192 7 7 (301056)
I0720 22:37:05.253842 11675 layer_factory.hpp:78] Creating layer inception_4e/double3x3_reduce
I0720 22:37:05.253860 11675 net.cpp:68] Creating Layer inception_4e/double3x3_reduce
I0720 22:37:05.253876 11675 net.cpp:395] inception_4e/double3x3_reduce <- inception_4d/output_inception_4d/output_0_split_2
I0720 22:37:05.253890 11675 net.cpp:357] inception_4e/double3x3_reduce -> inception_4e/double3x3_reduce
I0720 22:37:05.253909 11675 net.cpp:97] Setting up inception_4e/double3x3_reduce
I0720 22:37:05.254940 11675 net.cpp:104] Top shape: 32 192 14 14 (1204224)
I0720 22:37:05.254958 11675 layer_factory.hpp:78] Creating layer inception_4e/double3x3_reduce/bn
I0720 22:37:05.254971 11675 net.cpp:68] Creating Layer inception_4e/double3x3_reduce/bn
I0720 22:37:05.254981 11675 net.cpp:395] inception_4e/double3x3_reduce/bn <- inception_4e/double3x3_reduce
I0720 22:37:05.254990 11675 net.cpp:357] inception_4e/double3x3_reduce/bn -> inception_4e/double3x3_reduce/bn
I0720 22:37:05.255002 11675 net.cpp:97] Setting up inception_4e/double3x3_reduce/bn
I0720 22:37:05.255024 11675 net.cpp:104] Top shape: 32 192 14 14 (1204224)
I0720 22:37:05.255045 11675 layer_factory.hpp:78] Creating layer inception_4e/relu_double3x3_reduce
I0720 22:37:05.255061 11675 net.cpp:68] Creating Layer inception_4e/relu_double3x3_reduce
I0720 22:37:05.255077 11675 net.cpp:395] inception_4e/relu_double3x3_reduce <- inception_4e/double3x3_reduce/bn
I0720 22:37:05.255092 11675 net.cpp:346] inception_4e/relu_double3x3_reduce -> inception_4e/double3x3_reduce/bn (in-place)
I0720 22:37:05.255105 11675 net.cpp:97] Setting up inception_4e/relu_double3x3_reduce
I0720 22:37:05.255313 11675 net.cpp:104] Top shape: 32 192 14 14 (1204224)
I0720 22:37:05.255329 11675 layer_factory.hpp:78] Creating layer inception_4e/double3x3a
I0720 22:37:05.255342 11675 net.cpp:68] Creating Layer inception_4e/double3x3a
I0720 22:37:05.255350 11675 net.cpp:395] inception_4e/double3x3a <- inception_4e/double3x3_reduce/bn
I0720 22:37:05.255372 11675 net.cpp:357] inception_4e/double3x3a -> inception_4e/double3x3a
I0720 22:37:05.255386 11675 net.cpp:97] Setting up inception_4e/double3x3a
I0720 22:37:05.258424 11675 net.cpp:104] Top shape: 32 256 14 14 (1605632)
I0720 22:37:05.258442 11675 layer_factory.hpp:78] Creating layer inception_4e/double3x3a/bn
I0720 22:37:05.258455 11675 net.cpp:68] Creating Layer inception_4e/double3x3a/bn
I0720 22:37:05.258465 11675 net.cpp:395] inception_4e/double3x3a/bn <- inception_4e/double3x3a
I0720 22:37:05.258476 11675 net.cpp:357] inception_4e/double3x3a/bn -> inception_4e/double3x3a/bn
I0720 22:37:05.258486 11675 net.cpp:97] Setting up inception_4e/double3x3a/bn
I0720 22:37:05.258509 11675 net.cpp:104] Top shape: 32 256 14 14 (1605632)
I0720 22:37:05.258528 11675 layer_factory.hpp:78] Creating layer inception_4e/relu_double3x3a
I0720 22:37:05.258538 11675 net.cpp:68] Creating Layer inception_4e/relu_double3x3a
I0720 22:37:05.258553 11675 net.cpp:395] inception_4e/relu_double3x3a <- inception_4e/double3x3a/bn
I0720 22:37:05.258569 11675 net.cpp:346] inception_4e/relu_double3x3a -> inception_4e/double3x3a/bn (in-place)
I0720 22:37:05.258582 11675 net.cpp:97] Setting up inception_4e/relu_double3x3a
I0720 22:37:05.258662 11675 net.cpp:104] Top shape: 32 256 14 14 (1605632)
I0720 22:37:05.258676 11675 layer_factory.hpp:78] Creating layer inception_4e/double3x3b
I0720 22:37:05.258690 11675 net.cpp:68] Creating Layer inception_4e/double3x3b
I0720 22:37:05.258708 11675 net.cpp:395] inception_4e/double3x3b <- inception_4e/double3x3a/bn
I0720 22:37:05.258728 11675 net.cpp:357] inception_4e/double3x3b -> inception_4e/double3x3b
I0720 22:37:05.258746 11675 net.cpp:97] Setting up inception_4e/double3x3b
I0720 22:37:05.262691 11675 net.cpp:104] Top shape: 32 256 7 7 (401408)
I0720 22:37:05.262709 11675 layer_factory.hpp:78] Creating layer inception_4e/double3x3b/bn
I0720 22:37:05.262722 11675 net.cpp:68] Creating Layer inception_4e/double3x3b/bn
I0720 22:37:05.262732 11675 net.cpp:395] inception_4e/double3x3b/bn <- inception_4e/double3x3b
I0720 22:37:05.262742 11675 net.cpp:357] inception_4e/double3x3b/bn -> inception_4e/double3x3b/bn
I0720 22:37:05.262755 11675 net.cpp:97] Setting up inception_4e/double3x3b/bn
I0720 22:37:05.262776 11675 net.cpp:104] Top shape: 32 256 7 7 (401408)
I0720 22:37:05.262799 11675 layer_factory.hpp:78] Creating layer inception_4e/relu_double3x3b
I0720 22:37:05.262811 11675 net.cpp:68] Creating Layer inception_4e/relu_double3x3b
I0720 22:37:05.262828 11675 net.cpp:395] inception_4e/relu_double3x3b <- inception_4e/double3x3b/bn
I0720 22:37:05.262842 11675 net.cpp:346] inception_4e/relu_double3x3b -> inception_4e/double3x3b/bn (in-place)
I0720 22:37:05.262857 11675 net.cpp:97] Setting up inception_4e/relu_double3x3b
I0720 22:37:05.262938 11675 net.cpp:104] Top shape: 32 256 7 7 (401408)
I0720 22:37:05.262956 11675 layer_factory.hpp:78] Creating layer inception_4e/pool/3x3_s2
I0720 22:37:05.262979 11675 net.cpp:68] Creating Layer inception_4e/pool/3x3_s2
I0720 22:37:05.262995 11675 net.cpp:395] inception_4e/pool/3x3_s2 <- inception_4d/output_inception_4d/output_0_split_3
I0720 22:37:05.263012 11675 net.cpp:357] inception_4e/pool/3x3_s2 -> inception_4e/pool/3x3_s2
I0720 22:37:05.263027 11675 net.cpp:97] Setting up inception_4e/pool/3x3_s2
I0720 22:37:05.263110 11675 net.cpp:104] Top shape: 32 608 7 7 (953344)
I0720 22:37:05.263130 11675 layer_factory.hpp:78] Creating layer inception_4e/output
I0720 22:37:05.263149 11675 net.cpp:68] Creating Layer inception_4e/output
I0720 22:37:05.263161 11675 net.cpp:395] inception_4e/output <- inception_4e/3x3/bn
I0720 22:37:05.263172 11675 net.cpp:395] inception_4e/output <- inception_4e/double3x3b/bn
I0720 22:37:05.263190 11675 net.cpp:395] inception_4e/output <- inception_4e/pool/3x3_s2
I0720 22:37:05.263208 11675 net.cpp:357] inception_4e/output -> inception_4e/output
I0720 22:37:05.263229 11675 net.cpp:97] Setting up inception_4e/output
I0720 22:37:05.263241 11675 net.cpp:104] Top shape: 32 1056 7 7 (1655808)
I0720 22:37:05.263270 11675 layer_factory.hpp:78] Creating layer inception_4e/output_inception_4e/output_0_split
I0720 22:37:05.263288 11675 net.cpp:68] Creating Layer inception_4e/output_inception_4e/output_0_split
I0720 22:37:05.263303 11675 net.cpp:395] inception_4e/output_inception_4e/output_0_split <- inception_4e/output
I0720 22:37:05.263322 11675 net.cpp:357] inception_4e/output_inception_4e/output_0_split -> inception_4e/output_inception_4e/output_0_split_0
I0720 22:37:05.263339 11675 net.cpp:357] inception_4e/output_inception_4e/output_0_split -> inception_4e/output_inception_4e/output_0_split_1
I0720 22:37:05.263360 11675 net.cpp:357] inception_4e/output_inception_4e/output_0_split -> inception_4e/output_inception_4e/output_0_split_2
I0720 22:37:05.263378 11675 net.cpp:357] inception_4e/output_inception_4e/output_0_split -> inception_4e/output_inception_4e/output_0_split_3
I0720 22:37:05.263391 11675 net.cpp:97] Setting up inception_4e/output_inception_4e/output_0_split
I0720 22:37:05.263407 11675 net.cpp:104] Top shape: 32 1056 7 7 (1655808)
I0720 22:37:05.263420 11675 net.cpp:104] Top shape: 32 1056 7 7 (1655808)
I0720 22:37:05.263428 11675 net.cpp:104] Top shape: 32 1056 7 7 (1655808)
I0720 22:37:05.263440 11675 net.cpp:104] Top shape: 32 1056 7 7 (1655808)
I0720 22:37:05.263456 11675 layer_factory.hpp:78] Creating layer inception_5a/1x1
I0720 22:37:05.263476 11675 net.cpp:68] Creating Layer inception_5a/1x1
I0720 22:37:05.263489 11675 net.cpp:395] inception_5a/1x1 <- inception_4e/output_inception_4e/output_0_split_0
I0720 22:37:05.263499 11675 net.cpp:357] inception_5a/1x1 -> inception_5a/1x1
I0720 22:37:05.263512 11675 net.cpp:97] Setting up inception_5a/1x1
I0720 22:37:05.266116 11675 net.cpp:104] Top shape: 32 352 7 7 (551936)
I0720 22:37:05.266135 11675 layer_factory.hpp:78] Creating layer inception_5a/1x1/bn
I0720 22:37:05.266149 11675 net.cpp:68] Creating Layer inception_5a/1x1/bn
I0720 22:37:05.266157 11675 net.cpp:395] inception_5a/1x1/bn <- inception_5a/1x1
I0720 22:37:05.266167 11675 net.cpp:357] inception_5a/1x1/bn -> inception_5a/1x1/bn
I0720 22:37:05.266178 11675 net.cpp:97] Setting up inception_5a/1x1/bn
I0720 22:37:05.266201 11675 net.cpp:104] Top shape: 32 352 7 7 (551936)
I0720 22:37:05.266219 11675 layer_factory.hpp:78] Creating layer inception_5a/relu_1x1
I0720 22:37:05.266233 11675 net.cpp:68] Creating Layer inception_5a/relu_1x1
I0720 22:37:05.266249 11675 net.cpp:395] inception_5a/relu_1x1 <- inception_5a/1x1/bn
I0720 22:37:05.266263 11675 net.cpp:346] inception_5a/relu_1x1 -> inception_5a/1x1/bn (in-place)
I0720 22:37:05.266276 11675 net.cpp:97] Setting up inception_5a/relu_1x1
I0720 22:37:05.266489 11675 net.cpp:104] Top shape: 32 352 7 7 (551936)
I0720 22:37:05.266505 11675 layer_factory.hpp:78] Creating layer inception_5a/3x3_reduce
I0720 22:37:05.266515 11675 net.cpp:68] Creating Layer inception_5a/3x3_reduce
I0720 22:37:05.266523 11675 net.cpp:395] inception_5a/3x3_reduce <- inception_4e/output_inception_4e/output_0_split_1
I0720 22:37:05.266535 11675 net.cpp:357] inception_5a/3x3_reduce -> inception_5a/3x3_reduce
I0720 22:37:05.266546 11675 net.cpp:97] Setting up inception_5a/3x3_reduce
I0720 22:37:05.268101 11675 net.cpp:104] Top shape: 32 192 7 7 (301056)
I0720 22:37:05.268120 11675 layer_factory.hpp:78] Creating layer inception_5a/3x3_reduce/bn
I0720 22:37:05.268131 11675 net.cpp:68] Creating Layer inception_5a/3x3_reduce/bn
I0720 22:37:05.268139 11675 net.cpp:395] inception_5a/3x3_reduce/bn <- inception_5a/3x3_reduce
I0720 22:37:05.268151 11675 net.cpp:357] inception_5a/3x3_reduce/bn -> inception_5a/3x3_reduce/bn
I0720 22:37:05.268162 11675 net.cpp:97] Setting up inception_5a/3x3_reduce/bn
I0720 22:37:05.268183 11675 net.cpp:104] Top shape: 32 192 7 7 (301056)
I0720 22:37:05.268203 11675 layer_factory.hpp:78] Creating layer inception_5a/relu_3x3_reduce
I0720 22:37:05.268219 11675 net.cpp:68] Creating Layer inception_5a/relu_3x3_reduce
I0720 22:37:05.268235 11675 net.cpp:395] inception_5a/relu_3x3_reduce <- inception_5a/3x3_reduce/bn
I0720 22:37:05.268251 11675 net.cpp:346] inception_5a/relu_3x3_reduce -> inception_5a/3x3_reduce/bn (in-place)
I0720 22:37:05.268282 11675 net.cpp:97] Setting up inception_5a/relu_3x3_reduce
I0720 22:37:05.268365 11675 net.cpp:104] Top shape: 32 192 7 7 (301056)
I0720 22:37:05.268385 11675 layer_factory.hpp:78] Creating layer inception_5a/3x3
I0720 22:37:05.268404 11675 net.cpp:68] Creating Layer inception_5a/3x3
I0720 22:37:05.268416 11675 net.cpp:395] inception_5a/3x3 <- inception_5a/3x3_reduce/bn
I0720 22:37:05.268434 11675 net.cpp:357] inception_5a/3x3 -> inception_5a/3x3
I0720 22:37:05.268455 11675 net.cpp:97] Setting up inception_5a/3x3
I0720 22:37:05.272174 11675 net.cpp:104] Top shape: 32 320 7 7 (501760)
I0720 22:37:05.272193 11675 layer_factory.hpp:78] Creating layer inception_5a/3x3/bn
I0720 22:37:05.272204 11675 net.cpp:68] Creating Layer inception_5a/3x3/bn
I0720 22:37:05.272213 11675 net.cpp:395] inception_5a/3x3/bn <- inception_5a/3x3
I0720 22:37:05.272225 11675 net.cpp:357] inception_5a/3x3/bn -> inception_5a/3x3/bn
I0720 22:37:05.272236 11675 net.cpp:97] Setting up inception_5a/3x3/bn
I0720 22:37:05.272258 11675 net.cpp:104] Top shape: 32 320 7 7 (501760)
I0720 22:37:05.272279 11675 layer_factory.hpp:78] Creating layer inception_5a/relu_3x3
I0720 22:37:05.272292 11675 net.cpp:68] Creating Layer inception_5a/relu_3x3
I0720 22:37:05.272308 11675 net.cpp:395] inception_5a/relu_3x3 <- inception_5a/3x3/bn
I0720 22:37:05.272323 11675 net.cpp:346] inception_5a/relu_3x3 -> inception_5a/3x3/bn (in-place)
I0720 22:37:05.272336 11675 net.cpp:97] Setting up inception_5a/relu_3x3
I0720 22:37:05.272418 11675 net.cpp:104] Top shape: 32 320 7 7 (501760)
I0720 22:37:05.272436 11675 layer_factory.hpp:78] Creating layer inception_5a/double3x3_reduce
I0720 22:37:05.272456 11675 net.cpp:68] Creating Layer inception_5a/double3x3_reduce
I0720 22:37:05.272475 11675 net.cpp:395] inception_5a/double3x3_reduce <- inception_4e/output_inception_4e/output_0_split_2
I0720 22:37:05.272487 11675 net.cpp:357] inception_5a/double3x3_reduce -> inception_5a/double3x3_reduce
I0720 22:37:05.272505 11675 net.cpp:97] Setting up inception_5a/double3x3_reduce
I0720 22:37:05.273859 11675 net.cpp:104] Top shape: 32 160 7 7 (250880)
I0720 22:37:05.273876 11675 layer_factory.hpp:78] Creating layer inception_5a/double3x3_reduce/bn
I0720 22:37:05.273890 11675 net.cpp:68] Creating Layer inception_5a/double3x3_reduce/bn
I0720 22:37:05.273898 11675 net.cpp:395] inception_5a/double3x3_reduce/bn <- inception_5a/double3x3_reduce
I0720 22:37:05.273910 11675 net.cpp:357] inception_5a/double3x3_reduce/bn -> inception_5a/double3x3_reduce/bn
I0720 22:37:05.273921 11675 net.cpp:97] Setting up inception_5a/double3x3_reduce/bn
I0720 22:37:05.273942 11675 net.cpp:104] Top shape: 32 160 7 7 (250880)
I0720 22:37:05.273960 11675 layer_factory.hpp:78] Creating layer inception_5a/relu_double3x3_reduce
I0720 22:37:05.273972 11675 net.cpp:68] Creating Layer inception_5a/relu_double3x3_reduce
I0720 22:37:05.273982 11675 net.cpp:395] inception_5a/relu_double3x3_reduce <- inception_5a/double3x3_reduce/bn
I0720 22:37:05.274001 11675 net.cpp:346] inception_5a/relu_double3x3_reduce -> inception_5a/double3x3_reduce/bn (in-place)
I0720 22:37:05.274015 11675 net.cpp:97] Setting up inception_5a/relu_double3x3_reduce
I0720 22:37:05.274097 11675 net.cpp:104] Top shape: 32 160 7 7 (250880)
I0720 22:37:05.274113 11675 layer_factory.hpp:78] Creating layer inception_5a/double3x3a
I0720 22:37:05.274127 11675 net.cpp:68] Creating Layer inception_5a/double3x3a
I0720 22:37:05.274142 11675 net.cpp:395] inception_5a/double3x3a <- inception_5a/double3x3_reduce/bn
I0720 22:37:05.274163 11675 net.cpp:357] inception_5a/double3x3a -> inception_5a/double3x3a
I0720 22:37:05.274183 11675 net.cpp:97] Setting up inception_5a/double3x3a
I0720 22:37:05.276480 11675 net.cpp:104] Top shape: 32 224 7 7 (351232)
I0720 22:37:05.276499 11675 layer_factory.hpp:78] Creating layer inception_5a/double3x3a/bn
I0720 22:37:05.276512 11675 net.cpp:68] Creating Layer inception_5a/double3x3a/bn
I0720 22:37:05.276521 11675 net.cpp:395] inception_5a/double3x3a/bn <- inception_5a/double3x3a
I0720 22:37:05.276545 11675 net.cpp:357] inception_5a/double3x3a/bn -> inception_5a/double3x3a/bn
I0720 22:37:05.276562 11675 net.cpp:97] Setting up inception_5a/double3x3a/bn
I0720 22:37:05.276585 11675 net.cpp:104] Top shape: 32 224 7 7 (351232)
I0720 22:37:05.276604 11675 layer_factory.hpp:78] Creating layer inception_5a/relu_double3x3a
I0720 22:37:05.276620 11675 net.cpp:68] Creating Layer inception_5a/relu_double3x3a
I0720 22:37:05.276630 11675 net.cpp:395] inception_5a/relu_double3x3a <- inception_5a/double3x3a/bn
I0720 22:37:05.276650 11675 net.cpp:346] inception_5a/relu_double3x3a -> inception_5a/double3x3a/bn (in-place)
I0720 22:37:05.276669 11675 net.cpp:97] Setting up inception_5a/relu_double3x3a
I0720 22:37:05.276866 11675 net.cpp:104] Top shape: 32 224 7 7 (351232)
I0720 22:37:05.276882 11675 layer_factory.hpp:78] Creating layer inception_5a/double3x3b
I0720 22:37:05.276893 11675 net.cpp:68] Creating Layer inception_5a/double3x3b
I0720 22:37:05.276901 11675 net.cpp:395] inception_5a/double3x3b <- inception_5a/double3x3a/bn
I0720 22:37:05.276913 11675 net.cpp:357] inception_5a/double3x3b -> inception_5a/double3x3b
I0720 22:37:05.276926 11675 net.cpp:97] Setting up inception_5a/double3x3b
I0720 22:37:05.280010 11675 net.cpp:104] Top shape: 32 224 7 7 (351232)
I0720 22:37:05.280030 11675 layer_factory.hpp:78] Creating layer inception_5a/double3x3b/bn
I0720 22:37:05.280041 11675 net.cpp:68] Creating Layer inception_5a/double3x3b/bn
I0720 22:37:05.280051 11675 net.cpp:395] inception_5a/double3x3b/bn <- inception_5a/double3x3b
I0720 22:37:05.280061 11675 net.cpp:357] inception_5a/double3x3b/bn -> inception_5a/double3x3b/bn
I0720 22:37:05.280073 11675 net.cpp:97] Setting up inception_5a/double3x3b/bn
I0720 22:37:05.280094 11675 net.cpp:104] Top shape: 32 224 7 7 (351232)
I0720 22:37:05.280114 11675 layer_factory.hpp:78] Creating layer inception_5a/relu_double3x3b
I0720 22:37:05.280125 11675 net.cpp:68] Creating Layer inception_5a/relu_double3x3b
I0720 22:37:05.280139 11675 net.cpp:395] inception_5a/relu_double3x3b <- inception_5a/double3x3b/bn
I0720 22:37:05.280158 11675 net.cpp:346] inception_5a/relu_double3x3b -> inception_5a/double3x3b/bn (in-place)
I0720 22:37:05.280170 11675 net.cpp:97] Setting up inception_5a/relu_double3x3b
I0720 22:37:05.280251 11675 net.cpp:104] Top shape: 32 224 7 7 (351232)
I0720 22:37:05.280263 11675 layer_factory.hpp:78] Creating layer inception_5a/pool
I0720 22:37:05.280274 11675 layer_factory.cpp:51] CUDNN does not support padding or multiple tops. Using Caffe's own pooling layer.
I0720 22:37:05.280294 11675 net.cpp:68] Creating Layer inception_5a/pool
I0720 22:37:05.280311 11675 net.cpp:395] inception_5a/pool <- inception_4e/output_inception_4e/output_0_split_3
I0720 22:37:05.280330 11675 net.cpp:357] inception_5a/pool -> inception_5a/pool
I0720 22:37:05.280345 11675 net.cpp:97] Setting up inception_5a/pool
I0720 22:37:05.280356 11675 net.cpp:104] Top shape: 32 1056 7 7 (1655808)
I0720 22:37:05.280371 11675 layer_factory.hpp:78] Creating layer inception_5a/pool_proj
I0720 22:37:05.280392 11675 net.cpp:68] Creating Layer inception_5a/pool_proj
I0720 22:37:05.280403 11675 net.cpp:395] inception_5a/pool_proj <- inception_5a/pool
I0720 22:37:05.280421 11675 net.cpp:357] inception_5a/pool_proj -> inception_5a/pool_proj
I0720 22:37:05.280438 11675 net.cpp:97] Setting up inception_5a/pool_proj
I0720 22:37:05.281569 11675 net.cpp:104] Top shape: 32 128 7 7 (200704)
I0720 22:37:05.281587 11675 layer_factory.hpp:78] Creating layer inception_5a/pool_proj/bn
I0720 22:37:05.281599 11675 net.cpp:68] Creating Layer inception_5a/pool_proj/bn
I0720 22:37:05.281608 11675 net.cpp:395] inception_5a/pool_proj/bn <- inception_5a/pool_proj
I0720 22:37:05.281620 11675 net.cpp:357] inception_5a/pool_proj/bn -> inception_5a/pool_proj/bn
I0720 22:37:05.281630 11675 net.cpp:97] Setting up inception_5a/pool_proj/bn
I0720 22:37:05.281651 11675 net.cpp:104] Top shape: 32 128 7 7 (200704)
I0720 22:37:05.281671 11675 layer_factory.hpp:78] Creating layer inception_5a/relu_pool_proj
I0720 22:37:05.281700 11675 net.cpp:68] Creating Layer inception_5a/relu_pool_proj
I0720 22:37:05.281715 11675 net.cpp:395] inception_5a/relu_pool_proj <- inception_5a/pool_proj/bn
I0720 22:37:05.281730 11675 net.cpp:346] inception_5a/relu_pool_proj -> inception_5a/pool_proj/bn (in-place)
I0720 22:37:05.281749 11675 net.cpp:97] Setting up inception_5a/relu_pool_proj
I0720 22:37:05.281833 11675 net.cpp:104] Top shape: 32 128 7 7 (200704)
I0720 22:37:05.281852 11675 layer_factory.hpp:78] Creating layer inception_5a/output
I0720 22:37:05.281869 11675 net.cpp:68] Creating Layer inception_5a/output
I0720 22:37:05.281880 11675 net.cpp:395] inception_5a/output <- inception_5a/1x1/bn
I0720 22:37:05.281895 11675 net.cpp:395] inception_5a/output <- inception_5a/3x3/bn
I0720 22:37:05.281913 11675 net.cpp:395] inception_5a/output <- inception_5a/double3x3b/bn
I0720 22:37:05.281929 11675 net.cpp:395] inception_5a/output <- inception_5a/pool_proj/bn
I0720 22:37:05.281949 11675 net.cpp:357] inception_5a/output -> inception_5a/output
I0720 22:37:05.281962 11675 net.cpp:97] Setting up inception_5a/output
I0720 22:37:05.281977 11675 net.cpp:104] Top shape: 32 1024 7 7 (1605632)
I0720 22:37:05.281994 11675 layer_factory.hpp:78] Creating layer inception_5a/output_inception_5a/output_0_split
I0720 22:37:05.282007 11675 net.cpp:68] Creating Layer inception_5a/output_inception_5a/output_0_split
I0720 22:37:05.282019 11675 net.cpp:395] inception_5a/output_inception_5a/output_0_split <- inception_5a/output
I0720 22:37:05.282040 11675 net.cpp:357] inception_5a/output_inception_5a/output_0_split -> inception_5a/output_inception_5a/output_0_split_0
I0720 22:37:05.282055 11675 net.cpp:357] inception_5a/output_inception_5a/output_0_split -> inception_5a/output_inception_5a/output_0_split_1
I0720 22:37:05.282076 11675 net.cpp:357] inception_5a/output_inception_5a/output_0_split -> inception_5a/output_inception_5a/output_0_split_2
I0720 22:37:05.282095 11675 net.cpp:357] inception_5a/output_inception_5a/output_0_split -> inception_5a/output_inception_5a/output_0_split_3
I0720 22:37:05.282107 11675 net.cpp:97] Setting up inception_5a/output_inception_5a/output_0_split
I0720 22:37:05.282116 11675 net.cpp:104] Top shape: 32 1024 7 7 (1605632)
I0720 22:37:05.282126 11675 net.cpp:104] Top shape: 32 1024 7 7 (1605632)
I0720 22:37:05.282141 11675 net.cpp:104] Top shape: 32 1024 7 7 (1605632)
I0720 22:37:05.282152 11675 net.cpp:104] Top shape: 32 1024 7 7 (1605632)
I0720 22:37:05.282160 11675 layer_factory.hpp:78] Creating layer inception_5b/1x1
I0720 22:37:05.282176 11675 net.cpp:68] Creating Layer inception_5b/1x1
I0720 22:37:05.282192 11675 net.cpp:395] inception_5b/1x1 <- inception_5a/output_inception_5a/output_0_split_0
I0720 22:37:05.282213 11675 net.cpp:357] inception_5b/1x1 -> inception_5b/1x1
I0720 22:37:05.282227 11675 net.cpp:97] Setting up inception_5b/1x1
I0720 22:37:05.284757 11675 net.cpp:104] Top shape: 32 352 7 7 (551936)
I0720 22:37:05.284775 11675 layer_factory.hpp:78] Creating layer inception_5b/1x1/bn
I0720 22:37:05.284788 11675 net.cpp:68] Creating Layer inception_5b/1x1/bn
I0720 22:37:05.284797 11675 net.cpp:395] inception_5b/1x1/bn <- inception_5b/1x1
I0720 22:37:05.284808 11675 net.cpp:357] inception_5b/1x1/bn -> inception_5b/1x1/bn
I0720 22:37:05.284819 11675 net.cpp:97] Setting up inception_5b/1x1/bn
I0720 22:37:05.284842 11675 net.cpp:104] Top shape: 32 352 7 7 (551936)
I0720 22:37:05.284860 11675 layer_factory.hpp:78] Creating layer inception_5b/relu_1x1
I0720 22:37:05.284873 11675 net.cpp:68] Creating Layer inception_5b/relu_1x1
I0720 22:37:05.284888 11675 net.cpp:395] inception_5b/relu_1x1 <- inception_5b/1x1/bn
I0720 22:37:05.284904 11675 net.cpp:346] inception_5b/relu_1x1 -> inception_5b/1x1/bn (in-place)
I0720 22:37:05.284916 11675 net.cpp:97] Setting up inception_5b/relu_1x1
I0720 22:37:05.285126 11675 net.cpp:104] Top shape: 32 352 7 7 (551936)
I0720 22:37:05.285142 11675 layer_factory.hpp:78] Creating layer inception_5b/3x3_reduce
I0720 22:37:05.285154 11675 net.cpp:68] Creating Layer inception_5b/3x3_reduce
I0720 22:37:05.285173 11675 net.cpp:395] inception_5b/3x3_reduce <- inception_5a/output_inception_5a/output_0_split_1
I0720 22:37:05.285186 11675 net.cpp:357] inception_5b/3x3_reduce -> inception_5b/3x3_reduce
I0720 22:37:05.285199 11675 net.cpp:97] Setting up inception_5b/3x3_reduce
I0720 22:37:05.286717 11675 net.cpp:104] Top shape: 32 192 7 7 (301056)
I0720 22:37:05.286736 11675 layer_factory.hpp:78] Creating layer inception_5b/3x3_reduce/bn
I0720 22:37:05.286748 11675 net.cpp:68] Creating Layer inception_5b/3x3_reduce/bn
I0720 22:37:05.286758 11675 net.cpp:395] inception_5b/3x3_reduce/bn <- inception_5b/3x3_reduce
I0720 22:37:05.286769 11675 net.cpp:357] inception_5b/3x3_reduce/bn -> inception_5b/3x3_reduce/bn
I0720 22:37:05.286782 11675 net.cpp:97] Setting up inception_5b/3x3_reduce/bn
I0720 22:37:05.286804 11675 net.cpp:104] Top shape: 32 192 7 7 (301056)
I0720 22:37:05.286823 11675 layer_factory.hpp:78] Creating layer inception_5b/relu_3x3_reduce
I0720 22:37:05.286835 11675 net.cpp:68] Creating Layer inception_5b/relu_3x3_reduce
I0720 22:37:05.286851 11675 net.cpp:395] inception_5b/relu_3x3_reduce <- inception_5b/3x3_reduce/bn
I0720 22:37:05.286865 11675 net.cpp:346] inception_5b/relu_3x3_reduce -> inception_5b/3x3_reduce/bn (in-place)
I0720 22:37:05.286880 11675 net.cpp:97] Setting up inception_5b/relu_3x3_reduce
I0720 22:37:05.286960 11675 net.cpp:104] Top shape: 32 192 7 7 (301056)
I0720 22:37:05.286978 11675 layer_factory.hpp:78] Creating layer inception_5b/3x3
I0720 22:37:05.286998 11675 net.cpp:68] Creating Layer inception_5b/3x3
I0720 22:37:05.287016 11675 net.cpp:395] inception_5b/3x3 <- inception_5b/3x3_reduce/bn
I0720 22:37:05.287034 11675 net.cpp:357] inception_5b/3x3 -> inception_5b/3x3
I0720 22:37:05.287050 11675 net.cpp:97] Setting up inception_5b/3x3
I0720 22:37:05.290772 11675 net.cpp:104] Top shape: 32 320 7 7 (501760)
I0720 22:37:05.290792 11675 layer_factory.hpp:78] Creating layer inception_5b/3x3/bn
I0720 22:37:05.290805 11675 net.cpp:68] Creating Layer inception_5b/3x3/bn
I0720 22:37:05.290814 11675 net.cpp:395] inception_5b/3x3/bn <- inception_5b/3x3
I0720 22:37:05.290824 11675 net.cpp:357] inception_5b/3x3/bn -> inception_5b/3x3/bn
I0720 22:37:05.290837 11675 net.cpp:97] Setting up inception_5b/3x3/bn
I0720 22:37:05.290858 11675 net.cpp:104] Top shape: 32 320 7 7 (501760)
I0720 22:37:05.290879 11675 layer_factory.hpp:78] Creating layer inception_5b/relu_3x3
I0720 22:37:05.290894 11675 net.cpp:68] Creating Layer inception_5b/relu_3x3
I0720 22:37:05.290910 11675 net.cpp:395] inception_5b/relu_3x3 <- inception_5b/3x3/bn
I0720 22:37:05.290923 11675 net.cpp:346] inception_5b/relu_3x3 -> inception_5b/3x3/bn (in-place)
I0720 22:37:05.290938 11675 net.cpp:97] Setting up inception_5b/relu_3x3
I0720 22:37:05.291018 11675 net.cpp:104] Top shape: 32 320 7 7 (501760)
I0720 22:37:05.291036 11675 layer_factory.hpp:78] Creating layer inception_5b/double3x3_reduce
I0720 22:37:05.291055 11675 net.cpp:68] Creating Layer inception_5b/double3x3_reduce
I0720 22:37:05.291071 11675 net.cpp:395] inception_5b/double3x3_reduce <- inception_5a/output_inception_5a/output_0_split_2
I0720 22:37:05.291087 11675 net.cpp:357] inception_5b/double3x3_reduce -> inception_5b/double3x3_reduce
I0720 22:37:05.291105 11675 net.cpp:97] Setting up inception_5b/double3x3_reduce
I0720 22:37:05.292637 11675 net.cpp:104] Top shape: 32 192 7 7 (301056)
I0720 22:37:05.292655 11675 layer_factory.hpp:78] Creating layer inception_5b/double3x3_reduce/bn
I0720 22:37:05.292668 11675 net.cpp:68] Creating Layer inception_5b/double3x3_reduce/bn
I0720 22:37:05.292678 11675 net.cpp:395] inception_5b/double3x3_reduce/bn <- inception_5b/double3x3_reduce
I0720 22:37:05.292690 11675 net.cpp:357] inception_5b/double3x3_reduce/bn -> inception_5b/double3x3_reduce/bn
I0720 22:37:05.292702 11675 net.cpp:97] Setting up inception_5b/double3x3_reduce/bn
I0720 22:37:05.292727 11675 net.cpp:104] Top shape: 32 192 7 7 (301056)
I0720 22:37:05.292743 11675 layer_factory.hpp:78] Creating layer inception_5b/relu_double3x3_reduce
I0720 22:37:05.292754 11675 net.cpp:68] Creating Layer inception_5b/relu_double3x3_reduce
I0720 22:37:05.292783 11675 net.cpp:395] inception_5b/relu_double3x3_reduce <- inception_5b/double3x3_reduce/bn
I0720 22:37:05.292798 11675 net.cpp:346] inception_5b/relu_double3x3_reduce -> inception_5b/double3x3_reduce/bn (in-place)
I0720 22:37:05.292815 11675 net.cpp:97] Setting up inception_5b/relu_double3x3_reduce
I0720 22:37:05.292898 11675 net.cpp:104] Top shape: 32 192 7 7 (301056)
I0720 22:37:05.292917 11675 layer_factory.hpp:78] Creating layer inception_5b/double3x3a
I0720 22:37:05.292937 11675 net.cpp:68] Creating Layer inception_5b/double3x3a
I0720 22:37:05.292953 11675 net.cpp:395] inception_5b/double3x3a <- inception_5b/double3x3_reduce/bn
I0720 22:37:05.292965 11675 net.cpp:357] inception_5b/double3x3a -> inception_5b/double3x3a
I0720 22:37:05.292985 11675 net.cpp:97] Setting up inception_5b/double3x3a
I0720 22:37:05.295687 11675 net.cpp:104] Top shape: 32 224 7 7 (351232)
I0720 22:37:05.295709 11675 layer_factory.hpp:78] Creating layer inception_5b/double3x3a/bn
I0720 22:37:05.295722 11675 net.cpp:68] Creating Layer inception_5b/double3x3a/bn
I0720 22:37:05.295732 11675 net.cpp:395] inception_5b/double3x3a/bn <- inception_5b/double3x3a
I0720 22:37:05.295742 11675 net.cpp:357] inception_5b/double3x3a/bn -> inception_5b/double3x3a/bn
I0720 22:37:05.295755 11675 net.cpp:97] Setting up inception_5b/double3x3a/bn
I0720 22:37:05.295775 11675 net.cpp:104] Top shape: 32 224 7 7 (351232)
I0720 22:37:05.295796 11675 layer_factory.hpp:78] Creating layer inception_5b/relu_double3x3a
I0720 22:37:05.295807 11675 net.cpp:68] Creating Layer inception_5b/relu_double3x3a
I0720 22:37:05.295821 11675 net.cpp:395] inception_5b/relu_double3x3a <- inception_5b/double3x3a/bn
I0720 22:37:05.295838 11675 net.cpp:346] inception_5b/relu_double3x3a -> inception_5b/double3x3a/bn (in-place)
I0720 22:37:05.295851 11675 net.cpp:97] Setting up inception_5b/relu_double3x3a
I0720 22:37:05.296057 11675 net.cpp:104] Top shape: 32 224 7 7 (351232)
I0720 22:37:05.296073 11675 layer_factory.hpp:78] Creating layer inception_5b/double3x3b
I0720 22:37:05.296085 11675 net.cpp:68] Creating Layer inception_5b/double3x3b
I0720 22:37:05.296094 11675 net.cpp:395] inception_5b/double3x3b <- inception_5b/double3x3a/bn
I0720 22:37:05.296104 11675 net.cpp:357] inception_5b/double3x3b -> inception_5b/double3x3b
I0720 22:37:05.296115 11675 net.cpp:97] Setting up inception_5b/double3x3b
I0720 22:37:05.299459 11675 net.cpp:104] Top shape: 32 224 7 7 (351232)
I0720 22:37:05.299487 11675 layer_factory.hpp:78] Creating layer inception_5b/double3x3b/bn
I0720 22:37:05.299506 11675 net.cpp:68] Creating Layer inception_5b/double3x3b/bn
I0720 22:37:05.299523 11675 net.cpp:395] inception_5b/double3x3b/bn <- inception_5b/double3x3b
I0720 22:37:05.299541 11675 net.cpp:357] inception_5b/double3x3b/bn -> inception_5b/double3x3b/bn
I0720 22:37:05.299558 11675 net.cpp:97] Setting up inception_5b/double3x3b/bn
I0720 22:37:05.299577 11675 net.cpp:104] Top shape: 32 224 7 7 (351232)
I0720 22:37:05.299589 11675 layer_factory.hpp:78] Creating layer inception_5b/relu_double3x3b
I0720 22:37:05.299598 11675 net.cpp:68] Creating Layer inception_5b/relu_double3x3b
I0720 22:37:05.299607 11675 net.cpp:395] inception_5b/relu_double3x3b <- inception_5b/double3x3b/bn
I0720 22:37:05.299618 11675 net.cpp:346] inception_5b/relu_double3x3b -> inception_5b/double3x3b/bn (in-place)
I0720 22:37:05.299628 11675 net.cpp:97] Setting up inception_5b/relu_double3x3b
I0720 22:37:05.299685 11675 net.cpp:104] Top shape: 32 224 7 7 (351232)
I0720 22:37:05.299700 11675 layer_factory.hpp:78] Creating layer inception_5b/pool
I0720 22:37:05.299710 11675 layer_factory.cpp:51] CUDNN does not support padding or multiple tops. Using Caffe's own pooling layer.
I0720 22:37:05.299721 11675 net.cpp:68] Creating Layer inception_5b/pool
I0720 22:37:05.299729 11675 net.cpp:395] inception_5b/pool <- inception_5a/output_inception_5a/output_0_split_3
I0720 22:37:05.299739 11675 net.cpp:357] inception_5b/pool -> inception_5b/pool
I0720 22:37:05.299751 11675 net.cpp:97] Setting up inception_5b/pool
I0720 22:37:05.299772 11675 net.cpp:104] Top shape: 32 1024 7 7 (1605632)
I0720 22:37:05.299780 11675 layer_factory.hpp:78] Creating layer inception_5b/pool_proj
I0720 22:37:05.299793 11675 net.cpp:68] Creating Layer inception_5b/pool_proj
I0720 22:37:05.299800 11675 net.cpp:395] inception_5b/pool_proj <- inception_5b/pool
I0720 22:37:05.299810 11675 net.cpp:357] inception_5b/pool_proj -> inception_5b/pool_proj
I0720 22:37:05.299821 11675 net.cpp:97] Setting up inception_5b/pool_proj
I0720 22:37:05.300971 11675 net.cpp:104] Top shape: 32 128 7 7 (200704)
I0720 22:37:05.300989 11675 layer_factory.hpp:78] Creating layer inception_5b/pool_proj/bn
I0720 22:37:05.301030 11675 net.cpp:68] Creating Layer inception_5b/pool_proj/bn
I0720 22:37:05.301041 11675 net.cpp:395] inception_5b/pool_proj/bn <- inception_5b/pool_proj
I0720 22:37:05.301053 11675 net.cpp:357] inception_5b/pool_proj/bn -> inception_5b/pool_proj/bn
I0720 22:37:05.301064 11675 net.cpp:97] Setting up inception_5b/pool_proj/bn
I0720 22:37:05.301079 11675 net.cpp:104] Top shape: 32 128 7 7 (200704)
I0720 22:37:05.301090 11675 layer_factory.hpp:78] Creating layer inception_5b/relu_pool_proj
I0720 22:37:05.301100 11675 net.cpp:68] Creating Layer inception_5b/relu_pool_proj
I0720 22:37:05.301108 11675 net.cpp:395] inception_5b/relu_pool_proj <- inception_5b/pool_proj/bn
I0720 22:37:05.301117 11675 net.cpp:346] inception_5b/relu_pool_proj -> inception_5b/pool_proj/bn (in-place)
I0720 22:37:05.301127 11675 net.cpp:97] Setting up inception_5b/relu_pool_proj
I0720 22:37:05.301184 11675 net.cpp:104] Top shape: 32 128 7 7 (200704)
I0720 22:37:05.301195 11675 layer_factory.hpp:78] Creating layer inception_5b/output
I0720 22:37:05.301204 11675 net.cpp:68] Creating Layer inception_5b/output
I0720 22:37:05.301213 11675 net.cpp:395] inception_5b/output <- inception_5b/1x1/bn
I0720 22:37:05.301223 11675 net.cpp:395] inception_5b/output <- inception_5b/3x3/bn
I0720 22:37:05.301231 11675 net.cpp:395] inception_5b/output <- inception_5b/double3x3b/bn
I0720 22:37:05.301240 11675 net.cpp:395] inception_5b/output <- inception_5b/pool_proj/bn
I0720 22:37:05.301249 11675 net.cpp:357] inception_5b/output -> inception_5b/output
I0720 22:37:05.301260 11675 net.cpp:97] Setting up inception_5b/output
I0720 22:37:05.301268 11675 net.cpp:104] Top shape: 32 1024 7 7 (1605632)
I0720 22:37:05.301276 11675 layer_factory.hpp:78] Creating layer pool5/7x7_s1
I0720 22:37:05.301287 11675 net.cpp:68] Creating Layer pool5/7x7_s1
I0720 22:37:05.301295 11675 net.cpp:395] pool5/7x7_s1 <- inception_5b/output
I0720 22:37:05.301306 11675 net.cpp:357] pool5/7x7_s1 -> pool5/7x7_s1
I0720 22:37:05.301316 11675 net.cpp:97] Setting up pool5/7x7_s1
I0720 22:37:05.301367 11675 net.cpp:104] Top shape: 32 1024 1 1 (32768)
I0720 22:37:05.301378 11675 layer_factory.hpp:78] Creating layer loss3/classifier
I0720 22:37:05.301391 11675 net.cpp:68] Creating Layer loss3/classifier
I0720 22:37:05.301399 11675 net.cpp:395] loss3/classifier <- pool5/7x7_s1
I0720 22:37:05.301411 11675 net.cpp:357] loss3/classifier -> loss3/classifier
I0720 22:37:05.301422 11675 net.cpp:97] Setting up loss3/classifier
I0720 22:37:05.307782 11675 net.cpp:104] Top shape: 32 1000 1 1 (32000)
I0720 22:37:05.307802 11675 layer_factory.hpp:78] Creating layer loss3/loss3
I0720 22:37:05.307813 11675 net.cpp:68] Creating Layer loss3/loss3
I0720 22:37:05.307821 11675 net.cpp:395] loss3/loss3 <- loss3/classifier
I0720 22:37:05.307832 11675 net.cpp:395] loss3/loss3 <- label_data_1_split_2
I0720 22:37:05.307840 11675 net.cpp:357] loss3/loss3 -> loss3/loss3
I0720 22:37:05.307852 11675 net.cpp:97] Setting up loss3/loss3
I0720 22:37:05.307862 11675 layer_factory.hpp:78] Creating layer loss3/loss3
I0720 22:37:05.308082 11675 net.cpp:104] Top shape: 1 1 1 1 (1)
I0720 22:37:05.308099 11675 net.cpp:110]     with loss weight 1
I0720 22:37:05.308115 11675 net.cpp:171] loss3/loss3 needs backward computation.
I0720 22:37:05.308122 11675 net.cpp:171] loss3/classifier needs backward computation.
I0720 22:37:05.308130 11675 net.cpp:171] pool5/7x7_s1 needs backward computation.
I0720 22:37:05.308152 11675 net.cpp:171] inception_5b/output needs backward computation.
…
