…
I0707 08:38:41.124790 27914 net.cpp:276] The NetState phase (0) differed from the phase (1) specified by a rule in layer loss3/top-1
I0707 08:38:41.124806 27914 net.cpp:276] The NetState phase (0) differed from the phase (1) specified by a rule in layer loss3/top-5
I0707 08:38:41.125738 27914 net.cpp:39] Initializing net from parameters: 
name: "InceptionNetwork_bn"
layers {
  top: "data"
  top: "label"
  name: "data"
  type: DATA
  data_param {
    source: "/media/data0/image/ilsvrc12/ilsvrc12_train_lmdb"
    batch_size: 32
    backend: LMDB
  }
  include {
    phase: TRAIN
  }
  transform_param {
    mirror: true
    crop_size: 224
    mean_file: "/media/data1/image/ilsvrc12/imagenet_mean.binaryproto"
  }
}
layers {
  bottom: "data"
  top: "conv1/7x7_s2"
  name: "conv1/7x7_s2"
  type: CONVOLUTION
  blobs_lr: 1
  weight_decay: 1
  convolution_param {
    num_output: 64
    bias_term: false
    pad: 3
    kernel_size: 7
    stride: 2
    weight_filler {
      type: "xavier"
    }
  }
}
layers {
  bottom: "conv1/7x7_s2"
  top: "conv1/7x7_s2/bn"
  name: "conv1/7x7_s2/bn"
  type: BN
  blobs_lr: 1
  blobs_lr: 1
  weight_decay: 0
  weight_decay: 0
  bn_param {
    scale_filler {
      type: "constant"
      value: 1
    }
    shift_filler {
      type: "constant"
      value: 0
    }
  }
}
layers {
  bottom: "conv1/7x7_s2/bn"
  top: "conv1/7x7_s2/bn"
  name: "conv1/relu_7x7"
  type: RELU
}
layers {
  bottom: "conv1/7x7_s2/bn"
  top: "pool1/3x3_s2"
  name: "pool1/3x3_s2"
  type: POOLING
  pooling_param {
    pool: MAX
    kernel_size: 3
    stride: 2
  }
}
layers {
  bottom: "pool1/3x3_s2"
  top: "conv2/3x3_reduce"
  name: "conv2/3x3_reduce"
  type: CONVOLUTION
  blobs_lr: 1
  weight_decay: 1
  convolution_param {
    num_output: 64
    bias_term: false
    kernel_size: 1
    weight_filler {
      type: "xavier"
    }
  }
}
layers {
  bottom: "conv2/3x3_reduce"
  top: "conv2/3x3_reduce/bn"
  name: "conv2/3x3_reduce/bn"
  type: BN
  blobs_lr: 1
  blobs_lr: 1
  weight_decay: 0
  weight_decay: 0
  bn_param {
    scale_filler {
      type: "constant"
      value: 1
    }
    shift_filler {
      type: "constant"
      value: 0
    }
  }
}
layers {
  bottom: "conv2/3x3_reduce/bn"
  top: "conv2/3x3_reduce/bn"
  name: "conv2/relu_3x3_reduce"
  type: RELU
}
layers {
  bottom: "conv2/3x3_reduce/bn"
  top: "conv2/3x3"
  name: "conv2/3x3"
  type: CONVOLUTION
  blobs_lr: 1
  weight_decay: 1
  convolution_param {
    num_output: 192
    bias_term: false
    pad: 1
    kernel_size: 3
    weight_filler {
      type: "xavier"
    }
  }
}
layers {
  bottom: "conv2/3x3"
  top: "conv2/3x3/bn"
  name: "conv2/3x3/bn"
  type: BN
  blobs_lr: 1
  blobs_lr: 1
  weight_decay: 0
  weight_decay: 0
  bn_param {
    scale_filler {
      type: "constant"
      value: 1
    }
    shift_filler {
      type: "constant"
      value: 0
    }
  }
}
layers {
  bottom: "conv2/3x3/bn"
  top: "conv2/3x3/bn"
  name: "conv2/relu_3x3"
  type: RELU
}
layers {
  bottom: "conv2/3x3/bn"
  top: "pool2/3x3_s2"
  name: "pool2/3x3_s2"
  type: POOLING
  pooling_param {
    pool: MAX
    kernel_size: 3
    stride: 2
  }
}
layers {
  bottom: "pool2/3x3_s2"
  top: "inception_3a/1x1"
  name: "inception_3a/1x1"
  type: CONVOLUTION
  blobs_lr: 1
  weight_decay: 1
  convolution_param {
    num_output: 64
    bias_term: false
    kernel_size: 1
    weight_filler {
      type: "xavier"
    }
  }
}
layers {
  bottom: "inception_3a/1x1"
  top: "inception_3a/1x1/bn"
  name: "inception_3a/1x1/bn"
  type: BN
  blobs_lr: 1
  blobs_lr: 1
  weight_decay: 0
  weight_decay: 0
  bn_param {
    scale_filler {
      type: "constant"
      value: 1
    }
    shift_filler {
      type: "constant"
      value: 0
    }
  }
}
layers {
  bottom: "inception_3a/1x1/bn"
  top: "inception_3a/1x1/bn"
  name: "inception_3a/relu_1x1"
  type: RELU
}
layers {
  bottom: "pool2/3x3_s2"
  top: "inception_3a/3x3_reduce"
  name: "inception_3a/3x3_reduce"
  type: CONVOLUTION
  blobs_lr: 1
  weight_decay: 1
  convolution_param {
    num_output: 64
    bias_term: false
    kernel_size: 1
    weight_filler {
      type: "xavier"
    }
  }
}
layers {
  bottom: "inception_3a/3x3_reduce"
  top: "inception_3a/3x3_reduce/bn"
  name: "inception_3a/3x3_reduce/bn"
  type: BN
  blobs_lr: 1
  blobs_lr: 1
  weight_decay: 0
  weight_decay: 0
  bn_param {
    scale_filler {
      type: "constant"
      value: 1
    }
    shift_filler {
      type: "constant"
      value: 0
    }
  }
}
layers {
  bottom: "inception_3a/3x3_reduce/bn"
  top: "inception_3a/3x3_reduce/bn"
  name: "inception_3a/relu_3x3_reduce"
  type: RELU
}
layers {
  bottom: "inception_3a/3x3_reduce/bn"
  top: "inception_3a/3x3"
  name: "inception_3a/3x3"
  type: CONVOLUTION
  blobs_lr: 1
  weight_decay: 1
  convolution_param {
    num_output: 64
    bias_term: false
    pad: 1
    kernel_size: 3
    weight_filler {
      type: "xavier"
    }
  }
}
layers {
  bottom: "inception_3a/3x3"
  top: "inception_3a/3x3/bn"
  name: "inception_3a/3x3/bn"
  type: BN
  blobs_lr: 1
  blobs_lr: 1
  weight_decay: 0
  weight_decay: 0
  bn_param {
    scale_filler {
      type: "constant"
      value: 1
    }
    shift_filler {
      type: "constant"
      value: 0
    }
  }
}
layers {
  bottom: "inception_3a/3x3/bn"
  top: "inception_3a/3x3/bn"
  name: "inception_3a/relu_3x3"
  type: RELU
}
layers {
  bottom: "pool2/3x3_s2"
  top: "inception_3a/double3x3_reduce"
  name: "inception_3a/double3x3_reduce"
  type: CONVOLUTION
  blobs_lr: 1
  weight_decay: 1
  convolution_param {
    num_output: 64
    bias_term: false
    kernel_size: 1
    weight_filler {
      type: "xavier"
    }
  }
}
layers {
  bottom: "inception_3a/double3x3_reduce"
  top: "inception_3a/double3x3_reduce/bn"
  name: "inception_3a/double3x3_reduce/bn"
  type: BN
  blobs_lr: 1
  blobs_lr: 1
  weight_decay: 0
  weight_decay: 0
  bn_param {
    scale_filler {
      type: "constant"
      value: 1
    }
    shift_filler {
      type: "constant"
      value: 0
    }
  }
}
layers {
  bottom: "inception_3a/double3x3_reduce/bn"
  top: "inception_3a/double3x3_reduce/bn"
  name: "inception_3a/relu_double3x3_reduce"
  type: RELU
}
layers {
  bottom: "inception_3a/double3x3_reduce/bn"
  top: "inception_3a/double3x3a"
  name: "inception_3a/double3x3a"
  type: CONVOLUTION
  blobs_lr: 1
  weight_decay: 1
  convolution_param {
    num_output: 96
    bias_term: false
    pad: 1
    kernel_size: 3
    weight_filler {
      type: "xavier"
    }
  }
}
layers {
  bottom: "inception_3a/double3x3a"
  top: "inception_3a/double3x3a/bn"
  name: "inception_3a/double3x3a/bn"
  type: BN
  blobs_lr: 1
  blobs_lr: 1
  weight_decay: 0
  weight_decay: 0
  bn_param {
    scale_filler {
      type: "constant"
      value: 1
    }
    shift_filler {
      type: "constant"
      value: 0
    }
  }
}
layers {
  bottom: "inception_3a/double3x3a/bn"
  top: "inception_3a/double3x3a/bn"
  name: "inception_3a/relu_double3x3a"
  type: RELU
}
layers {
  bottom: "inception_3a/double3x3a/bn"
  top: "inception_3a/double3x3b"
  name: "inception_3a/double3x3b"
  type: CONVOLUTION
  blobs_lr: 1
  weight_decay: 1
  convolution_param {
    num_output: 96
    bias_term: false
    pad: 1
    kernel_size: 3
    weight_filler {
      type: "xavier"
    }
  }
}
layers {
  bottom: "inception_3a/double3x3b"
  top: "inception_3a/double3x3b/bn"
  name: "inception_3a/double3x3b/bn"
  type: BN
  blobs_lr: 1
  blobs_lr: 1
  weight_decay: 0
  weight_decay: 0
  bn_param {
    scale_filler {
      type: "constant"
      value: 1
    }
    shift_filler {
      type: "constant"
      value: 0
    }
  }
}
layers {
  bottom: "inception_3a/double3x3b/bn"
  top: "inception_3a/double3x3b/bn"
  name: "inception_3a/relu_double3x3b"
  type: RELU
}
layers {
  bottom: "pool2/3x3_s2"
  top: "inception_3a/pool"
  name: "inception_3a/pool"
  type: POOLING
  pooling_param {
    pool: AVE
    kernel_size: 3
    stride: 1
    pad: 1
  }
}
layers {
  bottom: "inception_3a/pool"
  top: "inception_3a/pool_proj"
  name: "inception_3a/pool_proj"
  type: CONVOLUTION
  blobs_lr: 1
  weight_decay: 1
  convolution_param {
    num_output: 32
    bias_term: false
    kernel_size: 1
    weight_filler {
      type: "xavier"
    }
  }
}
layers {
  bottom: "inception_3a/pool_proj"
  top: "inception_3a/pool_proj/bn"
  name: "inception_3a/pool_proj/bn"
  type: BN
  blobs_lr: 1
  blobs_lr: 1
  weight_decay: 0
  weight_decay: 0
  bn_param {
    scale_filler {
      type: "constant"
      value: 1
    }
    shift_filler {
      type: "constant"
      value: 0
    }
  }
}
layers {
  bottom: "inception_3a/pool_proj/bn"
  top: "inception_3a/pool_proj/bn"
  name: "inception_3a/relu_pool_proj"
  type: RELU
}
layers {
  bottom: "inception_3a/1x1/bn"
  bottom: "inception_3a/3x3/bn"
  bottom: "inception_3a/double3x3b/bn"
  bottom: "inception_3a/pool_proj/bn"
  top: "inception_3a/output"
  name: "inception_3a/output"
  type: CONCAT
}
layers {
  bottom: "inception_3a/output"
  top: "inception_3b/1x1"
  name: "inception_3b/1x1"
  type: CONVOLUTION
  blobs_lr: 1
  weight_decay: 1
  convolution_param {
    num_output: 64
    bias_term: false
    kernel_size: 1
    weight_filler {
      type: "xavier"
    }
  }
}
layers {
  bottom: "inception_3b/1x1"
  top: "inception_3b/1x1/bn"
  name: "inception_3b/1x1/bn"
  type: BN
  blobs_lr: 1
  blobs_lr: 1
  weight_decay: 0
  weight_decay: 0
  bn_param {
    scale_filler {
      type: "constant"
      value: 1
    }
    shift_filler {
      type: "constant"
      value: 0
    }
  }
}
layers {
  bottom: "inception_3b/1x1/bn"
  top: "inception_3b/1x1/bn"
  name: "inception_3b/relu_1x1"
  type: RELU
}
layers {
  bottom: "inception_3a/output"
  top: "inception_3b/3x3_reduce"
  name: "inception_3b/3x3_reduce"
  type: CONVOLUTION
  blobs_lr: 1
  weight_decay: 1
  convolution_param {
    num_output: 64
    bias_term: false
    kernel_size: 1
    weight_filler {
      type: "xavier"
    }
  }
}
layers {
  bottom: "inception_3b/3x3_reduce"
  top: "inception_3b/3x3_reduce/bn"
  name: "inception_3b/3x3_reduce/bn"
  type: BN
  blobs_lr: 1
  blobs_lr: 1
  weight_decay: 0
  weight_decay: 0
  bn_param {
    scale_filler {
      type: "constant"
      value: 1
    }
    shift_filler {
      type: "constant"
      value: 0
    }
  }
}
layers {
  bottom: "inception_3b/3x3_reduce/bn"
  top: "inception_3b/3x3_reduce/bn"
  name: "inception_3b/relu_3x3_reduce"
  type: RELU
}
layers {
  bottom: "inception_3b/3x3_reduce/bn"
  top: "inception_3b/3x3"
  name: "inception_3b/3x3"
  type: CONVOLUTION
  blobs_lr: 1
  weight_decay: 1
  convolution_param {
    num_output: 96
    bias_term: false
    pad: 1
    kernel_size: 3
    weight_filler {
      type: "xavier"
    }
  }
}
layers {
  bottom: "inception_3b/3x3"
  top: "inception_3b/3x3/bn"
  name: "inception_3b/3x3/bn"
  type: BN
  blobs_lr: 1
  blobs_lr: 1
  weight_decay: 0
  weight_decay: 0
  bn_param {
    scale_filler {
      type: "constant"
      value: 1
    }
    shift_filler {
      type: "constant"
      value: 0
    }
  }
}
layers {
  bottom: "inception_3b/3x3/bn"
  top: "inception_3b/3x3/bn"
  name: "inception_3b/relu_3x3"
  type: RELU
}
layers {
  bottom: "inception_3a/output"
  top: "inception_3b/double3x3_reduce"
  name: "inception_3b/double3x3_reduce"
  type: CONVOLUTION
  blobs_lr: 1
  weight_decay: 1
  convolution_param {
    num_output: 64
    bias_term: false
    kernel_size: 1
    weight_filler {
      type: "xavier"
    }
  }
}
layers {
  bottom: "inception_3b/double3x3_reduce"
  top: "inception_3b/double3x3_reduce/bn"
  name: "inception_3b/double3x3_reduce/bn"
  type: BN
  blobs_lr: 1
  blobs_lr: 1
  weight_decay: 0
  weight_decay: 0
  bn_param {
    scale_filler {
      type: "constant"
      value: 1
    }
    shift_filler {
      type: "constant"
      value: 0
    }
  }
}
layers {
  bottom: "inception_3b/double3x3_reduce/bn"
  top: "inception_3b/double3x3_reduce/bn"
  name: "inception_3b/relu_double3x3_reduce"
  type: RELU
}
layers {
  bottom: "inception_3b/double3x3_reduce/bn"
  top: "inception_3b/double3x3a"
  name: "inception_3b/double3x3a"
  type: CONVOLUTION
  blobs_lr: 1
  weight_decay: 1
  convolution_param {
    num_output: 96
    bias_term: false
    pad: 1
    kernel_size: 3
    weight_filler {
      type: "xavier"
    }
  }
}
layers {
  bottom: "inception_3b/double3x3a"
  top: "inception_3b/double3x3a/bn"
  name: "inception_3b/double3x3a/bn"
  type: BN
  blobs_lr: 1
  blobs_lr: 1
  weight_decay: 0
  weight_decay: 0
  bn_param {
    scale_filler {
      type: "constant"
      value: 1
    }
    shift_filler {
      type: "constant"
      value: 0
    }
  }
}
layers {
  bottom: "inception_3b/double3x3a/bn"
  top: "inception_3b/double3x3a/bn"
  name: "inception_3b/relu_double3x3a"
  type: RELU
}
layers {
  bottom: "inception_3b/double3x3a/bn"
  top: "inception_3b/double3x3b"
  name: "inception_3b/double3x3b"
  type: CONVOLUTION
  blobs_lr: 1
  weight_decay: 1
  convolution_param {
    num_output: 96
    bias_term: false
    pad: 1
    kernel_size: 3
    weight_filler {
      type: "xavier"
    }
  }
}
layers {
  bottom: "inception_3b/double3x3b"
  top: "inception_3b/double3x3b/bn"
  name: "inception_3b/double3x3b/bn"
  type: BN
  blobs_lr: 1
  blobs_lr: 1
  weight_decay: 0
  weight_decay: 0
  bn_param {
    scale_filler {
      type: "constant"
      value: 1
    }
    shift_filler {
      type: "constant"
      value: 0
    }
  }
}
layers {
  bottom: "inception_3b/double3x3b/bn"
  top: "inception_3b/double3x3b/bn"
  name: "inception_3b/relu_double3x3b"
  type: RELU
}
layers {
  bottom: "inception_3a/output"
  top: "inception_3b/pool"
  name: "inception_3b/pool"
  type: POOLING
  pooling_param {
    pool: AVE
    kernel_size: 3
    stride: 1
    pad: 1
  }
}
layers {
  bottom: "inception_3b/pool"
  top: "inception_3b/pool_proj"
  name: "inception_3b/pool_proj"
  type: CONVOLUTION
  blobs_lr: 1
  weight_decay: 1
  convolution_param {
    num_output: 64
    bias_term: false
    kernel_size: 1
    weight_filler {
      type: "xavier"
    }
  }
}
layers {
  bottom: "inception_3b/pool_proj"
  top: "inception_3b/pool_proj/bn"
  name: "inception_3b/pool_proj/bn"
  type: BN
  blobs_lr: 1
  blobs_lr: 1
  weight_decay: 0
  weight_decay: 0
  bn_param {
    scale_filler {
      type: "constant"
      value: 1
    }
    shift_filler {
      type: "constant"
      value: 0
    }
  }
}
layers {
  bottom: "inception_3b/pool_proj/bn"
  top: "inception_3b/pool_proj/bn"
  name: "inception_3b/relu_pool_proj"
  type: RELU
}
layers {
  bottom: "inception_3b/1x1/bn"
  bottom: "inception_3b/3x3/bn"
  bottom: "inception_3b/double3x3b/bn"
  bottom: "inception_3b/pool_proj/bn"
  top: "inception_3b/output"
  name: "inception_3b/output"
  type: CONCAT
}
layers {
  bottom: "inception_3b/output"
  top: "inception_3c/3x3_reduce"
  name: "inception_3c/3x3_reduce"
  type: CONVOLUTION
  blobs_lr: 1
  weight_decay: 1
  convolution_param {
    num_output: 128
    bias_term: false
    kernel_size: 1
    weight_filler {
      type: "xavier"
    }
  }
}
layers {
  bottom: "inception_3c/3x3_reduce"
  top: "inception_3c/3x3_reduce/bn"
  name: "inception_3c/3x3_reduce/bn"
  type: BN
  blobs_lr: 1
  blobs_lr: 1
  weight_decay: 0
  weight_decay: 0
  bn_param {
    scale_filler {
      type: "constant"
      value: 1
    }
    shift_filler {
      type: "constant"
      value: 0
    }
  }
}
layers {
  bottom: "inception_3c/3x3_reduce/bn"
  top: "inception_3c/3x3_reduce/bn"
  name: "inception_3c/relu_3x3_reduce"
  type: RELU
}
layers {
  bottom: "inception_3c/3x3_reduce/bn"
  top: "inception_3c/3x3"
  name: "inception_3c/3x3"
  type: CONVOLUTION
  blobs_lr: 1
  weight_decay: 1
  convolution_param {
    num_output: 160
    bias_term: false
    pad: 1
    kernel_size: 3
    stride: 2
    weight_filler {
      type: "xavier"
    }
  }
}
layers {
  bottom: "inception_3c/3x3"
  top: "inception_3c/3x3/bn"
  name: "inception_3c/3x3/bn"
  type: BN
  blobs_lr: 1
  blobs_lr: 1
  weight_decay: 0
  weight_decay: 0
  bn_param {
    scale_filler {
      type: "constant"
      value: 1
    }
    shift_filler {
      type: "constant"
      value: 0
    }
  }
}
layers {
  bottom: "inception_3c/3x3/bn"
  top: "inception_3c/3x3/bn"
  name: "inception_3c/relu_3x3"
  type: RELU
}
layers {
  bottom: "inception_3b/output"
  top: "inception_3c/double3x3_reduce"
  name: "inception_3c/double3x3_reduce"
  type: CONVOLUTION
  blobs_lr: 1
  weight_decay: 1
  convolution_param {
    num_output: 64
    bias_term: false
    kernel_size: 1
    weight_filler {
      type: "xavier"
    }
  }
}
layers {
  bottom: "inception_3c/double3x3_reduce"
  top: "inception_3c/double3x3_reduce/bn"
  name: "inception_3c/double3x3_reduce/bn"
  type: BN
  blobs_lr: 1
  blobs_lr: 1
  weight_decay: 0
  weight_decay: 0
  bn_param {
    scale_filler {
      type: "constant"
      value: 1
    }
    shift_filler {
      type: "constant"
      value: 0
    }
  }
}
layers {
  bottom: "inception_3c/double3x3_reduce/bn"
  top: "inception_3c/double3x3_reduce/bn"
  name: "inception_3c/relu_double3x3_reduce"
  type: RELU
}
layers {
  bottom: "inception_3c/double3x3_reduce/bn"
  top: "inception_3c/double3x3a"
  name: "inception_3c/double3x3a"
  type: CONVOLUTION
  blobs_lr: 1
  weight_decay: 1
  convolution_param {
    num_output: 96
    bias_term: false
    pad: 1
    kernel_size: 3
    weight_filler {
      type: "xavier"
    }
  }
}
layers {
  bottom: "inception_3c/double3x3a"
  top: "inception_3c/double3x3a/bn"
  name: "inception_3c/double3x3a/bn"
  type: BN
  blobs_lr: 1
  blobs_lr: 1
  weight_decay: 0
  weight_decay: 0
  bn_param {
    scale_filler {
      type: "constant"
      value: 1
    }
    shift_filler {
      type: "constant"
      value: 0
    }
  }
}
layers {
  bottom: "inception_3c/double3x3a/bn"
  top: "inception_3c/double3x3a/bn"
  name: "inception_3c/relu_double3x3a"
  type: RELU
}
layers {
  bottom: "inception_3c/double3x3a/bn"
  top: "inception_3c/double3x3b"
  name: "inception_3c/double3x3b"
  type: CONVOLUTION
  blobs_lr: 1
  weight_decay: 1
  convolution_param {
    num_output: 96
    bias_term: false
    pad: 1
    kernel_size: 3
    stride: 2
    weight_filler {
      type: "xavier"
    }
  }
}
layers {
  bottom: "inception_3c/double3x3b"
  top: "inception_3c/double3x3b/bn"
  name: "inception_3c/double3x3b/bn"
  type: BN
  blobs_lr: 1
  blobs_lr: 1
  weight_decay: 0
  weight_decay: 0
  bn_param {
    scale_filler {
      type: "constant"
      value: 1
    }
    shift_filler {
      type: "constant"
      value: 0
    }
  }
}
layers {
  bottom: "inception_3c/double3x3b/bn"
  top: "inception_3c/double3x3b/bn"
  name: "inception_3c/relu_double3x3b"
  type: RELU
}
layers {
  bottom: "inception_3b/output"
  top: "inception_3c/pool/3x3_s2"
  name: "inception_3c/pool/3x3_s2"
  type: POOLING
  pooling_param {
    pool: MAX
    kernel_size: 3
    stride: 2
  }
}
layers {
  bottom: "inception_3c/3x3/bn"
  bottom: "inception_3c/double3x3b/bn"
  bottom: "inception_3c/pool/3x3_s2"
  top: "inception_3c/output"
  name: "inception_3c/output"
  type: CONCAT
}
layers {
  bottom: "inception_3c/output"
  top: "inception_4a/1x1"
  name: "inception_4a/1x1"
  type: CONVOLUTION
  blobs_lr: 1
  weight_decay: 1
  convolution_param {
    num_output: 224
    bias_term: false
    kernel_size: 1
    weight_filler {
      type: "xavier"
    }
  }
}
layers {
  bottom: "inception_4a/1x1"
  top: "inception_4a/1x1/bn"
  name: "inception_4a/1x1/bn"
  type: BN
  blobs_lr: 1
  blobs_lr: 1
  weight_decay: 0
  weight_decay: 0
  bn_param {
    scale_filler {
      type: "constant"
      value: 1
    }
    shift_filler {
      type: "constant"
      value: 0
    }
  }
}
layers {
  bottom: "inception_4a/1x1/bn"
  top: "inception_4a/1x1/bn"
  name: "inception_4a/relu_1x1"
  type: RELU
}
layers {
  bottom: "inception_3c/output"
  top: "inception_4a/3x3_reduce"
  name: "inception_4a/3x3_reduce"
  type: CONVOLUTION
  blobs_lr: 1
  weight_decay: 1
  convolution_param {
    num_output: 64
    bias_term: false
    kernel_size: 1
    weight_filler {
      type: "xavier"
    }
  }
}
layers {
  bottom: "inception_4a/3x3_reduce"
  top: "inception_4a/3x3_reduce/bn"
  name: "inception_4a/3x3_reduce/bn"
  type: BN
  blobs_lr: 1
  blobs_lr: 1
  weight_decay: 0
  weight_decay: 0
  bn_param {
    scale_filler {
      type: "constant"
      value: 1
    }
    shift_filler {
      type: "constant"
      value: 0
    }
  }
}
layers {
  bottom: "inception_4a/3x3_reduce/bn"
  top: "inception_4a/3x3_reduce/bn"
  name: "inception_4a/relu_3x3_reduce"
  type: RELU
}
layers {
  bottom: "inception_4a/3x3_reduce/bn"
  top: "inception_4a/3x3"
  name: "inception_4a/3x3"
  type: CONVOLUTION
  blobs_lr: 1
  weight_decay: 1
  convolution_param {
    num_output: 96
    bias_term: false
    pad: 1
    kernel_size: 3
    weight_filler {
      type: "xavier"
    }
  }
}
layers {
  bottom: "inception_4a/3x3"
  top: "inception_4a/3x3/bn"
  name: "inception_4a/3x3/bn"
  type: BN
  blobs_lr: 1
  blobs_lr: 1
  weight_decay: 0
  weight_decay: 0
  bn_param {
    scale_filler {
      type: "constant"
      value: 1
    }
    shift_filler {
      type: "constant"
      value: 0
    }
  }
}
layers {
  bottom: "inception_4a/3x3/bn"
  top: "inception_4a/3x3/bn"
  name: "inception_4a/relu_3x3"
  type: RELU
}
layers {
  bottom: "inception_3c/output"
  top: "inception_4a/double3x3_reduce"
  name: "inception_4a/double3x3_reduce"
  type: CONVOLUTION
  blobs_lr: 1
  weight_decay: 1
  convolution_param {
    num_output: 96
    bias_term: false
    kernel_size: 1
    weight_filler {
      type: "xavier"
    }
  }
}
layers {
  bottom: "inception_4a/double3x3_reduce"
  top: "inception_4a/double3x3_reduce/bn"
  name: "inception_4a/double3x3_reduce/bn"
  type: BN
  blobs_lr: 1
  blobs_lr: 1
  weight_decay: 0
  weight_decay: 0
  bn_param {
    scale_filler {
      type: "constant"
      value: 1
    }
    shift_filler {
      type: "constant"
      value: 0
    }
  }
}
layers {
  bottom: "inception_4a/double3x3_reduce/bn"
  top: "inception_4a/double3x3_reduce/bn"
  name: "inception_4a/relu_double3x3_reduce"
  type: RELU
}
layers {
  bottom: "inception_4a/double3x3_reduce/bn"
  top: "inception_4a/double3x3a"
  name: "inception_4a/double3x3a"
  type: CONVOLUTION
  blobs_lr: 1
  weight_decay: 1
  convolution_param {
    num_output: 128
    bias_term: false
    pad: 1
    kernel_size: 3
    weight_filler {
      type: "xavier"
    }
  }
}
layers {
  bottom: "inception_4a/double3x3a"
  top: "inception_4a/double3x3a/bn"
  name: "inception_4a/double3x3a/bn"
  type: BN
  blobs_lr: 1
  blobs_lr: 1
  weight_decay: 0
  weight_decay: 0
  bn_param {
    scale_filler {
      type: "constant"
      value: 1
    }
    shift_filler {
      type: "constant"
      value: 0
    }
  }
}
layers {
  bottom: "inception_4a/double3x3a/bn"
  top: "inception_4a/double3x3a/bn"
  name: "inception_4a/relu_double3x3a"
  type: RELU
}
layers {
  bottom: "inception_4a/double3x3a/bn"
  top: "inception_4a/double3x3b"
  name: "inception_4a/double3x3b"
  type: CONVOLUTION
  blobs_lr: 1
  weight_decay: 1
  convolution_param {
    num_output: 128
    bias_term: false
    pad: 1
    kernel_size: 3
    weight_filler {
      type: "xavier"
    }
  }
}
layers {
  bottom: "inception_4a/double3x3b"
  top: "inception_4a/double3x3b/bn"
  name: "inception_4a/double3x3b/bn"
  type: BN
  blobs_lr: 1
  blobs_lr: 1
  weight_decay: 0
  weight_decay: 0
  bn_param {
    scale_filler {
      type: "constant"
      value: 1
    }
    shift_filler {
      type: "constant"
      value: 0
    }
  }
}
layers {
  bottom: "inception_4a/double3x3b/bn"
  top: "inception_4a/double3x3b/bn"
  name: "inception_4a/relu_double3x3b"
  type: RELU
}
layers {
  bottom: "inception_3c/output"
  top: "inception_4a/pool"
  name: "inception_4a/pool"
  type: POOLING
  pooling_param {
    pool: AVE
    kernel_size: 3
    stride: 1
    pad: 1
  }
}
layers {
  bottom: "inception_4a/pool"
  top: "inception_4a/pool_proj"
  name: "inception_4a/pool_proj"
  type: CONVOLUTION
  blobs_lr: 1
  weight_decay: 1
  convolution_param {
    num_output: 128
    bias_term: false
    kernel_size: 1
    weight_filler {
      type: "xavier"
    }
  }
}
layers {
  bottom: "inception_4a/pool_proj"
  top: "inception_4a/pool_proj/bn"
  name: "inception_4a/pool_proj/bn"
  type: BN
  blobs_lr: 1
  blobs_lr: 1
  weight_decay: 0
  weight_decay: 0
  bn_param {
    scale_filler {
      type: "constant"
      value: 1
    }
    shift_filler {
      type: "constant"
      value: 0
    }
  }
}
layers {
  bottom: "inception_4a/pool_proj/bn"
  top: "inception_4a/pool_proj/bn"
  name: "inception_4a/relu_pool_proj"
  type: RELU
}
layers {
  bottom: "inception_4a/1x1/bn"
  bottom: "inception_4a/3x3/bn"
  bottom: "inception_4a/double3x3b/bn"
  bottom: "inception_4a/pool_proj/bn"
  top: "inception_4a/output"
  name: "inception_4a/output"
  type: CONCAT
}
layers {
  bottom: "inception_4a/output"
  top: "inception_4b/1x1"
  name: "inception_4b/1x1"
  type: CONVOLUTION
  blobs_lr: 1
  weight_decay: 1
  convolution_param {
    num_output: 192
    bias_term: false
    kernel_size: 1
    weight_filler {
      type: "xavier"
    }
  }
}
layers {
  bottom: "inception_4b/1x1"
  top: "inception_4b/1x1/bn"
  name: "inception_4b/1x1/bn"
  type: BN
  blobs_lr: 1
  blobs_lr: 1
  weight_decay: 0
  weight_decay: 0
  bn_param {
    scale_filler {
      type: "constant"
      value: 1
    }
    shift_filler {
      type: "constant"
      value: 0
    }
  }
}
layers {
  bottom: "inception_4b/1x1/bn"
  top: "inception_4b/1x1/bn"
  name: "inception_4b/relu_1x1"
  type: RELU
}
layers {
  bottom: "inception_4a/output"
  top: "inception_4b/3x3_reduce"
  name: "inception_4b/3x3_reduce"
  type: CONVOLUTION
  blobs_lr: 1
  weight_decay: 1
  convolution_param {
    num_output: 96
    bias_term: false
    kernel_size: 1
    weight_filler {
      type: "xavier"
    }
  }
}
layers {
  bottom: "inception_4b/3x3_reduce"
  top: "inception_4b/3x3_reduce/bn"
  name: "inception_4b/3x3_reduce/bn"
  type: BN
  blobs_lr: 1
  blobs_lr: 1
  weight_decay: 0
  weight_decay: 0
  bn_param {
    scale_filler {
      type: "constant"
      value: 1
    }
    shift_filler {
      type: "constant"
      value: 0
    }
  }
}
layers {
  bottom: "inception_4b/3x3_reduce/bn"
  top: "inception_4b/3x3_reduce/bn"
  name: "inception_4b/relu_3x3_reduce"
  type: RELU
}
layers {
  bottom: "inception_4b/3x3_reduce/bn"
  top: "inception_4b/3x3"
  name: "inception_4b/3x3"
  type: CONVOLUTION
  blobs_lr: 1
  weight_decay: 1
  convolution_param {
    num_output: 128
    bias_term: false
    pad: 1
    kernel_size: 3
    weight_filler {
      type: "xavier"
    }
  }
}
layers {
  bottom: "inception_4b/3x3"
  top: "inception_4b/3x3/bn"
  name: "inception_4b/3x3/bn"
  type: BN
  blobs_lr: 1
  blobs_lr: 1
  weight_decay: 0
  weight_decay: 0
  bn_param {
    scale_filler {
      type: "constant"
      value: 1
    }
    shift_filler {
      type: "constant"
      value: 0
    }
  }
}
layers {
  bottom: "inception_4b/3x3/bn"
  top: "inception_4b/3x3/bn"
  name: "inception_4b/relu_3x3"
  type: RELU
}
layers {
  bottom: "inception_4a/output"
  top: "inception_4b/double3x3_reduce"
  name: "inception_4b/double3x3_reduce"
  type: CONVOLUTION
  blobs_lr: 1
  weight_decay: 1
  convolution_param {
    num_output: 96
    bias_term: false
    kernel_size: 1
    weight_filler {
      type: "xavier"
    }
  }
}
layers {
  bottom: "inception_4b/double3x3_reduce"
  top: "inception_4b/double3x3_reduce/bn"
  name: "inception_4b/double3x3_reduce/bn"
  type: BN
  blobs_lr: 1
  blobs_lr: 1
  weight_decay: 0
  weight_decay: 0
  bn_param {
    scale_filler {
      type: "constant"
      value: 1
    }
    shift_filler {
      type: "constant"
      value: 0
    }
  }
}
layers {
  bottom: "inception_4b/double3x3_reduce/bn"
  top: "inception_4b/double3x3_reduce/bn"
  name: "inception_4b/relu_double3x3_reduce"
  type: RELU
}
layers {
  bottom: "inception_4b/double3x3_reduce/bn"
  top: "inception_4b/double3x3a"
  name: "inception_4b/double3x3a"
  type: CONVOLUTION
  blobs_lr: 1
  weight_decay: 1
  convolution_param {
    num_output: 128
    bias_term: false
    pad: 1
    kernel_size: 3
    weight_filler {
      type: "xavier"
    }
  }
}
layers {
  bottom: "inception_4b/double3x3a"
  top: "inception_4b/double3x3a/bn"
  name: "inception_4b/double3x3a/bn"
  type: BN
  blobs_lr: 1
  blobs_lr: 1
  weight_decay: 0
  weight_decay: 0
  bn_param {
    scale_filler {
      type: "constant"
      value: 1
    }
    shift_filler {
      type: "constant"
      value: 0
    }
  }
}
layers {
  bottom: "inception_4b/double3x3a/bn"
  top: "inception_4b/double3x3a/bn"
  name: "inception_4b/relu_double3x3a"
  type: RELU
}
layers {
  bottom: "inception_4b/double3x3a/bn"
  top: "inception_4b/double3x3b"
  name: "inception_4b/double3x3b"
  type: CONVOLUTION
  blobs_lr: 1
  weight_decay: 1
  convolution_param {
    num_output: 128
    bias_term: false
    pad: 1
    kernel_size: 3
    weight_filler {
      type: "xavier"
    }
  }
}
layers {
  bottom: "inception_4b/double3x3b"
  top: "inception_4b/double3x3b/bn"
  name: "inception_4b/double3x3b/bn"
  type: BN
  blobs_lr: 1
  blobs_lr: 1
  weight_decay: 0
  weight_decay: 0
  bn_param {
    scale_filler {
      type: "constant"
      value: 1
    }
    shift_filler {
      type: "constant"
      value: 0
    }
  }
}
layers {
  bottom: "inception_4b/double3x3b/bn"
  top: "inception_4b/double3x3b/bn"
  name: "inception_4b/relu_double3x3b"
  type: RELU
}
layers {
  bottom: "inception_4a/output"
  top: "inception_4b/pool"
  name: "inception_4b/pool"
  type: POOLING
  pooling_param {
    pool: AVE
    kernel_size: 3
    stride: 1
    pad: 1
  }
}
layers {
  bottom: "inception_4b/pool"
  top: "inception_4b/pool_proj"
  name: "inception_4b/pool_proj"
  type: CONVOLUTION
  blobs_lr: 1
  weight_decay: 1
  convolution_param {
    num_output: 128
    bias_term: false
    kernel_size: 1
    weight_filler {
      type: "xavier"
    }
  }
}
layers {
  bottom: "inception_4b/pool_proj"
  top: "inception_4b/pool_proj/bn"
  name: "inception_4b/pool_proj/bn"
  type: BN
  blobs_lr: 1
  blobs_lr: 1
  weight_decay: 0
  weight_decay: 0
  bn_param {
    scale_filler {
      type: "constant"
      value: 1
    }
    shift_filler {
      type: "constant"
      value: 0
    }
  }
}
layers {
  bottom:
I0707 08:38:41.129277 27914 layer_factory.hpp:78] Creating layer data
I0707 08:38:41.129297 27914 data_transformer.cpp:24] Loading mean file from/media/data1/image/ilsvrc12/imagenet_mean.binaryproto
I0707 08:38:41.156661 27914 net.cpp:68] Creating Layer data
I0707 08:38:41.156680 27914 net.cpp:357] data -> data
I0707 08:38:41.156955 27914 net.cpp:357] data -> label
I0707 08:38:41.156973 27914 net.cpp:97] Setting up data
I0707 08:38:41.156985 27914 data_layer.cpp:35] Opening dataset /media/data0/image/ilsvrc12/ilsvrc12_train_lmdb
I0707 08:38:41.160039 27914 data_layer.cpp:74] output data size: 32,3,224,224
I0707 08:38:41.165736 27914 net.cpp:104] Top shape: 32 3 224 224 (4816896)
I0707 08:38:41.165781 27914 net.cpp:104] Top shape: 32 1 1 1 (32)
I0707 08:38:41.165791 27914 layer_factory.hpp:78] Creating layer conv1/7x7_s2
I0707 08:38:41.165809 27914 net.cpp:68] Creating Layer conv1/7x7_s2
I0707 08:38:41.165818 27914 net.cpp:395] conv1/7x7_s2 <- data
I0707 08:38:41.165834 27914 net.cpp:357] conv1/7x7_s2 -> conv1/7x7_s2
I0707 08:38:41.165850 27914 net.cpp:97] Setting up conv1/7x7_s2
I0707 08:38:41.285331 27914 net.cpp:104] Top shape: 32 64 112 112 (25690112)
I0707 08:38:41.285377 27914 layer_factory.hpp:78] Creating layer conv1/7x7_s2/bn
I0707 08:38:41.285595 27914 net.cpp:68] Creating Layer conv1/7x7_s2/bn
I0707 08:38:41.285612 27914 net.cpp:395] conv1/7x7_s2/bn <- conv1/7x7_s2
I0707 08:38:41.285625 27914 net.cpp:357] conv1/7x7_s2/bn -> conv1/7x7_s2/bn
I0707 08:38:41.285646 27914 net.cpp:97] Setting up conv1/7x7_s2/bn
I0707 08:38:41.285676 27914 net.cpp:104] Top shape: 32 64 112 112 (25690112)
I0707 08:38:41.285701 27914 layer_factory.hpp:78] Creating layer conv1/relu_7x7
I0707 08:38:41.285724 27914 net.cpp:68] Creating Layer conv1/relu_7x7
I0707 08:38:41.285742 27914 net.cpp:395] conv1/relu_7x7 <- conv1/7x7_s2/bn
I0707 08:38:41.285759 27914 net.cpp:346] conv1/relu_7x7 -> conv1/7x7_s2/bn (in-place)
I0707 08:38:41.285830 27914 net.cpp:97] Setting up conv1/relu_7x7
I0707 08:38:41.285917 27914 net.cpp:104] Top shape: 32 64 112 112 (25690112)
I0707 08:38:41.285951 27914 layer_factory.hpp:78] Creating layer pool1/3x3_s2
I0707 08:38:41.285972 27914 net.cpp:68] Creating Layer pool1/3x3_s2
I0707 08:38:41.285995 27914 net.cpp:395] pool1/3x3_s2 <- conv1/7x7_s2/bn
I0707 08:38:41.286013 27914 net.cpp:357] pool1/3x3_s2 -> pool1/3x3_s2
I0707 08:38:41.286042 27914 net.cpp:97] Setting up pool1/3x3_s2
I0707 08:38:41.286425 27914 net.cpp:104] Top shape: 32 64 56 56 (6422528)
I0707 08:38:41.286442 27914 layer_factory.hpp:78] Creating layer conv2/3x3_reduce
I0707 08:38:41.286453 27914 net.cpp:68] Creating Layer conv2/3x3_reduce
I0707 08:38:41.286463 27914 net.cpp:395] conv2/3x3_reduce <- pool1/3x3_s2
I0707 08:38:41.286473 27914 net.cpp:357] conv2/3x3_reduce -> conv2/3x3_reduce
I0707 08:38:41.286484 27914 net.cpp:97] Setting up conv2/3x3_reduce
I0707 08:38:41.286813 27914 net.cpp:104] Top shape: 32 64 56 56 (6422528)
I0707 08:38:41.286831 27914 layer_factory.hpp:78] Creating layer conv2/3x3_reduce/bn
I0707 08:38:41.286844 27914 net.cpp:68] Creating Layer conv2/3x3_reduce/bn
I0707 08:38:41.286852 27914 net.cpp:395] conv2/3x3_reduce/bn <- conv2/3x3_reduce
I0707 08:38:41.286862 27914 net.cpp:357] conv2/3x3_reduce/bn -> conv2/3x3_reduce/bn
I0707 08:38:41.286875 27914 net.cpp:97] Setting up conv2/3x3_reduce/bn
I0707 08:38:41.286898 27914 net.cpp:104] Top shape: 32 64 56 56 (6422528)
I0707 08:38:41.286918 27914 layer_factory.hpp:78] Creating layer conv2/relu_3x3_reduce
I0707 08:38:41.286941 27914 net.cpp:68] Creating Layer conv2/relu_3x3_reduce
I0707 08:38:41.286957 27914 net.cpp:395] conv2/relu_3x3_reduce <- conv2/3x3_reduce/bn
I0707 08:38:41.286972 27914 net.cpp:346] conv2/relu_3x3_reduce -> conv2/3x3_reduce/bn (in-place)
I0707 08:38:41.286998 27914 net.cpp:97] Setting up conv2/relu_3x3_reduce
I0707 08:38:41.287075 27914 net.cpp:104] Top shape: 32 64 56 56 (6422528)
I0707 08:38:41.287102 27914 layer_factory.hpp:78] Creating layer conv2/3x3
I0707 08:38:41.287117 27914 net.cpp:68] Creating Layer conv2/3x3
I0707 08:38:41.287127 27914 net.cpp:395] conv2/3x3 <- conv2/3x3_reduce/bn
I0707 08:38:41.287152 27914 net.cpp:357] conv2/3x3 -> conv2/3x3
I0707 08:38:41.287171 27914 net.cpp:97] Setting up conv2/3x3
I0707 08:38:41.288182 27914 net.cpp:104] Top shape: 32 192 56 56 (19267584)
I0707 08:38:41.288200 27914 layer_factory.hpp:78] Creating layer conv2/3x3/bn
I0707 08:38:41.288213 27914 net.cpp:68] Creating Layer conv2/3x3/bn
I0707 08:38:41.288221 27914 net.cpp:395] conv2/3x3/bn <- conv2/3x3
I0707 08:38:41.288231 27914 net.cpp:357] conv2/3x3/bn -> conv2/3x3/bn
I0707 08:38:41.288244 27914 net.cpp:97] Setting up conv2/3x3/bn
I0707 08:38:41.288259 27914 net.cpp:104] Top shape: 32 192 56 56 (19267584)
I0707 08:38:41.288270 27914 layer_factory.hpp:78] Creating layer conv2/relu_3x3
I0707 08:38:41.288280 27914 net.cpp:68] Creating Layer conv2/relu_3x3
I0707 08:38:41.288287 27914 net.cpp:395] conv2/relu_3x3 <- conv2/3x3/bn
I0707 08:38:41.288301 27914 net.cpp:346] conv2/relu_3x3 -> conv2/3x3/bn (in-place)
I0707 08:38:41.288319 27914 net.cpp:97] Setting up conv2/relu_3x3
I0707 08:38:41.288527 27914 net.cpp:104] Top shape: 32 192 56 56 (19267584)
I0707 08:38:41.288543 27914 layer_factory.hpp:78] Creating layer pool2/3x3_s2
I0707 08:38:41.288554 27914 net.cpp:68] Creating Layer pool2/3x3_s2
I0707 08:38:41.288563 27914 net.cpp:395] pool2/3x3_s2 <- conv2/3x3/bn
I0707 08:38:41.288573 27914 net.cpp:357] pool2/3x3_s2 -> pool2/3x3_s2
I0707 08:38:41.288583 27914 net.cpp:97] Setting up pool2/3x3_s2
I0707 08:38:41.288671 27914 net.cpp:104] Top shape: 32 192 28 28 (4816896)
I0707 08:38:41.288689 27914 layer_factory.hpp:78] Creating layer pool2/3x3_s2_pool2/3x3_s2_0_split
I0707 08:38:41.288702 27914 net.cpp:68] Creating Layer pool2/3x3_s2_pool2/3x3_s2_0_split
I0707 08:38:41.288717 27914 net.cpp:395] pool2/3x3_s2_pool2/3x3_s2_0_split <- pool2/3x3_s2
I0707 08:38:41.288728 27914 net.cpp:357] pool2/3x3_s2_pool2/3x3_s2_0_split -> pool2/3x3_s2_pool2/3x3_s2_0_split_0
I0707 08:38:41.288772 27914 net.cpp:357] pool2/3x3_s2_pool2/3x3_s2_0_split -> pool2/3x3_s2_pool2/3x3_s2_0_split_1
I0707 08:38:41.288792 27914 net.cpp:357] pool2/3x3_s2_pool2/3x3_s2_0_split -> pool2/3x3_s2_pool2/3x3_s2_0_split_2
I0707 08:38:41.288817 27914 net.cpp:357] pool2/3x3_s2_pool2/3x3_s2_0_split -> pool2/3x3_s2_pool2/3x3_s2_0_split_3
I0707 08:38:41.288832 27914 net.cpp:97] Setting up pool2/3x3_s2_pool2/3x3_s2_0_split
I0707 08:38:41.288846 27914 net.cpp:104] Top shape: 32 192 28 28 (4816896)
I0707 08:38:41.288868 27914 net.cpp:104] Top shape: 32 192 28 28 (4816896)
I0707 08:38:41.288885 27914 net.cpp:104] Top shape: 32 192 28 28 (4816896)
I0707 08:38:41.288897 27914 net.cpp:104] Top shape: 32 192 28 28 (4816896)
I0707 08:38:41.288908 27914 layer_factory.hpp:78] Creating layer inception_3a/1x1
I0707 08:38:41.288931 27914 net.cpp:68] Creating Layer inception_3a/1x1
I0707 08:38:41.288946 27914 net.cpp:395] inception_3a/1x1 <- pool2/3x3_s2_pool2/3x3_s2_0_split_0
I0707 08:38:41.288969 27914 net.cpp:357] inception_3a/1x1 -> inception_3a/1x1
I0707 08:38:41.288985 27914 net.cpp:97] Setting up inception_3a/1x1
I0707 08:38:41.289356 27914 net.cpp:104] Top shape: 32 64 28 28 (1605632)
I0707 08:38:41.289374 27914 layer_factory.hpp:78] Creating layer inception_3a/1x1/bn
I0707 08:38:41.289386 27914 net.cpp:68] Creating Layer inception_3a/1x1/bn
I0707 08:38:41.289396 27914 net.cpp:395] inception_3a/1x1/bn <- inception_3a/1x1
I0707 08:38:41.289405 27914 net.cpp:357] inception_3a/1x1/bn -> inception_3a/1x1/bn
I0707 08:38:41.289417 27914 net.cpp:97] Setting up inception_3a/1x1/bn
I0707 08:38:41.289429 27914 net.cpp:104] Top shape: 32 64 28 28 (1605632)
I0707 08:38:41.289440 27914 layer_factory.hpp:78] Creating layer inception_3a/relu_1x1
I0707 08:38:41.289449 27914 net.cpp:68] Creating Layer inception_3a/relu_1x1
I0707 08:38:41.289458 27914 net.cpp:395] inception_3a/relu_1x1 <- inception_3a/1x1/bn
I0707 08:38:41.289471 27914 net.cpp:346] inception_3a/relu_1x1 -> inception_3a/1x1/bn (in-place)
I0707 08:38:41.289490 27914 net.cpp:97] Setting up inception_3a/relu_1x1
I0707 08:38:41.289563 27914 net.cpp:104] Top shape: 32 64 28 28 (1605632)
I0707 08:38:41.289588 27914 layer_factory.hpp:78] Creating layer inception_3a/3x3_reduce
I0707 08:38:41.289608 27914 net.cpp:68] Creating Layer inception_3a/3x3_reduce
I0707 08:38:41.289618 27914 net.cpp:395] inception_3a/3x3_reduce <- pool2/3x3_s2_pool2/3x3_s2_0_split_1
I0707 08:38:41.289644 27914 net.cpp:357] inception_3a/3x3_reduce -> inception_3a/3x3_reduce
I0707 08:38:41.289664 27914 net.cpp:97] Setting up inception_3a/3x3_reduce
I0707 08:38:41.290041 27914 net.cpp:104] Top shape: 32 64 28 28 (1605632)
I0707 08:38:41.290058 27914 layer_factory.hpp:78] Creating layer inception_3a/3x3_reduce/bn
I0707 08:38:41.290072 27914 net.cpp:68] Creating Layer inception_3a/3x3_reduce/bn
I0707 08:38:41.290081 27914 net.cpp:395] inception_3a/3x3_reduce/bn <- inception_3a/3x3_reduce
I0707 08:38:41.290091 27914 net.cpp:357] inception_3a/3x3_reduce/bn -> inception_3a/3x3_reduce/bn
I0707 08:38:41.290102 27914 net.cpp:97] Setting up inception_3a/3x3_reduce/bn
I0707 08:38:41.290120 27914 net.cpp:104] Top shape: 32 64 28 28 (1605632)
I0707 08:38:41.290132 27914 layer_factory.hpp:78] Creating layer inception_3a/relu_3x3_reduce
I0707 08:38:41.290143 27914 net.cpp:68] Creating Layer inception_3a/relu_3x3_reduce
I0707 08:38:41.290153 27914 net.cpp:395] inception_3a/relu_3x3_reduce <- inception_3a/3x3_reduce/bn
I0707 08:38:41.290170 27914 net.cpp:346] inception_3a/relu_3x3_reduce -> inception_3a/3x3_reduce/bn (in-place)
I0707 08:38:41.290186 27914 net.cpp:97] Setting up inception_3a/relu_3x3_reduce
I0707 08:38:41.290282 27914 net.cpp:104] Top shape: 32 64 28 28 (1605632)
I0707 08:38:41.290300 27914 layer_factory.hpp:78] Creating layer inception_3a/3x3
I0707 08:38:41.290323 27914 net.cpp:68] Creating Layer inception_3a/3x3
I0707 08:38:41.290340 27914 net.cpp:395] inception_3a/3x3 <- inception_3a/3x3_reduce/bn
I0707 08:38:41.290356 27914 net.cpp:357] inception_3a/3x3 -> inception_3a/3x3
I0707 08:38:41.290395 27914 net.cpp:97] Setting up inception_3a/3x3
I0707 08:38:41.290968 27914 net.cpp:104] Top shape: 32 64 28 28 (1605632)
I0707 08:38:41.290987 27914 layer_factory.hpp:78] Creating layer inception_3a/3x3/bn
I0707 08:38:41.290999 27914 net.cpp:68] Creating Layer inception_3a/3x3/bn
I0707 08:38:41.291009 27914 net.cpp:395] inception_3a/3x3/bn <- inception_3a/3x3
I0707 08:38:41.291020 27914 net.cpp:357] inception_3a/3x3/bn -> inception_3a/3x3/bn
I0707 08:38:41.291033 27914 net.cpp:97] Setting up inception_3a/3x3/bn
I0707 08:38:41.291048 27914 net.cpp:104] Top shape: 32 64 28 28 (1605632)
I0707 08:38:41.291061 27914 layer_factory.hpp:78] Creating layer inception_3a/relu_3x3
I0707 08:38:41.291072 27914 net.cpp:68] Creating Layer inception_3a/relu_3x3
I0707 08:38:41.291084 27914 net.cpp:395] inception_3a/relu_3x3 <- inception_3a/3x3/bn
I0707 08:38:41.291100 27914 net.cpp:346] inception_3a/relu_3x3 -> inception_3a/3x3/bn (in-place)
I0707 08:38:41.291116 27914 net.cpp:97] Setting up inception_3a/relu_3x3
I0707 08:38:41.291332 27914 net.cpp:104] Top shape: 32 64 28 28 (1605632)
I0707 08:38:41.291357 27914 layer_factory.hpp:78] Creating layer inception_3a/double3x3_reduce
I0707 08:38:41.291370 27914 net.cpp:68] Creating Layer inception_3a/double3x3_reduce
I0707 08:38:41.291379 27914 net.cpp:395] inception_3a/double3x3_reduce <- pool2/3x3_s2_pool2/3x3_s2_0_split_2
I0707 08:38:41.291389 27914 net.cpp:357] inception_3a/double3x3_reduce -> inception_3a/double3x3_reduce
I0707 08:38:41.291404 27914 net.cpp:97] Setting up inception_3a/double3x3_reduce
I0707 08:38:41.291817 27914 net.cpp:104] Top shape: 32 64 28 28 (1605632)
I0707 08:38:41.291836 27914 layer_factory.hpp:78] Creating layer inception_3a/double3x3_reduce/bn
I0707 08:38:41.291848 27914 net.cpp:68] Creating Layer inception_3a/double3x3_reduce/bn
I0707 08:38:41.291858 27914 net.cpp:395] inception_3a/double3x3_reduce/bn <- inception_3a/double3x3_reduce
I0707 08:38:41.291869 27914 net.cpp:357] inception_3a/double3x3_reduce/bn -> inception_3a/double3x3_reduce/bn
I0707 08:38:41.291882 27914 net.cpp:97] Setting up inception_3a/double3x3_reduce/bn
I0707 08:38:41.291898 27914 net.cpp:104] Top shape: 32 64 28 28 (1605632)
I0707 08:38:41.291908 27914 layer_factory.hpp:78] Creating layer inception_3a/relu_double3x3_reduce
I0707 08:38:41.291918 27914 net.cpp:68] Creating Layer inception_3a/relu_double3x3_reduce
I0707 08:38:41.291928 27914 net.cpp:395] inception_3a/relu_double3x3_reduce <- inception_3a/double3x3_reduce/bn
I0707 08:38:41.291944 27914 net.cpp:346] inception_3a/relu_double3x3_reduce -> inception_3a/double3x3_reduce/bn (in-place)
I0707 08:38:41.291961 27914 net.cpp:97] Setting up inception_3a/relu_double3x3_reduce
I0707 08:38:41.292055 27914 net.cpp:104] Top shape: 32 64 28 28 (1605632)
I0707 08:38:41.292071 27914 layer_factory.hpp:78] Creating layer inception_3a/double3x3a
I0707 08:38:41.292086 27914 net.cpp:68] Creating Layer inception_3a/double3x3a
I0707 08:38:41.292114 27914 net.cpp:395] inception_3a/double3x3a <- inception_3a/double3x3_reduce/bn
I0707 08:38:41.292135 27914 net.cpp:357] inception_3a/double3x3a -> inception_3a/double3x3a
I0707 08:38:41.292158 27914 net.cpp:97] Setting up inception_3a/double3x3a
I0707 08:38:41.292860 27914 net.cpp:104] Top shape: 32 96 28 28 (2408448)
I0707 08:38:41.292877 27914 layer_factory.hpp:78] Creating layer inception_3a/double3x3a/bn
I0707 08:38:41.292891 27914 net.cpp:68] Creating Layer inception_3a/double3x3a/bn
I0707 08:38:41.292901 27914 net.cpp:395] inception_3a/double3x3a/bn <- inception_3a/double3x3a
I0707 08:38:41.292911 27914 net.cpp:357] inception_3a/double3x3a/bn -> inception_3a/double3x3a/bn
I0707 08:38:41.292922 27914 net.cpp:97] Setting up inception_3a/double3x3a/bn
I0707 08:38:41.292937 27914 net.cpp:104] Top shape: 32 96 28 28 (2408448)
I0707 08:38:41.292947 27914 layer_factory.hpp:78] Creating layer inception_3a/relu_double3x3a
I0707 08:38:41.292956 27914 net.cpp:68] Creating Layer inception_3a/relu_double3x3a
I0707 08:38:41.292964 27914 net.cpp:395] inception_3a/relu_double3x3a <- inception_3a/double3x3a/bn
I0707 08:38:41.292994 27914 net.cpp:346] inception_3a/relu_double3x3a -> inception_3a/double3x3a/bn (in-place)
I0707 08:38:41.293011 27914 net.cpp:97] Setting up inception_3a/relu_double3x3a
I0707 08:38:41.293099 27914 net.cpp:104] Top shape: 32 96 28 28 (2408448)
I0707 08:38:41.293118 27914 layer_factory.hpp:78] Creating layer inception_3a/double3x3b
I0707 08:38:41.293145 27914 net.cpp:68] Creating Layer inception_3a/double3x3b
I0707 08:38:41.293164 27914 net.cpp:395] inception_3a/double3x3b <- inception_3a/double3x3a/bn
I0707 08:38:41.293180 27914 net.cpp:357] inception_3a/double3x3b -> inception_3a/double3x3b
I0707 08:38:41.293210 27914 net.cpp:97] Setting up inception_3a/double3x3b
I0707 08:38:41.294105 27914 net.cpp:104] Top shape: 32 96 28 28 (2408448)
I0707 08:38:41.294122 27914 layer_factory.hpp:78] Creating layer inception_3a/double3x3b/bn
I0707 08:38:41.294136 27914 net.cpp:68] Creating Layer inception_3a/double3x3b/bn
I0707 08:38:41.294144 27914 net.cpp:395] inception_3a/double3x3b/bn <- inception_3a/double3x3b
I0707 08:38:41.294154 27914 net.cpp:357] inception_3a/double3x3b/bn -> inception_3a/double3x3b/bn
I0707 08:38:41.294165 27914 net.cpp:97] Setting up inception_3a/double3x3b/bn
I0707 08:38:41.294181 27914 net.cpp:104] Top shape: 32 96 28 28 (2408448)
I0707 08:38:41.294193 27914 layer_factory.hpp:78] Creating layer inception_3a/relu_double3x3b
I0707 08:38:41.294201 27914 net.cpp:68] Creating Layer inception_3a/relu_double3x3b
I0707 08:38:41.294209 27914 net.cpp:395] inception_3a/relu_double3x3b <- inception_3a/double3x3b/bn
I0707 08:38:41.294224 27914 net.cpp:346] inception_3a/relu_double3x3b -> inception_3a/double3x3b/bn (in-place)
I0707 08:38:41.294245 27914 net.cpp:97] Setting up inception_3a/relu_double3x3b
I0707 08:38:41.294337 27914 net.cpp:104] Top shape: 32 96 28 28 (2408448)
I0707 08:38:41.294353 27914 layer_factory.hpp:78] Creating layer inception_3a/pool
I0707 08:38:41.294365 27914 layer_factory.cpp:51] CUDNN does not support padding or multiple tops. Using Caffe's own pooling layer.
I0707 08:38:41.294384 27914 net.cpp:68] Creating Layer inception_3a/pool
I0707 08:38:41.294399 27914 net.cpp:395] inception_3a/pool <- pool2/3x3_s2_pool2/3x3_s2_0_split_3
I0707 08:38:41.294411 27914 net.cpp:357] inception_3a/pool -> inception_3a/pool
I0707 08:38:41.294438 27914 net.cpp:97] Setting up inception_3a/pool
I0707 08:38:41.294456 27914 net.cpp:104] Top shape: 32 192 28 28 (4816896)
I0707 08:38:41.294469 27914 layer_factory.hpp:78] Creating layer inception_3a/pool_proj
I0707 08:38:41.294498 27914 net.cpp:68] Creating Layer inception_3a/pool_proj
I0707 08:38:41.294512 27914 net.cpp:395] inception_3a/pool_proj <- inception_3a/pool
I0707 08:38:41.294528 27914 net.cpp:357] inception_3a/pool_proj -> inception_3a/pool_proj
I0707 08:38:41.294551 27914 net.cpp:97] Setting up inception_3a/pool_proj
I0707 08:38:41.294910 27914 net.cpp:104] Top shape: 32 32 28 28 (802816)
I0707 08:38:41.294929 27914 layer_factory.hpp:78] Creating layer inception_3a/pool_proj/bn
I0707 08:38:41.294942 27914 net.cpp:68] Creating Layer inception_3a/pool_proj/bn
I0707 08:38:41.294951 27914 net.cpp:395] inception_3a/pool_proj/bn <- inception_3a/pool_proj
I0707 08:38:41.294963 27914 net.cpp:357] inception_3a/pool_proj/bn -> inception_3a/pool_proj/bn
I0707 08:38:41.294975 27914 net.cpp:97] Setting up inception_3a/pool_proj/bn
I0707 08:38:41.294991 27914 net.cpp:104] Top shape: 32 32 28 28 (802816)
I0707 08:38:41.295001 27914 layer_factory.hpp:78] Creating layer inception_3a/relu_pool_proj
I0707 08:38:41.295011 27914 net.cpp:68] Creating Layer inception_3a/relu_pool_proj
I0707 08:38:41.295018 27914 net.cpp:395] inception_3a/relu_pool_proj <- inception_3a/pool_proj/bn
I0707 08:38:41.295034 27914 net.cpp:346] inception_3a/relu_pool_proj -> inception_3a/pool_proj/bn (in-place)
I0707 08:38:41.295054 27914 net.cpp:97] Setting up inception_3a/relu_pool_proj
I0707 08:38:41.295264 27914 net.cpp:104] Top shape: 32 32 28 28 (802816)
I0707 08:38:41.295280 27914 layer_factory.hpp:78] Creating layer inception_3a/output
I0707 08:38:41.295311 27914 net.cpp:68] Creating Layer inception_3a/output
I0707 08:38:41.295322 27914 net.cpp:395] inception_3a/output <- inception_3a/1x1/bn
I0707 08:38:41.295348 27914 net.cpp:395] inception_3a/output <- inception_3a/3x3/bn
I0707 08:38:41.295367 27914 net.cpp:395] inception_3a/output <- inception_3a/double3x3b/bn
I0707 08:38:41.295380 27914 net.cpp:395] inception_3a/output <- inception_3a/pool_proj/bn
I0707 08:38:41.295403 27914 net.cpp:357] inception_3a/output -> inception_3a/output
I0707 08:38:41.295419 27914 net.cpp:97] Setting up inception_3a/output
I0707 08:38:41.295433 27914 net.cpp:104] Top shape: 32 256 28 28 (6422528)
I0707 08:38:41.295452 27914 layer_factory.hpp:78] Creating layer inception_3a/output_inception_3a/output_0_split
I0707 08:38:41.295469 27914 net.cpp:68] Creating Layer inception_3a/output_inception_3a/output_0_split
I0707 08:38:41.295481 27914 net.cpp:395] inception_3a/output_inception_3a/output_0_split <- inception_3a/output
I0707 08:38:41.295510 27914 net.cpp:357] inception_3a/output_inception_3a/output_0_split -> inception_3a/output_inception_3a/output_0_split_0
I0707 08:38:41.295528 27914 net.cpp:357] inception_3a/output_inception_3a/output_0_split -> inception_3a/output_inception_3a/output_0_split_1
I0707 08:38:41.295552 27914 net.cpp:357] inception_3a/output_inception_3a/output_0_split -> inception_3a/output_inception_3a/output_0_split_2
I0707 08:38:41.295570 27914 net.cpp:357] inception_3a/output_inception_3a/output_0_split -> inception_3a/output_inception_3a/output_0_split_3
I0707 08:38:41.295586 27914 net.cpp:97] Setting up inception_3a/output_inception_3a/output_0_split
I0707 08:38:41.295609 27914 net.cpp:104] Top shape: 32 256 28 28 (6422528)
I0707 08:38:41.295622 27914 net.cpp:104] Top shape: 32 256 28 28 (6422528)
I0707 08:38:41.295634 27914 net.cpp:104] Top shape: 32 256 28 28 (6422528)
I0707 08:38:41.295658 27914 net.cpp:104] Top shape: 32 256 28 28 (6422528)
I0707 08:38:41.295672 27914 layer_factory.hpp:78] Creating layer inception_3b/1x1
I0707 08:38:41.295687 27914 net.cpp:68] Creating Layer inception_3b/1x1
I0707 08:38:41.295716 27914 net.cpp:395] inception_3b/1x1 <- inception_3a/output_inception_3a/output_0_split_0
I0707 08:38:41.295728 27914 net.cpp:357] inception_3b/1x1 -> inception_3b/1x1
I0707 08:38:41.295748 27914 net.cpp:97] Setting up inception_3b/1x1
I0707 08:38:41.296183 27914 net.cpp:104] Top shape: 32 64 28 28 (1605632)
I0707 08:38:41.296201 27914 layer_factory.hpp:78] Creating layer inception_3b/1x1/bn
I0707 08:38:41.296213 27914 net.cpp:68] Creating Layer inception_3b/1x1/bn
I0707 08:38:41.296222 27914 net.cpp:395] inception_3b/1x1/bn <- inception_3b/1x1
I0707 08:38:41.296234 27914 net.cpp:357] inception_3b/1x1/bn -> inception_3b/1x1/bn
I0707 08:38:41.296246 27914 net.cpp:97] Setting up inception_3b/1x1/bn
I0707 08:38:41.296262 27914 net.cpp:104] Top shape: 32 64 28 28 (1605632)
I0707 08:38:41.296274 27914 layer_factory.hpp:78] Creating layer inception_3b/relu_1x1
I0707 08:38:41.296285 27914 net.cpp:68] Creating Layer inception_3b/relu_1x1
I0707 08:38:41.296298 27914 net.cpp:395] inception_3b/relu_1x1 <- inception_3b/1x1/bn
I0707 08:38:41.296315 27914 net.cpp:346] inception_3b/relu_1x1 -> inception_3b/1x1/bn (in-place)
I0707 08:38:41.296331 27914 net.cpp:97] Setting up inception_3b/relu_1x1
I0707 08:38:41.296424 27914 net.cpp:104] Top shape: 32 64 28 28 (1605632)
I0707 08:38:41.296439 27914 layer_factory.hpp:78] Creating layer inception_3b/3x3_reduce
I0707 08:38:41.296463 27914 net.cpp:68] Creating Layer inception_3b/3x3_reduce
I0707 08:38:41.296479 27914 net.cpp:395] inception_3b/3x3_reduce <- inception_3a/output_inception_3a/output_0_split_1
I0707 08:38:41.296496 27914 net.cpp:357] inception_3b/3x3_reduce -> inception_3b/3x3_reduce
I0707 08:38:41.296525 27914 net.cpp:97] Setting up inception_3b/3x3_reduce
I0707 08:38:41.296952 27914 net.cpp:104] Top shape: 32 64 28 28 (1605632)
I0707 08:38:41.296969 27914 layer_factory.hpp:78] Creating layer inception_3b/3x3_reduce/bn
I0707 08:38:41.296983 27914 net.cpp:68] Creating Layer inception_3b/3x3_reduce/bn
I0707 08:38:41.297003 27914 net.cpp:395] inception_3b/3x3_reduce/bn <- inception_3b/3x3_reduce
I0707 08:38:41.297014 27914 net.cpp:357] inception_3b/3x3_reduce/bn -> inception_3b/3x3_reduce/bn
I0707 08:38:41.297025 27914 net.cpp:97] Setting up inception_3b/3x3_reduce/bn
I0707 08:38:41.297041 27914 net.cpp:104] Top shape: 32 64 28 28 (1605632)
I0707 08:38:41.297054 27914 layer_factory.hpp:78] Creating layer inception_3b/relu_3x3_reduce
I0707 08:38:41.297071 27914 net.cpp:68] Creating Layer inception_3b/relu_3x3_reduce
I0707 08:38:41.297087 27914 net.cpp:395] inception_3b/relu_3x3_reduce <- inception_3b/3x3_reduce/bn
I0707 08:38:41.297098 27914 net.cpp:346] inception_3b/relu_3x3_reduce -> inception_3b/3x3_reduce/bn (in-place)
I0707 08:38:41.297109 27914 net.cpp:97] Setting up inception_3b/relu_3x3_reduce
I0707 08:38:41.297204 27914 net.cpp:104] Top shape: 32 64 28 28 (1605632)
I0707 08:38:41.297226 27914 layer_factory.hpp:78] Creating layer inception_3b/3x3
I0707 08:38:41.297245 27914 net.cpp:68] Creating Layer inception_3b/3x3
I0707 08:38:41.297260 27914 net.cpp:395] inception_3b/3x3 <- inception_3b/3x3_reduce/bn
I0707 08:38:41.297281 27914 net.cpp:357] inception_3b/3x3 -> inception_3b/3x3
I0707 08:38:41.297301 27914 net.cpp:97] Setting up inception_3b/3x3
I0707 08:38:41.298003 27914 net.cpp:104] Top shape: 32 96 28 28 (2408448)
I0707 08:38:41.298022 27914 layer_factory.hpp:78] Creating layer inception_3b/3x3/bn
I0707 08:38:41.298032 27914 net.cpp:68] Creating Layer inception_3b/3x3/bn
I0707 08:38:41.298041 27914 net.cpp:395] inception_3b/3x3/bn <- inception_3b/3x3
I0707 08:38:41.298053 27914 net.cpp:357] inception_3b/3x3/bn -> inception_3b/3x3/bn
I0707 08:38:41.298064 27914 net.cpp:97] Setting up inception_3b/3x3/bn
I0707 08:38:41.298080 27914 net.cpp:104] Top shape: 32 96 28 28 (2408448)
I0707 08:38:41.298091 27914 layer_factory.hpp:78] Creating layer inception_3b/relu_3x3
I0707 08:38:41.298100 27914 net.cpp:68] Creating Layer inception_3b/relu_3x3
I0707 08:38:41.298108 27914 net.cpp:395] inception_3b/relu_3x3 <- inception_3b/3x3/bn
I0707 08:38:41.298126 27914 net.cpp:346] inception_3b/relu_3x3 -> inception_3b/3x3/bn (in-place)
I0707 08:38:41.298146 27914 net.cpp:97] Setting up inception_3b/relu_3x3
I0707 08:38:41.298364 27914 net.cpp:104] Top shape: 32 96 28 28 (2408448)
I0707 08:38:41.298388 27914 layer_factory.hpp:78] Creating layer inception_3b/double3x3_reduce
I0707 08:38:41.298401 27914 net.cpp:68] Creating Layer inception_3b/double3x3_reduce
I0707 08:38:41.298409 27914 net.cpp:395] inception_3b/double3x3_reduce <- inception_3a/output_inception_3a/output_0_split_2
I0707 08:38:41.298424 27914 net.cpp:357] inception_3b/double3x3_reduce -> inception_3b/double3x3_reduce
I0707 08:38:41.298445 27914 net.cpp:97] Setting up inception_3b/double3x3_reduce
I0707 08:38:41.298864 27914 net.cpp:104] Top shape: 32 64 28 28 (1605632)
I0707 08:38:41.298882 27914 layer_factory.hpp:78] Creating layer inception_3b/double3x3_reduce/bn
I0707 08:38:41.298893 27914 net.cpp:68] Creating Layer inception_3b/double3x3_reduce/bn
I0707 08:38:41.298902 27914 net.cpp:395] inception_3b/double3x3_reduce/bn <- inception_3b/double3x3_reduce
I0707 08:38:41.298914 27914 net.cpp:357] inception_3b/double3x3_reduce/bn -> inception_3b/double3x3_reduce/bn
I0707 08:38:41.298926 27914 net.cpp:97] Setting up inception_3b/double3x3_reduce/bn
I0707 08:38:41.298943 27914 net.cpp:104] Top shape: 32 64 28 28 (1605632)
I0707 08:38:41.298954 27914 layer_factory.hpp:78] Creating layer inception_3b/relu_double3x3_reduce
I0707 08:38:41.298962 27914 net.cpp:68] Creating Layer inception_3b/relu_double3x3_reduce
I0707 08:38:41.298971 27914 net.cpp:395] inception_3b/relu_double3x3_reduce <- inception_3b/double3x3_reduce/bn
I0707 08:38:41.298985 27914 net.cpp:346] inception_3b/relu_double3x3_reduce -> inception_3b/double3x3_reduce/bn (in-place)
I0707 08:38:41.299003 27914 net.cpp:97] Setting up inception_3b/relu_double3x3_reduce
I0707 08:38:41.299095 27914 net.cpp:104] Top shape: 32 64 28 28 (1605632)
I0707 08:38:41.299113 27914 layer_factory.hpp:78] Creating layer inception_3b/double3x3a
I0707 08:38:41.299150 27914 net.cpp:68] Creating Layer inception_3b/double3x3a
I0707 08:38:41.299170 27914 net.cpp:395] inception_3b/double3x3a <- inception_3b/double3x3_reduce/bn
I0707 08:38:41.299196 27914 net.cpp:357] inception_3b/double3x3a -> inception_3b/double3x3a
I0707 08:38:41.299214 27914 net.cpp:97] Setting up inception_3b/double3x3a
I0707 08:38:41.299892 27914 net.cpp:104] Top shape: 32 96 28 28 (2408448)
I0707 08:38:41.299911 27914 layer_factory.hpp:78] Creating layer inception_3b/double3x3a/bn
I0707 08:38:41.299923 27914 net.cpp:68] Creating Layer inception_3b/double3x3a/bn
I0707 08:38:41.299933 27914 net.cpp:395] inception_3b/double3x3a/bn <- inception_3b/double3x3a
I0707 08:38:41.299943 27914 net.cpp:357] inception_3b/double3x3a/bn -> inception_3b/double3x3a/bn
I0707 08:38:41.299954 27914 net.cpp:97] Setting up inception_3b/double3x3a/bn
I0707 08:38:41.299971 27914 net.cpp:104] Top shape: 32 96 28 28 (2408448)
I0707 08:38:41.299983 27914 layer_factory.hpp:78] Creating layer inception_3b/relu_double3x3a
I0707 08:38:41.299993 27914 net.cpp:68] Creating Layer inception_3b/relu_double3x3a
I0707 08:38:41.300003 27914 net.cpp:395] inception_3b/relu_double3x3a <- inception_3b/double3x3a/bn
I0707 08:38:41.300021 27914 net.cpp:346] inception_3b/relu_double3x3a -> inception_3b/double3x3a/bn (in-place)
I0707 08:38:41.300039 27914 net.cpp:97] Setting up inception_3b/relu_double3x3a
I0707 08:38:41.300127 27914 net.cpp:104] Top shape: 32 96 28 28 (2408448)
I0707 08:38:41.300143 27914 layer_factory.hpp:78] Creating layer inception_3b/double3x3b
I0707 08:38:41.300160 27914 net.cpp:68] Creating Layer inception_3b/double3x3b
I0707 08:38:41.300184 27914 net.cpp:395] inception_3b/double3x3b <- inception_3b/double3x3a/bn
I0707 08:38:41.300201 27914 net.cpp:357] inception_3b/double3x3b -> inception_3b/double3x3b
I0707 08:38:41.300230 27914 net.cpp:97] Setting up inception_3b/double3x3b
I0707 08:38:41.301082 27914 net.cpp:104] Top shape: 32 96 28 28 (2408448)
I0707 08:38:41.301100 27914 layer_factory.hpp:78] Creating layer inception_3b/double3x3b/bn
I0707 08:38:41.301113 27914 net.cpp:68] Creating Layer inception_3b/double3x3b/bn
I0707 08:38:41.301122 27914 net.cpp:395] inception_3b/double3x3b/bn <- inception_3b/double3x3b
I0707 08:38:41.301132 27914 net.cpp:357] inception_3b/double3x3b/bn -> inception_3b/double3x3b/bn
I0707 08:38:41.301143 27914 net.cpp:97] Setting up inception_3b/double3x3b/bn
I0707 08:38:41.301159 27914 net.cpp:104] Top shape: 32 96 28 28 (2408448)
I0707 08:38:41.301172 27914 layer_factory.hpp:78] Creating layer inception_3b/relu_double3x3b
I0707 08:38:41.301182 27914 net.cpp:68] Creating Layer inception_3b/relu_double3x3b
I0707 08:38:41.301190 27914 net.cpp:395] inception_3b/relu_double3x3b <- inception_3b/double3x3b/bn
I0707 08:38:41.301206 27914 net.cpp:346] inception_3b/relu_double3x3b -> inception_3b/double3x3b/bn (in-place)
I0707 08:38:41.301224 27914 net.cpp:97] Setting up inception_3b/relu_double3x3b
I0707 08:38:41.301313 27914 net.cpp:104] Top shape: 32 96 28 28 (2408448)
I0707 08:38:41.301327 27914 layer_factory.hpp:78] Creating layer inception_3b/pool
I0707 08:38:41.301342 27914 layer_factory.cpp:51] CUDNN does not support padding or multiple tops. Using Caffe's own pooling layer.
I0707 08:38:41.301373 27914 net.cpp:68] Creating Layer inception_3b/pool
I0707 08:38:41.301384 27914 net.cpp:395] inception_3b/pool <- inception_3a/output_inception_3a/output_0_split_3
I0707 08:38:41.301399 27914 net.cpp:357] inception_3b/pool -> inception_3b/pool
I0707 08:38:41.301422 27914 net.cpp:97] Setting up inception_3b/pool
I0707 08:38:41.301440 27914 net.cpp:104] Top shape: 32 256 28 28 (6422528)
I0707 08:38:41.301451 27914 layer_factory.hpp:78] Creating layer inception_3b/pool_proj
I0707 08:38:41.301481 27914 net.cpp:68] Creating Layer inception_3b/pool_proj
I0707 08:38:41.301497 27914 net.cpp:395] inception_3b/pool_proj <- inception_3b/pool
I0707 08:38:41.301520 27914 net.cpp:357] inception_3b/pool_proj -> inception_3b/pool_proj
I0707 08:38:41.301540 27914 net.cpp:97] Setting up inception_3b/pool_proj
I0707 08:38:41.301990 27914 net.cpp:104] Top shape: 32 64 28 28 (1605632)
I0707 08:38:41.302007 27914 layer_factory.hpp:78] Creating layer inception_3b/pool_proj/bn
I0707 08:38:41.302021 27914 net.cpp:68] Creating Layer inception_3b/pool_proj/bn
I0707 08:38:41.302031 27914 net.cpp:395] inception_3b/pool_proj/bn <- inception_3b/pool_proj
I0707 08:38:41.302041 27914 net.cpp:357] inception_3b/pool_proj/bn -> inception_3b/pool_proj/bn
I0707 08:38:41.302052 27914 net.cpp:97] Setting up inception_3b/pool_proj/bn
I0707 08:38:41.302067 27914 net.cpp:104] Top shape: 32 64 28 28 (1605632)
I0707 08:38:41.302076 27914 layer_factory.hpp:78] Creating layer inception_3b/relu_pool_proj
I0707 08:38:41.302088 27914 net.cpp:68] Creating Layer inception_3b/relu_pool_proj
I0707 08:38:41.302096 27914 net.cpp:395] inception_3b/relu_pool_proj <- inception_3b/pool_proj/bn
I0707 08:38:41.302109 27914 net.cpp:346] inception_3b/relu_pool_proj -> inception_3b/pool_proj/bn (in-place)
I0707 08:38:41.302129 27914 net.cpp:97] Setting up inception_3b/relu_pool_proj
I0707 08:38:41.302342 27914 net.cpp:104] Top shape: 32 64 28 28 (1605632)
I0707 08:38:41.302358 27914 layer_factory.hpp:78] Creating layer inception_3b/output
I0707 08:38:41.302376 27914 net.cpp:68] Creating Layer inception_3b/output
I0707 08:38:41.302384 27914 net.cpp:395] inception_3b/output <- inception_3b/1x1/bn
I0707 08:38:41.302393 27914 net.cpp:395] inception_3b/output <- inception_3b/3x3/bn
I0707 08:38:41.302405 27914 net.cpp:395] inception_3b/output <- inception_3b/double3x3b/bn
I0707 08:38:41.302431 27914 net.cpp:395] inception_3b/output <- inception_3b/pool_proj/bn
I0707 08:38:41.302449 27914 net.cpp:357] inception_3b/output -> inception_3b/output
I0707 08:38:41.302471 27914 net.cpp:97] Setting up inception_3b/output
I0707 08:38:41.302489 27914 net.cpp:104] Top shape: 32 320 28 28 (8028160)
I0707 08:38:41.302500 27914 layer_factory.hpp:78] Creating layer inception_3b/output_inception_3b/output_0_split
I0707 08:38:41.302512 27914 net.cpp:68] Creating Layer inception_3b/output_inception_3b/output_0_split
I0707 08:38:41.302534 27914 net.cpp:395] inception_3b/output_inception_3b/output_0_split <- inception_3b/output
I0707 08:38:41.302553 27914 net.cpp:357] inception_3b/output_inception_3b/output_0_split -> inception_3b/output_inception_3b/output_0_split_0
I0707 08:38:41.302578 27914 net.cpp:357] inception_3b/output_inception_3b/output_0_split -> inception_3b/output_inception_3b/output_0_split_1
I0707 08:38:41.302594 27914 net.cpp:357] inception_3b/output_inception_3b/output_0_split -> inception_3b/output_inception_3b/output_0_split_2
I0707 08:38:41.302611 27914 net.cpp:97] Setting up inception_3b/output_inception_3b/output_0_split
I0707 08:38:41.302635 27914 net.cpp:104] Top shape: 32 320 28 28 (8028160)
I0707 08:38:41.302649 27914 net.cpp:104] Top shape: 32 320 28 28 (8028160)
I0707 08:38:41.302656 27914 net.cpp:104] Top shape: 32 320 28 28 (8028160)
I0707 08:38:41.302675 27914 layer_factory.hpp:78] Creating layer inception_3c/3x3_reduce
I0707 08:38:41.302693 27914 net.cpp:68] Creating Layer inception_3c/3x3_reduce
I0707 08:38:41.302705 27914 net.cpp:395] inception_3c/3x3_reduce <- inception_3b/output_inception_3b/output_0_split_0
I0707 08:38:41.302733 27914 net.cpp:357] inception_3c/3x3_reduce -> inception_3c/3x3_reduce
I0707 08:38:41.302748 27914 net.cpp:97] Setting up inception_3c/3x3_reduce
I0707 08:38:41.303326 27914 net.cpp:104] Top shape: 32 128 28 28 (3211264)
I0707 08:38:41.303344 27914 layer_factory.hpp:78] Creating layer inception_3c/3x3_reduce/bn
I0707 08:38:41.303357 27914 net.cpp:68] Creating Layer inception_3c/3x3_reduce/bn
I0707 08:38:41.303367 27914 net.cpp:395] inception_3c/3x3_reduce/bn <- inception_3c/3x3_reduce
I0707 08:38:41.303378 27914 net.cpp:357] inception_3c/3x3_reduce/bn -> inception_3c/3x3_reduce/bn
I0707 08:38:41.303390 27914 net.cpp:97] Setting up inception_3c/3x3_reduce/bn
I0707 08:38:41.303405 27914 net.cpp:104] Top shape: 32 128 28 28 (3211264)
I0707 08:38:41.303414 27914 layer_factory.hpp:78] Creating layer inception_3c/relu_3x3_reduce
I0707 08:38:41.303424 27914 net.cpp:68] Creating Layer inception_3c/relu_3x3_reduce
I0707 08:38:41.303444 27914 net.cpp:395] inception_3c/relu_3x3_reduce <- inception_3c/3x3_reduce/bn
I0707 08:38:41.303467 27914 net.cpp:346] inception_3c/relu_3x3_reduce -> inception_3c/3x3_reduce/bn (in-place)
I0707 08:38:41.303481 27914 net.cpp:97] Setting up inception_3c/relu_3x3_reduce
I0707 08:38:41.303582 27914 net.cpp:104] Top shape: 32 128 28 28 (3211264)
I0707 08:38:41.303596 27914 layer_factory.hpp:78] Creating layer inception_3c/3x3
I0707 08:38:41.303628 27914 net.cpp:68] Creating Layer inception_3c/3x3
I0707 08:38:41.303644 27914 net.cpp:395] inception_3c/3x3 <- inception_3c/3x3_reduce/bn
I0707 08:38:41.303665 27914 net.cpp:357] inception_3c/3x3 -> inception_3c/3x3
I0707 08:38:41.303685 27914 net.cpp:97] Setting up inception_3c/3x3
I0707 08:38:41.305284 27914 net.cpp:104] Top shape: 32 160 14 14 (1003520)
I0707 08:38:41.305301 27914 layer_factory.hpp:78] Creating layer inception_3c/3x3/bn
I0707 08:38:41.305315 27914 net.cpp:68] Creating Layer inception_3c/3x3/bn
I0707 08:38:41.305325 27914 net.cpp:395] inception_3c/3x3/bn <- inception_3c/3x3
I0707 08:38:41.305335 27914 net.cpp:357] inception_3c/3x3/bn -> inception_3c/3x3/bn
I0707 08:38:41.305347 27914 net.cpp:97] Setting up inception_3c/3x3/bn
I0707 08:38:41.305361 27914 net.cpp:104] Top shape: 32 160 14 14 (1003520)
I0707 08:38:41.305373 27914 layer_factory.hpp:78] Creating layer inception_3c/relu_3x3
I0707 08:38:41.305383 27914 net.cpp:68] Creating Layer inception_3c/relu_3x3
I0707 08:38:41.305392 27914 net.cpp:395] inception_3c/relu_3x3 <- inception_3c/3x3/bn
I0707 08:38:41.305409 27914 net.cpp:346] inception_3c/relu_3x3 -> inception_3c/3x3/bn (in-place)
I0707 08:38:41.305428 27914 net.cpp:97] Setting up inception_3c/relu_3x3
I0707 08:38:41.305526 27914 net.cpp:104] Top shape: 32 160 14 14 (1003520)
I0707 08:38:41.305541 27914 layer_factory.hpp:78] Creating layer inception_3c/double3x3_reduce
I0707 08:38:41.305565 27914 net.cpp:68] Creating Layer inception_3c/double3x3_reduce
I0707 08:38:41.305582 27914 net.cpp:395] inception_3c/double3x3_reduce <- inception_3b/output_inception_3b/output_0_split_1
I0707 08:38:41.305598 27914 net.cpp:357] inception_3c/double3x3_reduce -> inception_3c/double3x3_reduce
I0707 08:38:41.305621 27914 net.cpp:97] Setting up inception_3c/double3x3_reduce
I0707 08:38:41.306083 27914 net.cpp:104] Top shape: 32 64 28 28 (1605632)
I0707 08:38:41.306102 27914 layer_factory.hpp:78] Creating layer inception_3c/double3x3_reduce/bn
I0707 08:38:41.306114 27914 net.cpp:68] Creating Layer inception_3c/double3x3_reduce/bn
I0707 08:38:41.306124 27914 net.cpp:395] inception_3c/double3x3_reduce/bn <- inception_3c/double3x3_reduce
I0707 08:38:41.306135 27914 net.cpp:357] inception_3c/double3x3_reduce/bn -> inception_3c/double3x3_reduce/bn
I0707 08:38:41.306148 27914 net.cpp:97] Setting up inception_3c/double3x3_reduce/bn
I0707 08:38:41.306162 27914 net.cpp:104] Top shape: 32 64 28 28 (1605632)
I0707 08:38:41.306172 27914 layer_factory.hpp:78] Creating layer inception_3c/relu_double3x3_reduce
I0707 08:38:41.306184 27914 net.cpp:68] Creating Layer inception_3c/relu_double3x3_reduce
I0707 08:38:41.306192 27914 net.cpp:395] inception_3c/relu_double3x3_reduce <- inception_3c/double3x3_reduce/bn
I0707 08:38:41.306206 27914 net.cpp:346] inception_3c/relu_double3x3_reduce -> inception_3c/double3x3_reduce/bn (in-place)
I0707 08:38:41.306226 27914 net.cpp:97] Setting up inception_3c/relu_double3x3_reduce
I0707 08:38:41.306320 27914 net.cpp:104] Top shape: 32 64 28 28 (1605632)
I0707 08:38:41.306339 27914 layer_factory.hpp:78] Creating layer inception_3c/double3x3a
I0707 08:38:41.306354 27914 net.cpp:68] Creating Layer inception_3c/double3x3a
I0707 08:38:41.306376 27914 net.cpp:395] inception_3c/double3x3a <- inception_3c/double3x3_reduce/bn
I0707 08:38:41.306395 27914 net.cpp:357] inception_3c/double3x3a -> inception_3c/double3x3a
I0707 08:38:41.306421 27914 net.cpp:97] Setting up inception_3c/double3x3a
I0707 08:38:41.307112 27914 net.cpp:104] Top shape: 32 96 28 28 (2408448)
I0707 08:38:41.307139 27914 layer_factory.hpp:78] Creating layer inception_3c/double3x3a/bn
I0707 08:38:41.307153 27914 net.cpp:68] Creating Layer inception_3c/double3x3a/bn
I0707 08:38:41.307163 27914 net.cpp:395] inception_3c/double3x3a/bn <- inception_3c/double3x3a
I0707 08:38:41.307173 27914 net.cpp:357] inception_3c/double3x3a/bn -> inception_3c/double3x3a/bn
I0707 08:38:41.307183 27914 net.cpp:97] Setting up inception_3c/double3x3a/bn
I0707 08:38:41.307199 27914 net.cpp:104] Top shape: 32 96 28 28 (2408448)
I0707 08:38:41.307209 27914 layer_factory.hpp:78] Creating layer inception_3c/relu_double3x3a
I0707 08:38:41.307219 27914 net.cpp:68] Creating Layer inception_3c/relu_double3x3a
I0707 08:38:41.307229 27914 net.cpp:395] inception_3c/relu_double3x3a <- inception_3c/double3x3a/bn
I0707 08:38:41.307245 27914 net.cpp:346] inception_3c/relu_double3x3a -> inception_3c/double3x3a/bn (in-place)
I0707 08:38:41.307265 27914 net.cpp:97] Setting up inception_3c/relu_double3x3a
I0707 08:38:41.307478 27914 net.cpp:104] Top shape: 32 96 28 28 (2408448)
I0707 08:38:41.307498 27914 layer_factory.hpp:78] Creating layer inception_3c/double3x3b
I0707 08:38:41.307509 27914 net.cpp:68] Creating Layer inception_3c/double3x3b
I0707 08:38:41.307518 27914 net.cpp:395] inception_3c/double3x3b <- inception_3c/double3x3a/bn
I0707 08:38:41.307530 27914 net.cpp:357] inception_3c/double3x3b -> inception_3c/double3x3b
I0707 08:38:41.307554 27914 net.cpp:97] Setting up inception_3c/double3x3b
I0707 08:38:41.308409 27914 net.cpp:104] Top shape: 32 96 14 14 (602112)
I0707 08:38:41.308426 27914 layer_factory.hpp:78] Creating layer inception_3c/double3x3b/bn
I0707 08:38:41.308439 27914 net.cpp:68] Creating Layer inception_3c/double3x3b/bn
I0707 08:38:41.308449 27914 net.cpp:395] inception_3c/double3x3b/bn <- inception_3c/double3x3b
I0707 08:38:41.308459 27914 net.cpp:357] inception_3c/double3x3b/bn -> inception_3c/double3x3b/bn
I0707 08:38:41.308470 27914 net.cpp:97] Setting up inception_3c/double3x3b/bn
I0707 08:38:41.308486 27914 net.cpp:104] Top shape: 32 96 14 14 (602112)
I0707 08:38:41.308502 27914 layer_factory.hpp:78] Creating layer inception_3c/relu_double3x3b
I0707 08:38:41.308514 27914 net.cpp:68] Creating Layer inception_3c/relu_double3x3b
I0707 08:38:41.308526 27914 net.cpp:395] inception_3c/relu_double3x3b <- inception_3c/double3x3b/bn
I0707 08:38:41.308544 27914 net.cpp:346] inception_3c/relu_double3x3b -> inception_3c/double3x3b/bn (in-place)
I0707 08:38:41.308560 27914 net.cpp:97] Setting up inception_3c/relu_double3x3b
I0707 08:38:41.308655 27914 net.cpp:104] Top shape: 32 96 14 14 (602112)
I0707 08:38:41.308672 27914 layer_factory.hpp:78] Creating layer inception_3c/pool/3x3_s2
I0707 08:38:41.308693 27914 net.cpp:68] Creating Layer inception_3c/pool/3x3_s2
I0707 08:38:41.308709 27914 net.cpp:395] inception_3c/pool/3x3_s2 <- inception_3b/output_inception_3b/output_0_split_2
I0707 08:38:41.308728 27914 net.cpp:357] inception_3c/pool/3x3_s2 -> inception_3c/pool/3x3_s2
I0707 08:38:41.308753 27914 net.cpp:97] Setting up inception_3c/pool/3x3_s2
I0707 08:38:41.308850 27914 net.cpp:104] Top shape: 32 320 14 14 (2007040)
I0707 08:38:41.308866 27914 layer_factory.hpp:78] Creating layer inception_3c/output
I0707 08:38:41.308892 27914 net.cpp:68] Creating Layer inception_3c/output
I0707 08:38:41.308907 27914 net.cpp:395] inception_3c/output <- inception_3c/3x3/bn
I0707 08:38:41.308924 27914 net.cpp:395] inception_3c/output <- inception_3c/double3x3b/bn
I0707 08:38:41.308948 27914 net.cpp:395] inception_3c/output <- inception_3c/pool/3x3_s2
I0707 08:38:41.308961 27914 net.cpp:357] inception_3c/output -> inception_3c/output
I0707 08:38:41.308982 27914 net.cpp:97] Setting up inception_3c/output
I0707 08:38:41.309010 27914 net.cpp:104] Top shape: 32 576 14 14 (3612672)
I0707 08:38:41.309022 27914 layer_factory.hpp:78] Creating layer inception_3c/output_inception_3c/output_0_split
I0707 08:38:41.309047 27914 net.cpp:68] Creating Layer inception_3c/output_inception_3c/output_0_split
I0707 08:38:41.309062 27914 net.cpp:395] inception_3c/output_inception_3c/output_0_split <- inception_3c/output
I0707 08:38:41.309108 27914 net.cpp:357] inception_3c/output_inception_3c/output_0_split -> inception_3c/output_inception_3c/output_0_split_0
I0707 08:38:41.309125 27914 net.cpp:357] inception_3c/output_inception_3c/output_0_split -> inception_3c/output_inception_3c/output_0_split_1
I0707 08:38:41.309152 27914 net.cpp:357] inception_3c/output_inception_3c/output_0_split -> inception_3c/output_inception_3c/output_0_split_2
I0707 08:38:41.309175 27914 net.cpp:357] inception_3c/output_inception_3c/output_0_split -> inception_3c/output_inception_3c/output_0_split_3
I0707 08:38:41.309188 27914 net.cpp:97] Setting up inception_3c/output_inception_3c/output_0_split
I0707 08:38:41.309216 27914 net.cpp:104] Top shape: 32 576 14 14 (3612672)
I0707 08:38:41.309229 27914 net.cpp:104] Top shape: 32 576 14 14 (3612672)
I0707 08:38:41.309243 27914 net.cpp:104] Top shape: 32 576 14 14 (3612672)
I0707 08:38:41.309259 27914 net.cpp:104] Top shape: 32 576 14 14 (3612672)
I0707 08:38:41.309269 27914 layer_factory.hpp:78] Creating layer inception_4a/1x1
I0707 08:38:41.309285 27914 net.cpp:68] Creating Layer inception_4a/1x1
I0707 08:38:41.309308 27914 net.cpp:395] inception_4a/1x1 <- inception_3c/output_inception_3c/output_0_split_0
I0707 08:38:41.309329 27914 net.cpp:357] inception_4a/1x1 -> inception_4a/1x1
I0707 08:38:41.309341 27914 net.cpp:97] Setting up inception_4a/1x1
I0707 08:38:41.310508 27914 net.cpp:104] Top shape: 32 224 14 14 (1404928)
I0707 08:38:41.310529 27914 layer_factory.hpp:78] Creating layer inception_4a/1x1/bn
I0707 08:38:41.310544 27914 net.cpp:68] Creating Layer inception_4a/1x1/bn
I0707 08:38:41.310555 27914 net.cpp:395] inception_4a/1x1/bn <- inception_4a/1x1
I0707 08:38:41.310565 27914 net.cpp:357] inception_4a/1x1/bn -> inception_4a/1x1/bn
I0707 08:38:41.310576 27914 net.cpp:97] Setting up inception_4a/1x1/bn
I0707 08:38:41.310591 27914 net.cpp:104] Top shape: 32 224 14 14 (1404928)
I0707 08:38:41.310601 27914 layer_factory.hpp:78] Creating layer inception_4a/relu_1x1
I0707 08:38:41.310611 27914 net.cpp:68] Creating Layer inception_4a/relu_1x1
I0707 08:38:41.310624 27914 net.cpp:395] inception_4a/relu_1x1 <- inception_4a/1x1/bn
I0707 08:38:41.310647 27914 net.cpp:346] inception_4a/relu_1x1 -> inception_4a/1x1/bn (in-place)
I0707 08:38:41.310659 27914 net.cpp:97] Setting up inception_4a/relu_1x1
I0707 08:38:41.310753 27914 net.cpp:104] Top shape: 32 224 14 14 (1404928)
I0707 08:38:41.310767 27914 layer_factory.hpp:78] Creating layer inception_4a/3x3_reduce
I0707 08:38:41.310798 27914 net.cpp:68] Creating Layer inception_4a/3x3_reduce
I0707 08:38:41.310817 27914 net.cpp:395] inception_4a/3x3_reduce <- inception_3c/output_inception_3c/output_0_split_1
I0707 08:38:41.310837 27914 net.cpp:357] inception_4a/3x3_reduce -> inception_4a/3x3_reduce
I0707 08:38:41.310858 27914 net.cpp:97] Setting up inception_4a/3x3_reduce
I0707 08:38:41.311408 27914 net.cpp:104] Top shape: 32 64 14 14 (401408)
I0707 08:38:41.311426 27914 layer_factory.hpp:78] Creating layer inception_4a/3x3_reduce/bn
I0707 08:38:41.311439 27914 net.cpp:68] Creating Layer inception_4a/3x3_reduce/bn
I0707 08:38:41.311449 27914 net.cpp:395] inception_4a/3x3_reduce/bn <- inception_4a/3x3_reduce
I0707 08:38:41.311460 27914 net.cpp:357] inception_4a/3x3_reduce/bn -> inception_4a/3x3_reduce/bn
I0707 08:38:41.311470 27914 net.cpp:97] Setting up inception_4a/3x3_reduce/bn
I0707 08:38:41.311485 27914 net.cpp:104] Top shape: 32 64 14 14 (401408)
I0707 08:38:41.311496 27914 layer_factory.hpp:78] Creating layer inception_4a/relu_3x3_reduce
I0707 08:38:41.311504 27914 net.cpp:68] Creating Layer inception_4a/relu_3x3_reduce
I0707 08:38:41.311513 27914 net.cpp:395] inception_4a/relu_3x3_reduce <- inception_4a/3x3_reduce/bn
I0707 08:38:41.311528 27914 net.cpp:346] inception_4a/relu_3x3_reduce -> inception_4a/3x3_reduce/bn (in-place)
I0707 08:38:41.311548 27914 net.cpp:97] Setting up inception_4a/relu_3x3_reduce
I0707 08:38:41.311761 27914 net.cpp:104] Top shape: 32 64 14 14 (401408)
I0707 08:38:41.311785 27914 layer_factory.hpp:78] Creating layer inception_4a/3x3
I0707 08:38:41.311810 27914 net.cpp:68] Creating Layer inception_4a/3x3
I0707 08:38:41.311822 27914 net.cpp:395] inception_4a/3x3 <- inception_4a/3x3_reduce/bn
I0707 08:38:41.311841 27914 net.cpp:357] inception_4a/3x3 -> inception_4a/3x3
I0707 08:38:41.311861 27914 net.cpp:97] Setting up inception_4a/3x3
I0707 08:38:41.312530 27914 net.cpp:104] Top shape: 32 96 14 14 (602112)
I0707 08:38:41.312547 27914 layer_factory.hpp:78] Creating layer inception_4a/3x3/bn
I0707 08:38:41.312561 27914 net.cpp:68] Creating Layer inception_4a/3x3/bn
I0707 08:38:41.312569 27914 net.cpp:395] inception_4a/3x3/bn <- inception_4a/3x3
I0707 08:38:41.312580 27914 net.cpp:357] inception_4a/3x3/bn -> inception_4a/3x3/bn
I0707 08:38:41.312592 27914 net.cpp:97] Setting up inception_4a/3x3/bn
I0707 08:38:41.312607 27914 net.cpp:104] Top shape: 32 96 14 14 (602112)
I0707 08:38:41.312616 27914 layer_factory.hpp:78] Creating layer inception_4a/relu_3x3
I0707 08:38:41.312626 27914 net.cpp:68] Creating Layer inception_4a/relu_3x3
I0707 08:38:41.312634 27914 net.cpp:395] inception_4a/relu_3x3 <- inception_4a/3x3/bn
I0707 08:38:41.312652 27914 net.cpp:346] inception_4a/relu_3x3 -> inception_4a/3x3/bn (in-place)
I0707 08:38:41.312670 27914 net.cpp:97] Setting up inception_4a/relu_3x3
I0707 08:38:41.312762 27914 net.cpp:104] Top shape: 32 96 14 14 (602112)
I0707 08:38:41.312779 27914 layer_factory.hpp:78] Creating layer inception_4a/double3x3_reduce
I0707 08:38:41.312793 27914 net.cpp:68] Creating Layer inception_4a/double3x3_reduce
I0707 08:38:41.312818 27914 net.cpp:395] inception_4a/double3x3_reduce <- inception_3c/output_inception_3c/output_0_split_2
I0707 08:38:41.312836 27914 net.cpp:357] inception_4a/double3x3_reduce -> inception_4a/double3x3_reduce
I0707 08:38:41.312858 27914 net.cpp:97] Setting up inception_4a/double3x3_reduce
I0707 08:38:41.313547 27914 net.cpp:104] Top shape: 32 96 14 14 (602112)
I0707 08:38:41.313565 27914 layer_factory.hpp:78] Creating layer inception_4a/double3x3_reduce/bn
I0707 08:38:41.313577 27914 net.cpp:68] Creating Layer inception_4a/double3x3_reduce/bn
I0707 08:38:41.313586 27914 net.cpp:395] inception_4a/double3x3_reduce/bn <- inception_4a/double3x3_reduce
I0707 08:38:41.313597 27914 net.cpp:357] inception_4a/double3x3_reduce/bn -> inception_4a/double3x3_reduce/bn
I0707 08:38:41.313608 27914 net.cpp:97] Setting up inception_4a/double3x3_reduce/bn
I0707 08:38:41.313621 27914 net.cpp:104] Top shape: 32 96 14 14 (602112)
I0707 08:38:41.313632 27914 layer_factory.hpp:78] Creating layer inception_4a/relu_double3x3_reduce
I0707 08:38:41.313640 27914 net.cpp:68] Creating Layer inception_4a/relu_double3x3_reduce
I0707 08:38:41.313648 27914 net.cpp:395] inception_4a/relu_double3x3_reduce <- inception_4a/double3x3_reduce/bn
I0707 08:38:41.313660 27914 net.cpp:346] inception_4a/relu_double3x3_reduce -> inception_4a/double3x3_reduce/bn (in-place)
I0707 08:38:41.313679 27914 net.cpp:97] Setting up inception_4a/relu_double3x3_reduce
I0707 08:38:41.313763 27914 net.cpp:104] Top shape: 32 96 14 14 (602112)
I0707 08:38:41.313787 27914 layer_factory.hpp:78] Creating layer inception_4a/double3x3a
I0707 08:38:41.313807 27914 net.cpp:68] Creating Layer inception_4a/double3x3a
I0707 08:38:41.313830 27914 net.cpp:395] inception_4a/double3x3a <- inception_4a/double3x3_reduce/bn
I0707 08:38:41.313850 27914 net.cpp:357] inception_4a/double3x3a -> inception_4a/double3x3a
I0707 08:38:41.313868 27914 net.cpp:97] Setting up inception_4a/double3x3a
I0707 08:38:41.314877 27914 net.cpp:104] Top shape: 32 128 14 14 (802816)
I0707 08:38:41.314895 27914 layer_factory.hpp:78] Creating layer inception_4a/double3x3a/bn
I0707 08:38:41.314908 27914 net.cpp:68] Creating Layer inception_4a/double3x3a/bn
I0707 08:38:41.314918 27914 net.cpp:395] inception_4a/double3x3a/bn <- inception_4a/double3x3a
I0707 08:38:41.314929 27914 net.cpp:357] inception_4a/double3x3a/bn -> inception_4a/double3x3a/bn
I0707 08:38:41.314939 27914 net.cpp:97] Setting up inception_4a/double3x3a/bn
I0707 08:38:41.314957 27914 net.cpp:104] Top shape: 32 128 14 14 (802816)
I0707 08:38:41.314977 27914 layer_factory.hpp:78] Creating layer inception_4a/relu_double3x3a
I0707 08:38:41.314991 27914 net.cpp:68] Creating Layer inception_4a/relu_double3x3a
I0707 08:38:41.315007 27914 net.cpp:395] inception_4a/relu_double3x3a <- inception_4a/double3x3a/bn
I0707 08:38:41.315024 27914 net.cpp:346] inception_4a/relu_double3x3a -> inception_4a/double3x3a/bn (in-place)
I0707 08:38:41.315035 27914 net.cpp:97] Setting up inception_4a/relu_double3x3a
I0707 08:38:41.315263 27914 net.cpp:104] Top shape: 32 128 14 14 (802816)
I0707 08:38:41.315279 27914 layer_factory.hpp:78] Creating layer inception_4a/double3x3b
I0707 08:38:41.315291 27914 net.cpp:68] Creating Layer inception_4a/double3x3b
I0707 08:38:41.315300 27914 net.cpp:395] inception_4a/double3x3b <- inception_4a/double3x3a/bn
I0707 08:38:41.315312 27914 net.cpp:357] inception_4a/double3x3b -> inception_4a/double3x3b
I0707 08:38:41.315326 27914 net.cpp:97] Setting up inception_4a/double3x3b
I0707 08:38:41.316589 27914 net.cpp:104] Top shape: 32 128 14 14 (802816)
I0707 08:38:41.316608 27914 layer_factory.hpp:78] Creating layer inception_4a/double3x3b/bn
I0707 08:38:41.316620 27914 net.cpp:68] Creating Layer inception_4a/double3x3b/bn
I0707 08:38:41.316629 27914 net.cpp:395] inception_4a/double3x3b/bn <- inception_4a/double3x3b
I0707 08:38:41.316642 27914 net.cpp:357] inception_4a/double3x3b/bn -> inception_4a/double3x3b/bn
I0707 08:38:41.316653 27914 net.cpp:97] Setting up inception_4a/double3x3b/bn
I0707 08:38:41.316666 27914 net.cpp:104] Top shape: 32 128 14 14 (802816)
I0707 08:38:41.316678 27914 layer_factory.hpp:78] Creating layer inception_4a/relu_double3x3b
I0707 08:38:41.316689 27914 net.cpp:68] Creating Layer inception_4a/relu_double3x3b
I0707 08:38:41.316697 27914 net.cpp:395] inception_4a/relu_double3x3b <- inception_4a/double3x3b/bn
I0707 08:38:41.316714 27914 net.cpp:346] inception_4a/relu_double3x3b -> inception_4a/double3x3b/bn (in-place)
I0707 08:38:41.316732 27914 net.cpp:97] Setting up inception_4a/relu_double3x3b
I0707 08:38:41.316829 27914 net.cpp:104] Top shape: 32 128 14 14 (802816)
I0707 08:38:41.316848 27914 layer_factory.hpp:78] Creating layer inception_4a/pool
I0707 08:38:41.316866 27914 layer_factory.cpp:51] CUDNN does not support padding or multiple tops. Using Caffe's own pooling layer.
I0707 08:38:41.316885 27914 net.cpp:68] Creating Layer inception_4a/pool
I0707 08:38:41.316901 27914 net.cpp:395] inception_4a/pool <- inception_3c/output_inception_3c/output_0_split_3
I0707 08:38:41.316926 27914 net.cpp:357] inception_4a/pool -> inception_4a/pool
I0707 08:38:41.316946 27914 net.cpp:97] Setting up inception_4a/pool
I0707 08:38:41.316957 27914 net.cpp:104] Top shape: 32 576 14 14 (3612672)
I0707 08:38:41.316984 27914 layer_factory.hpp:78] Creating layer inception_4a/pool_proj
I0707 08:38:41.317003 27914 net.cpp:68] Creating Layer inception_4a/pool_proj
I0707 08:38:41.317020 27914 net.cpp:395] inception_4a/pool_proj <- inception_4a/pool
I0707 08:38:41.317039 27914 net.cpp:357] inception_4a/pool_proj -> inception_4a/pool_proj
I0707 08:38:41.317054 27914 net.cpp:97] Setting up inception_4a/pool_proj
I0707 08:38:41.317854 27914 net.cpp:104] Top shape: 32 128 14 14 (802816)
I0707 08:38:41.317873 27914 layer_factory.hpp:78] Creating layer inception_4a/pool_proj/bn
I0707 08:38:41.317885 27914 net.cpp:68] Creating Layer inception_4a/pool_proj/bn
I0707 08:38:41.317895 27914 net.cpp:395] inception_4a/pool_proj/bn <- inception_4a/pool_proj
I0707 08:38:41.317908 27914 net.cpp:357] inception_4a/pool_proj/bn -> inception_4a/pool_proj/bn
I0707 08:38:41.317919 27914 net.cpp:97] Setting up inception_4a/pool_proj/bn
I0707 08:38:41.317934 27914 net.cpp:104] Top shape: 32 128 14 14 (802816)
I0707 08:38:41.317945 27914 layer_factory.hpp:78] Creating layer inception_4a/relu_pool_proj
I0707 08:38:41.317953 27914 net.cpp:68] Creating Layer inception_4a/relu_pool_proj
I0707 08:38:41.317961 27914 net.cpp:395] inception_4a/relu_pool_proj <- inception_4a/pool_proj/bn
I0707 08:38:41.317976 27914 net.cpp:346] inception_4a/relu_pool_proj -> inception_4a/pool_proj/bn (in-place)
I0707 08:38:41.318008 27914 net.cpp:97] Setting up inception_4a/relu_pool_proj
I0707 08:38:41.318107 27914 net.cpp:104] Top shape: 32 128 14 14 (802816)
I0707 08:38:41.318123 27914 layer_factory.hpp:78] Creating layer inception_4a/output
I0707 08:38:41.318150 27914 net.cpp:68] Creating Layer inception_4a/output
I0707 08:38:41.318166 27914 net.cpp:395] inception_4a/output <- inception_4a/1x1/bn
I0707 08:38:41.318184 27914 net.cpp:395] inception_4a/output <- inception_4a/3x3/bn
I0707 08:38:41.318203 27914 net.cpp:395] inception_4a/output <- inception_4a/double3x3b/bn
I0707 08:38:41.318217 27914 net.cpp:395] inception_4a/output <- inception_4a/pool_proj/bn
I0707 08:38:41.318243 27914 net.cpp:357] inception_4a/output -> inception_4a/output
I0707 08:38:41.318263 27914 net.cpp:97] Setting up inception_4a/output
I0707 08:38:41.318274 27914 net.cpp:104] Top shape: 32 576 14 14 (3612672)
I0707 08:38:41.318295 27914 layer_factory.hpp:78] Creating layer inception_4a/output_inception_4a/output_0_split
I0707 08:38:41.318307 27914 net.cpp:68] Creating Layer inception_4a/output_inception_4a/output_0_split
I0707 08:38:41.318323 27914 net.cpp:395] inception_4a/output_inception_4a/output_0_split <- inception_4a/output
I0707 08:38:41.318348 27914 net.cpp:357] inception_4a/output_inception_4a/output_0_split -> inception_4a/output_inception_4a/output_0_split_0
I0707 08:38:41.318370 27914 net.cpp:357] inception_4a/output_inception_4a/output_0_split -> inception_4a/output_inception_4a/output_0_split_1
I0707 08:38:41.318403 27914 net.cpp:357] inception_4a/output_inception_4a/output_0_split -> inception_4a/output_inception_4a/output_0_split_2
I0707 08:38:41.318418 27914 net.cpp:357] inception_4a/output_inception_4a/output_0_split -> inception_4a/output_inception_4a/output_0_split_3
I0707 08:38:41.318428 27914 net.cpp:97] Setting up inception_4a/output_inception_4a/output_0_split
I0707 08:38:41.318449 27914 net.cpp:104] Top shape: 32 576 14 14 (3612672)
I0707 08:38:41.318460 27914 net.cpp:104] Top shape: 32 576 14 14 (3612672)
I0707 08:38:41.318473 27914 net.cpp:104] Top shape: 32 576 14 14 (3612672)
I0707 08:38:41.318491 27914 net.cpp:104] Top shape: 32 576 14 14 (3612672)
I0707 08:38:41.318501 27914 layer_factory.hpp:78] Creating layer inception_4b/1x1
I0707 08:38:41.318512 27914 net.cpp:68] Creating Layer inception_4b/1x1
I0707 08:38:41.318526 27914 net.cpp:395] inception_4b/1x1 <- inception_4a/output_inception_4a/output_0_split_0
I0707 08:38:41.318557 27914 net.cpp:357] inception_4b/1x1 -> inception_4b/1x1
I0707 08:38:41.318574 27914 net.cpp:97] Setting up inception_4b/1x1
I0707 08:38:41.319607 27914 net.cpp:104] Top shape: 32 192 14 14 (1204224)
I0707 08:38:41.319624 27914 layer_factory.hpp:78] Creating layer inception_4b/1x1/bn
I0707 08:38:41.319638 27914 net.cpp:68] Creating Layer inception_4b/1x1/bn
I0707 08:38:41.319648 27914 net.cpp:395] inception_4b/1x1/bn <- inception_4b/1x1
I0707 08:38:41.319658 27914 net.cpp:357] inception_4b/1x1/bn -> inception_4b/1x1/bn
I0707 08:38:41.319670 27914 net.cpp:97] Setting up inception_4b/1x1/bn
I0707 08:38:41.319685 27914 net.cpp:104] Top shape: 32 192 14 14 (1204224)
I0707 08:38:41.319700 27914 layer_factory.hpp:78] Creating layer inception_4b/relu_1x1
I0707 08:38:41.319710 27914 net.cpp:68] Creating Layer inception_4b/relu_1x1
I0707 08:38:41.319720 27914 net.cpp:395] inception_4b/relu_1x1 <- inception_4b/1x1/bn
I0707 08:38:41.319735 27914 net.cpp:346] inception_4b/relu_1x1 -> inception_4b/1x1/bn (in-place)
I0707 08:38:41.319753 27914 net.cpp:97] Setting up inception_4b/relu_1x1
I0707 08:38:41.319849 27914 net.cpp:104] Top shape: 32 192 14 14 (1204224)
I0707 08:38:41.319866 27914 layer_factory.hpp:78] Creating layer inception_4b/3x3_reduce
I0707 08:38:41.319881 27914 net.cpp:68] Creating Layer inception_4b/3x3_reduce
I0707 08:38:41.319905 27914 net.cpp:395] inception_4b/3x3_reduce <- inception_4a/output_inception_4a/output_0_split_1
I0707 08:38:41.319922 27914 net.cpp:357] inception_4b/3x3_reduce -> inception_4b/3x3_reduce
I0707 08:38:41.319944 27914 net.cpp:97] Setting up inception_4b/3x3_reduce
I0707 08:38:41.320626 27914 net.cpp:104] Top shape: 32 96 14 14 (602112)
I0707 08:38:41.320643 27914 layer_factory.hpp:78] Creating layer inception_4b/3x3_reduce/bn
I0707 08:38:41.320657 27914 net.cpp:68] Creating Layer inception_4b/3x3_reduce/bn
I0707 08:38:41.320667 27914 net.cpp:395] inception_4b/3x3_reduce/bn <- inception_4b/3x3_reduce
I0707 08:38:41.320678 27914 net.cpp:357] inception_4b/3x3_reduce/bn -> inception_4b/3x3_reduce/bn
I0707 08:38:41.320689 27914 net.cpp:97] Setting up inception_4b/3x3_reduce/bn
I0707 08:38:41.320703 27914 net.cpp:104] Top shape: 32 96 14 14 (602112)
I0707 08:38:41.320715 27914 layer_factory.hpp:78] Creating layer inception_4b/relu_3x3_reduce
I0707 08:38:41.320724 27914 net.cpp:68] Creating Layer inception_4b/relu_3x3_reduce
I0707 08:38:41.320734 27914 net.cpp:395] inception_4b/relu_3x3_reduce <- inception_4b/3x3_reduce/bn
I0707 08:38:41.320745 27914 net.cpp:346] inception_4b/relu_3x3_reduce -> inception_4b/3x3_reduce/bn (in-place)
I0707 08:38:41.320765 27914 net.cpp:97] Setting up inception_4b/relu_3x3_reduce
I0707 08:38:41.320981 27914 net.cpp:104] Top shape: 32 96 14 14 (602112)
I0707 08:38:41.320996 27914 layer_factory.hpp:78] Creating layer inception_4b/3x3
I0707 08:38:41.321013 27914 net.cpp:68] Creating Layer inception_4b/3x3
I0707 08:38:41.321022 27914 net.cpp:395] inception_4b/3x3 <- inception_4b/3x3_reduce/bn
I0707 08:38:41.321033 27914 net.cpp:357] inception_4b/3x3 -> inception_4b/3x3
I0707 08:38:41.321048 27914 net.cpp:97] Setting up inception_4b/3x3
I0707 08:38:41.322062 27914 net.cpp:104] Top shape: 32 128 14 14 (802816)
I0707 08:38:41.322079 27914 layer_factory.hpp:78] Creating layer inception_4b/3x3/bn
I0707 08:38:41.322093 27914 net.cpp:68] Creating Layer inception_4b/3x3/bn
I0707 08:38:41.322103 27914 net.cpp:395] inception_4b/3x3/bn <- inception_4b/3x3
I0707 08:38:41.322113 27914 net.cpp:357] inception_4b/3x3/bn -> inception_4b/3x3/bn
I0707 08:38:41.322124 27914 net.cpp:97] Setting up inception_4b/3x3/bn
I0707 08:38:41.322139 27914 net.cpp:104] Top shape: 32 128 14 14 (802816)
I0707 08:38:41.322149 27914 layer_factory.hpp:78] Creating layer inception_4b/relu_3x3
I0707 08:38:41.322159 27914 net.cpp:68] Creating Layer inception_4b/relu_3x3
I0707 08:38:41.322166 27914 net.cpp:395] inception_4b/relu_3x3 <- inception_4b/3x3/bn
I0707 08:38:41.322180 27914 net.cpp:346] inception_4b/relu_3x3 -> inception_4b/3x3/bn (in-place)
I0707 08:38:41.322201 27914 net.cpp:97] Setting up inception_4b/relu_3x3
I0707 08:38:41.322294 27914 net.cpp:104] Top shape: 32 128 14 14 (802816)
I0707 08:38:41.322312 27914 layer_factory.hpp:78] Creating layer inception_4b/double3x3_reduce
I0707 08:38:41.322325 27914 net.cpp:68] Creating Layer inception_4b/double3x3_reduce
I0707 08:38:41.322345 27914 net.cpp:395] inception_4b/double3x3_reduce <- inception_4a/output_inception_4a/output_0_split_2
I0707 08:38:41.322366 27914 net.cpp:357] inception_4b/double3x3_reduce -> inception_4b/double3x3_reduce
I0707 08:38:41.322384 27914 net.cpp:97] Setting up inception_4b/double3x3_reduce
I0707 08:38:41.323078 27914 net.cpp:104] Top shape: 32 96 14 14 (602112)
I0707 08:38:41.323096 27914 layer_factory.hpp:78] Creating layer inception_4b/double3x3_reduce/bn
I0707 08:38:41.323109 27914 net.cpp:68] Creating Layer inception_4b/double3x3_reduce/bn
I0707 08:38:41.323120 27914 net.cpp:395] inception_4b/double3x3_reduce/bn <- inception_4b/double3x3_reduce
I0707 08:38:41.323130 27914 net.cpp:357] inception_4b/double3x3_reduce/bn -> inception_4b/double3x3_reduce/bn
I0707 08:38:41.323142 27914 net.cpp:97] Setting up inception_4b/double3x3_reduce/bn
I0707 08:38:41.323158 27914 net.cpp:104] Top shape: 32 96 14 14 (602112)
I0707 08:38:41.323169 27914 layer_factory.hpp:78] Creating layer inception_4b/relu_double3x3_reduce
I0707 08:38:41.323179 27914 net.cpp:68] Creating Layer inception_4b/relu_double3x3_reduce
I0707 08:38:41.323187 27914 net.cpp:395] inception_4b/relu_double3x3_reduce <- inception_4b/double3x3_reduce/bn
I0707 08:38:41.323204 27914 net.cpp:346] inception_4b/relu_double3x3_reduce -> inception_4b/double3x3_reduce/bn (in-place)
I0707 08:38:41.323230 27914 net.cpp:97] Setting up inception_4b/relu_double3x3_reduce
I0707 08:38:41.323304 27914 net.cpp:104] Top shape: 32 96 14 14 (602112)
I0707 08:38:41.323321 27914 layer_factory.hpp:78] Creating layer inception_4b/double3x3a
I0707 08:38:41.323334 27914 net.cpp:68] Creating Layer inception_4b/double3x3a
I0707 08:38:41.323348 27914 net.cpp:395] inception_4b/double3x3a <- inception_4b/double3x3_reduce/bn
I0707 08:38:41.323364 27914 net.cpp:357] inception_4b/double3x3a -> inception_4b/double3x3a
I0707 08:38:41.323382 27914 net.cpp:97] Setting up inception_4b/double3x3a
I0707 08:38:41.324376 27914 net.cpp:104] Top shape: 32 128 14 14 (802816)
I0707 08:38:41.324394 27914 layer_factory.hpp:78] Creating layer inception_4b/double3x3a/bn
I0707 08:38:41.324407 27914 net.cpp:68] Creating Layer inception_4b/double3x3a/bn
I0707 08:38:41.324420 27914 net.cpp:395] inception_4b/double3x3a/bn <- inception_4b/double3x3a
I0707 08:38:41.324431 27914 net.cpp:357] inception_4b/double3x3a/bn -> inception_4b/double3x3a/bn
I0707 08:38:41.324442 27914 net.cpp:97] Setting up inception_4b/double3x3a/bn
I0707 08:38:41.324456 27914 net.cpp:104] Top shape: 32 128 14 14 (802816)
I0707 08:38:41.324467 27914 layer_factory.hpp:78] Creating layer inception_4b/relu_double3x3a
I0707 08:38:41.324476 27914 net.cpp:68] Creating Layer inception_4b/relu_double3x3a
I0707 08:38:41.324489 27914 net.cpp:395] inception_4b/relu_double3x3a <- inception_4b/double3x3a/bn
I0707 08:38:41.324507 27914 net.cpp:346] inception_4b/relu_double3x3a -> inception_4b/double3x3a/bn (in-place)
I0707 08:38:41.324519 27914 net.cpp:97] Setting up inception_4b/relu_double3x3a
I0707 08:38:41.324594 27914 net.cpp:104] Top shape: 32 128 14 14 (802816)
I0707 08:38:41.324607 27914 layer_factory.hpp:78] Creating layer inception_4b/double3x3b
I0707 08:38:41.324622 27914 net.cpp:68] Creating Layer inception_4b/double3x3b
I0707 08:38:41.324635 27914 net.cpp:395] inception_4b/double3x3b <- inception_4b/double3x3a/bn
I0707 08:38:41.324651 27914 net.cpp:357] inception_4b/double3x3b -> inception_4b/double3x3b
I0707 08:38:41.324669 27914 net.cpp:97] Setting up inception_4b/double3x3b
I0707 08:38:41.325894 27914 net.cpp:104] Top shape: 32 128 14 14 (802816)
I0707 08:38:41.325912 27914 layer_factory.hpp:78] Creating layer inception_4b/double3x3b/bn
I0707 08:38:41.325924 27914 net.cpp:68] Creating Layer inception_4b/double3x3b/bn
I0707 08:38:41.325934 27914 net.cpp:395] inception_4b/double3x3b/bn <- inception_4b/double3x3b
I0707 08:38:41.325944 27914 net.cpp:357] inception_4b/double3x3b/bn -> inception_4b/double3x3b/bn
I0707 08:38:41.325955 27914 net.cpp:97] Setting up inception_4b/double3x3b/bn
I0707 08:38:41.325970 27914 net.cpp:104] Top shape: 32 128 14 14 (802816)
I0707 08:38:41.325981 27914 layer_factory.hpp:78] Creating layer inception_4b/relu_double3x3b
I0707 08:38:41.325990 27914 net.cpp:68] Creating Layer inception_4b/relu_double3x3b
I0707 08:38:41.325999 27914 net.cpp:395] inception_4b/relu_double3x3b <- inception_4b/double3x3b/bn
I0707 08:38:41.326012 27914 net.cpp:346] inception_4b/relu_double3x3b -> inception_4b/double3x3b/bn (in-place)
I0707 08:38:41.326030 27914 net.cpp:97] Setting up inception_4b/relu_double3x3b
I0707 08:38:41.326216 27914 net.cpp:104] Top shape: 32 128 14 14 (802816)
I0707 08:38:41.326232 27914 layer_factory.hpp:78] Creating layer inception_4b/pool
I0707 08:38:41.326241 27914 layer_factory.cpp:51] CUDNN does not support padding or multiple tops. Using Caffe's own pooling layer.
I0707 08:38:41.326251 27914 net.cpp:68] Creating Layer inception_4b/pool
I0707 08:38:41.326259 27914 net.cpp:395] inception_4b/pool <- inception_4a/output_inception_4a/output_0_split_3
I0707 08:38:41.326270 27914 net.cpp:357] inception_4b/pool -> inception_4b/pool
I0707 08:38:41.326287 27914 net.cpp:97] Setting up inception_4b/pool
I0707 08:38:41.326303 27914 net.cpp:104] Top shape: 32 576 14 14 (3612672)
I0707 08:38:41.326313 27914 layer_factory.hpp:78] Creating layer inception_4b/pool_proj
I0707 08:38:41.326323 27914 net.cpp:68] Creating Layer inception_4b/pool_proj
I0707 08:38:41.326347 27914 net.cpp:395] inception_4b/pool_proj <- inception_4b/pool
I0707 08:38:41.326362 27914 net.cpp:357] inception_4b/pool_proj -> inception_4b/pool_proj
I0707 08:38:41.326382 27914 net.cpp:97] Setting up inception_4b/pool_proj
I0707 08:38:41.327143 27914 net.cpp:104] Top shape: 32 128 14 14 (802816)
I0707 08:38:41.327162 27914 layer_factory.hpp:78] Creating layer inception_4b/pool_proj/bn
I0707 08:38:41.327172 27914 net.cpp:68] Creating Layer inception_4b/pool_proj/bn
I0707 08:38:41.327181 27914 net.cpp:395] inception_4b/pool_proj/bn <- inception_4b/pool_proj
I0707 08:38:41.327194 27914 net.cpp:357] inception_4b/pool_proj/bn -> inception_4b/pool_proj/bn
I0707 08:38:41.327205 27914 net.cpp:97] Setting up inception_4b/pool_proj/bn
I0707 08:38:41.327220 27914 net.cpp:104] Top shape: 32 128 14 14 (802816)
I0707 08:38:41.327230 27914 layer_factory.hpp:78] Creating layer inception_4b/relu_pool_proj
I0707 08:38:41.327240 27914 net.cpp:68] Creating Layer inception_4b/relu_pool_proj
I0707 08:38:41.327249 27914 net.cpp:395] inception_4b/relu_pool_proj <- inception_4b/pool_proj/bn
I0707 08:38:41.327262 27914 net.cpp:346] inception_4b/relu_pool_proj -> inception_4b/pool_proj/bn (in-place)
I0707 08:38:41.327281 27914 net.cpp:97] Setting up inception_4b/relu_pool_proj
I0707 08:38:41.327348 27914 net.cpp:104] Top shape: 32 128 14 14 (802816)
I0707 08:38:41.327366 27914 layer_factory.hpp:78] Creating layer inception_4b/output
I0707 08:38:41.327383 27914 net.cpp:68] Creating Layer inception_4b/output
I0707 08:38:41.327392 27914 net.cpp:395] inception_4b/output <- inception_4b/1x1/bn
I0707 08:38:41.327409 27914 net.cpp:395] inception_4b/output <- inception_4b/3x3/bn
I0707 08:38:41.327422 27914 net.cpp:395] inception_4b/output <- inception_4b/double3x3b/bn
I0707 08:38:41.327437 27914 net.cpp:395] inception_4b/output <- inception_4b/pool_proj/bn
I0707 08:38:41.327452 27914 net.cpp:357] inception_4b/output -> inception_4b/output
I0707 08:38:41.327463 27914 net.cpp:97] Setting up inception_4b/output
I0707 08:38:41.327473 27914 net.cpp:104] Top shape: 32 576 14 14 (3612672)
I0707 08:38:41.327488 27914 layer_factory.hpp:78] Creating layer inception_4b/output_inception_4b/output_0_split
I0707 08:38:41.327499 27914 net.cpp:68] Creating Layer inception_4b/output_inception_4b/output_0_split
I0707 08:38:41.327510 27914 net.cpp:395] inception_4b/output_inception_4b/output_0_split <- inception_4b/output
I0707 08:38:41.327527 27914 net.cpp:357] inception_4b/output_inception_4b/output_0_split -> inception_4b/output_inception_4b/output_0_split_0
I0707 08:38:41.327541 27914 net.cpp:357] inception_4b/output_inception_4b/output_0_split -> inception_4b/output_inception_4b/output_0_split_1
I0707 08:38:41.327553 27914 net.cpp:357] inception_4b/output_inception_4b/output_0_split -> inception_4b/output_inception_4b/output_0_split_2
I0707 08:38:41.327570 27914 net.cpp:357] inception_4b/output_inception_4b/output_0_split -> inception_4b/output_inception_4b/output_0_split_3
I0707 08:38:41.327584 27914 net.cpp:97] Setting up inception_4b/output_inception_4b/output_0_split
I0707 08:38:41.327597 27914 net.cpp:104] Top shape: 32 576 14 14 (3612672)
I0707 08:38:41.327612 27914 net.cpp:104] Top shape: 32 576 14 14 (3612672)
I0707 08:38:41.327621 27914 net.cpp:104] Top shape: 32 576 14 14 (3612672)
I0707 08:38:41.327630 27914 net.cpp:104] Top shape: 32 576 14 14 (3612672)
I0707 08:38:41.327637 27914 layer_factory.hpp:78] Creating layer inception_4c/1x1
I0707 08:38:41.327649 27914 net.cpp:68] Creating Layer inception_4c/1x1
I0707 08:38:41.327658 27914 net.cpp:395] inception_4c/1x1 <- inception_4b/output_inception_4b/output_0_split_0
I0707 08:38:41.327672 27914 net.cpp:357] inception_4c/1x1 -> inception_4c/1x1
I0707 08:38:41.327687 27914 net.cpp:97] Setting up inception_4c/1x1
I0707 08:38:41.328572 27914 net.cpp:104] Top shape: 32 160 14 14 (1003520)
I0707 08:38:41.328589 27914 layer_factory.hpp:78] Creating layer inception_4c/1x1/bn
I0707 08:38:41.328615 27914 net.cpp:68] Creating Layer inception_4c/1x1/bn
I0707 08:38:41.328625 27914 net.cpp:395] inception_4c/1x1/bn <- inception_4c/1x1
I0707 08:38:41.328649 27914 net.cpp:357] inception_4c/1x1/bn -> inception_4c/1x1/bn
I0707 08:38:41.328660 27914 net.cpp:97] Setting up inception_4c/1x1/bn
I0707 08:38:41.328675 27914 net.cpp:104] Top shape: 32 160 14 14 (1003520)
I0707 08:38:41.328696 27914 layer_factory.hpp:78] Creating layer inception_4c/relu_1x1
I0707 08:38:41.328711 27914 net.cpp:68] Creating Layer inception_4c/relu_1x1
I0707 08:38:41.328722 27914 net.cpp:395] inception_4c/relu_1x1 <- inception_4c/1x1/bn
I0707 08:38:41.328737 27914 net.cpp:346] inception_4c/relu_1x1 -> inception_4c/1x1/bn (in-place)
I0707 08:38:41.328750 27914 net.cpp:97] Setting up inception_4c/relu_1x1
I0707 08:38:41.328826 27914 net.cpp:104] Top shape: 32 160 14 14 (1003520)
I0707 08:38:41.328843 27914 layer_factory.hpp:78] Creating layer inception_4c/3x3_reduce
I0707 08:38:41.328863 27914 net.cpp:68] Creating Layer inception_4c/3x3_reduce
I0707 08:38:41.328876 27914 net.cpp:395] inception_4c/3x3_reduce <- inception_4b/output_inception_4b/output_0_split_1
I0707 08:38:41.328888 27914 net.cpp:357] inception_4c/3x3_reduce -> inception_4c/3x3_reduce
I0707 08:38:41.328907 27914 net.cpp:97] Setting up inception_4c/3x3_reduce
I0707 08:38:41.329933 27914 net.cpp:104] Top shape: 32 128 14 14 (802816)
I0707 08:38:41.329951 27914 layer_factory.hpp:78] Creating layer inception_4c/3x3_reduce/bn
I0707 08:38:41.329962 27914 net.cpp:68] Creating Layer inception_4c/3x3_reduce/bn
I0707 08:38:41.329972 27914 net.cpp:395] inception_4c/3x3_reduce/bn <- inception_4c/3x3_reduce
I0707 08:38:41.329984 27914 net.cpp:357] inception_4c/3x3_reduce/bn -> inception_4c/3x3_reduce/bn
I0707 08:38:41.329995 27914 net.cpp:97] Setting up inception_4c/3x3_reduce/bn
I0707 08:38:41.330011 27914 net.cpp:104] Top shape: 32 128 14 14 (802816)
I0707 08:38:41.330021 27914 layer_factory.hpp:78] Creating layer inception_4c/relu_3x3_reduce
I0707 08:38:41.330031 27914 net.cpp:68] Creating Layer inception_4c/relu_3x3_reduce
I0707 08:38:41.330039 27914 net.cpp:395] inception_4c/relu_3x3_reduce <- inception_4c/3x3_reduce/bn
I0707 08:38:41.330049 27914 net.cpp:346] inception_4c/relu_3x3_reduce -> inception_4c/3x3_reduce/bn (in-place)
I0707 08:38:41.330070 27914 net.cpp:97] Setting up inception_4c/relu_3x3_reduce
I0707 08:38:41.330142 27914 net.cpp:104] Top shape: 32 128 14 14 (802816)
I0707 08:38:41.330158 27914 layer_factory.hpp:78] Creating layer inception_4c/3x3
I0707 08:38:41.330178 27914 net.cpp:68] Creating Layer inception_4c/3x3
I0707 08:38:41.330189 27914 net.cpp:395] inception_4c/3x3 <- inception_4c/3x3_reduce/bn
I0707 08:38:41.330206 27914 net.cpp:357] inception_4c/3x3 -> inception_4c/3x3
I0707 08:38:41.330220 27914 net.cpp:97] Setting up inception_4c/3x3
I0707 08:38:41.331684 27914 net.cpp:104] Top shape: 32 160 14 14 (1003520)
I0707 08:38:41.331713 27914 layer_factory.hpp:78] Creating layer inception_4c/3x3/bn
I0707 08:38:41.331727 27914 net.cpp:68] Creating Layer inception_4c/3x3/bn
I0707 08:38:41.331737 27914 net.cpp:395] inception_4c/3x3/bn <- inception_4c/3x3
I0707 08:38:41.331753 27914 net.cpp:357] inception_4c/3x3/bn -> inception_4c/3x3/bn
I0707 08:38:41.331764 27914 net.cpp:97] Setting up inception_4c/3x3/bn
I0707 08:38:41.331779 27914 net.cpp:104] Top shape: 32 160 14 14 (1003520)
I0707 08:38:41.331790 27914 layer_factory.hpp:78] Creating layer inception_4c/relu_3x3
I0707 08:38:41.331801 27914 net.cpp:68] Creating Layer inception_4c/relu_3x3
I0707 08:38:41.331815 27914 net.cpp:395] inception_4c/relu_3x3 <- inception_4c/3x3/bn
I0707 08:38:41.331832 27914 net.cpp:346] inception_4c/relu_3x3 -> inception_4c/3x3/bn (in-place)
I0707 08:38:41.331845 27914 net.cpp:97] Setting up inception_4c/relu_3x3
I0707 08:38:41.332026 27914 net.cpp:104] Top shape: 32 160 14 14 (1003520)
I0707 08:38:41.332042 27914 layer_factory.hpp:78] Creating layer inception_4c/double3x3_reduce
I0707 08:38:41.332054 27914 net.cpp:68] Creating Layer inception_4c/double3x3_reduce
I0707 08:38:41.332063 27914 net.cpp:395] inception_4c/double3x3_reduce <- inception_4b/output_inception_4b/output_0_split_2
I0707 08:38:41.332085 27914 net.cpp:357] inception_4c/double3x3_reduce -> inception_4c/double3x3_reduce
I0707 08:38:41.332106 27914 net.cpp:97] Setting up inception_4c/double3x3_reduce
I0707 08:38:41.332864 27914 net.cpp:104] Top shape: 32 128 14 14 (802816)
I0707 08:38:41.332880 27914 layer_factory.hpp:78] Creating layer inception_4c/double3x3_reduce/bn
I0707 08:38:41.332893 27914 net.cpp:68] Creating Layer inception_4c/double3x3_reduce/bn
I0707 08:38:41.332903 27914 net.cpp:395] inception_4c/double3x3_reduce/bn <- inception_4c/double3x3_reduce
I0707 08:38:41.332914 27914 net.cpp:357] inception_4c/double3x3_reduce/bn -> inception_4c/double3x3_reduce/bn
I0707 08:38:41.332926 27914 net.cpp:97] Setting up inception_4c/double3x3_reduce/bn
I0707 08:38:41.332940 27914 net.cpp:104] Top shape: 32 128 14 14 (802816)
I0707 08:38:41.332950 27914 layer_factory.hpp:78] Creating layer inception_4c/relu_double3x3_reduce
I0707 08:38:41.332962 27914 net.cpp:68] Creating Layer inception_4c/relu_double3x3_reduce
I0707 08:38:41.332969 27914 net.cpp:395] inception_4c/relu_double3x3_reduce <- inception_4c/double3x3_reduce/bn
I0707 08:38:41.332984 27914 net.cpp:346] inception_4c/relu_double3x3_reduce -> inception_4c/double3x3_reduce/bn (in-place)
I0707 08:38:41.333003 27914 net.cpp:97] Setting up inception_4c/relu_double3x3_reduce
I0707 08:38:41.333075 27914 net.cpp:104] Top shape: 32 128 14 14 (802816)
I0707 08:38:41.333093 27914 layer_factory.hpp:78] Creating layer inception_4c/double3x3a
I0707 08:38:41.333106 27914 net.cpp:68] Creating Layer inception_4c/double3x3a
I0707 08:38:41.333119 27914 net.cpp:395] inception_4c/double3x3a <- inception_4c/double3x3_reduce/bn
I0707 08:38:41.333137 27914 net.cpp:357] inception_4c/double3x3a -> inception_4c/double3x3a
I0707 08:38:41.333150 27914 net.cpp:97] Setting up inception_4c/double3x3a
I0707 08:38:41.334610 27914 net.cpp:104] Top shape: 32 160 14 14 (1003520)
I0707 08:38:41.334628 27914 layer_factory.hpp:78] Creating layer inception_4c/double3x3a/bn
I0707 08:38:41.334640 27914 net.cpp:68] Creating Layer inception_4c/double3x3a/bn
I0707 08:38:41.334650 27914 net.cpp:395] inception_4c/double3x3a/bn <- inception_4c/double3x3a
I0707 08:38:41.334661 27914 net.cpp:357] inception_4c/double3x3a/bn -> inception_4c/double3x3a/bn
I0707 08:38:41.334672 27914 net.cpp:97] Setting up inception_4c/double3x3a/bn
I0707 08:38:41.334686 27914 net.cpp:104] Top shape: 32 160 14 14 (1003520)
I0707 08:38:41.334697 27914 layer_factory.hpp:78] Creating layer inception_4c/relu_double3x3a
I0707 08:38:41.334707 27914 net.cpp:68] Creating Layer inception_4c/relu_double3x3a
I0707 08:38:41.334715 27914 net.cpp:395] inception_4c/relu_double3x3a <- inception_4c/double3x3a/bn
I0707 08:38:41.334730 27914 net.cpp:346] inception_4c/relu_double3x3a -> inception_4c/double3x3a/bn (in-place)
I0707 08:38:41.334749 27914 net.cpp:97] Setting up inception_4c/relu_double3x3a
I0707 08:38:41.334817 27914 net.cpp:104] Top shape: 32 160 14 14 (1003520)
I0707 08:38:41.334836 27914 layer_factory.hpp:78] Creating layer inception_4c/double3x3b
I0707 08:38:41.334852 27914 net.cpp:68] Creating Layer inception_4c/double3x3b
I0707 08:38:41.334864 27914 net.cpp:395] inception_4c/double3x3b <- inception_4c/double3x3a/bn
I0707 08:38:41.334882 27914 net.cpp:357] inception_4c/double3x3b -> inception_4c/double3x3b
I0707 08:38:41.334895 27914 net.cpp:97] Setting up inception_4c/double3x3b
I0707 08:38:41.336662 27914 net.cpp:104] Top shape: 32 160 14 14 (1003520)
I0707 08:38:41.336678 27914 layer_factory.hpp:78] Creating layer inception_4c/double3x3b/bn
I0707 08:38:41.336691 27914 net.cpp:68] Creating Layer inception_4c/double3x3b/bn
I0707 08:38:41.336700 27914 net.cpp:395] inception_4c/double3x3b/bn <- inception_4c/double3x3b
I0707 08:38:41.336710 27914 net.cpp:357] inception_4c/double3x3b/bn -> inception_4c/double3x3b/bn
I0707 08:38:41.336721 27914 net.cpp:97] Setting up inception_4c/double3x3b/bn
I0707 08:38:41.336736 27914 net.cpp:104] Top shape: 32 160 14 14 (1003520)
I0707 08:38:41.336747 27914 layer_factory.hpp:78] Creating layer inception_4c/relu_double3x3b
I0707 08:38:41.336768 27914 net.cpp:68] Creating Layer inception_4c/relu_double3x3b
I0707 08:38:41.336786 27914 net.cpp:395] inception_4c/relu_double3x3b <- inception_4c/double3x3b/bn
I0707 08:38:41.336802 27914 net.cpp:346] inception_4c/relu_double3x3b -> inception_4c/double3x3b/bn (in-place)
I0707 08:38:41.336812 27914 net.cpp:97] Setting up inception_4c/relu_double3x3b
I0707 08:38:41.337002 27914 net.cpp:104] Top shape: 32 160 14 14 (1003520)
I0707 08:38:41.337018 27914 layer_factory.hpp:78] Creating layer inception_4c/pool
I0707 08:38:41.337026 27914 layer_factory.cpp:51] CUDNN does not support padding or multiple tops. Using Caffe's own pooling layer.
I0707 08:38:41.337035 27914 net.cpp:68] Creating Layer inception_4c/pool
I0707 08:38:41.337044 27914 net.cpp:395] inception_4c/pool <- inception_4b/output_inception_4b/output_0_split_3
I0707 08:38:41.337055 27914 net.cpp:357] inception_4c/pool -> inception_4c/pool
I0707 08:38:41.337072 27914 net.cpp:97] Setting up inception_4c/pool
I0707 08:38:41.337088 27914 net.cpp:104] Top shape: 32 576 14 14 (3612672)
I0707 08:38:41.337098 27914 layer_factory.hpp:78] Creating layer inception_4c/pool_proj
I0707 08:38:41.337110 27914 net.cpp:68] Creating Layer inception_4c/pool_proj
I0707 08:38:41.337123 27914 net.cpp:395] inception_4c/pool_proj <- inception_4c/pool
I0707 08:38:41.337139 27914 net.cpp:357] inception_4c/pool_proj -> inception_4c/pool_proj
I0707 08:38:41.337158 27914 net.cpp:97] Setting up inception_4c/pool_proj
I0707 08:38:41.337920 27914 net.cpp:104] Top shape: 32 128 14 14 (802816)
I0707 08:38:41.337937 27914 layer_factory.hpp:78] Creating layer inception_4c/pool_proj/bn
I0707 08:38:41.337949 27914 net.cpp:68] Creating Layer inception_4c/pool_proj/bn
I0707 08:38:41.337957 27914 net.cpp:395] inception_4c/pool_proj/bn <- inception_4c/pool_proj
I0707 08:38:41.337972 27914 net.cpp:357] inception_4c/pool_proj/bn -> inception_4c/pool_proj/bn
I0707 08:38:41.337985 27914 net.cpp:97] Setting up inception_4c/pool_proj/bn
I0707 08:38:41.337999 27914 net.cpp:104] Top shape: 32 128 14 14 (802816)
I0707 08:38:41.338023 27914 layer_factory.hpp:78] Creating layer inception_4c/relu_pool_proj
I0707 08:38:41.338038 27914 net.cpp:68] Creating Layer inception_4c/relu_pool_proj
I0707 08:38:41.338054 27914 net.cpp:395] inception_4c/relu_pool_proj <- inception_4c/pool_proj/bn
I0707 08:38:41.338066 27914 net.cpp:346] inception_4c/relu_pool_proj -> inception_4c/pool_proj/bn (in-place)
I0707 08:38:41.338078 27914 net.cpp:97] Setting up inception_4c/relu_pool_proj
I0707 08:38:41.338156 27914 net.cpp:104] Top shape: 32 128 14 14 (802816)
I0707 08:38:41.338173 27914 layer_factory.hpp:78] Creating layer inception_4c/output
I0707 08:38:41.338187 27914 net.cpp:68] Creating Layer inception_4c/output
I0707 08:38:41.338203 27914 net.cpp:395] inception_4c/output <- inception_4c/1x1/bn
I0707 08:38:41.338217 27914 net.cpp:395] inception_4c/output <- inception_4c/3x3/bn
I0707 08:38:41.338232 27914 net.cpp:395] inception_4c/output <- inception_4c/double3x3b/bn
I0707 08:38:41.338243 27914 net.cpp:395] inception_4c/output <- inception_4c/pool_proj/bn
I0707 08:38:41.338256 27914 net.cpp:357] inception_4c/output -> inception_4c/output
I0707 08:38:41.338274 27914 net.cpp:97] Setting up inception_4c/output
I0707 08:38:41.338285 27914 net.cpp:104] Top shape: 32 608 14 14 (3813376)
I0707 08:38:41.338295 27914 layer_factory.hpp:78] Creating layer inception_4c/output_inception_4c/output_0_split
I0707 08:38:41.338310 27914 net.cpp:68] Creating Layer inception_4c/output_inception_4c/output_0_split
I0707 08:38:41.338320 27914 net.cpp:395] inception_4c/output_inception_4c/output_0_split <- inception_4c/output
I0707 08:38:41.338336 27914 net.cpp:357] inception_4c/output_inception_4c/output_0_split -> inception_4c/output_inception_4c/output_0_split_0
I0707 08:38:41.338353 27914 net.cpp:357] inception_4c/output_inception_4c/output_0_split -> inception_4c/output_inception_4c/output_0_split_1
I0707 08:38:41.338366 27914 net.cpp:357] inception_4c/output_inception_4c/output_0_split -> inception_4c/output_inception_4c/output_0_split_2
I0707 08:38:41.338392 27914 net.cpp:357] inception_4c/output_inception_4c/output_0_split -> inception_4c/output_inception_4c/output_0_split_3
I0707 08:38:41.338423 27914 net.cpp:97] Setting up inception_4c/output_inception_4c/output_0_split
I0707 08:38:41.338439 27914 net.cpp:104] Top shape: 32 608 14 14 (3813376)
I0707 08:38:41.338449 27914 net.cpp:104] Top shape: 32 608 14 14 (3813376)
I0707 08:38:41.338456 27914 net.cpp:104] Top shape: 32 608 14 14 (3813376)
I0707 08:38:41.338467 27914 net.cpp:104] Top shape: 32 608 14 14 (3813376)
I0707 08:38:41.338481 27914 layer_factory.hpp:78] Creating layer inception_4d/1x1
I0707 08:38:41.338495 27914 net.cpp:68] Creating Layer inception_4d/1x1
I0707 08:38:41.338508 27914 net.cpp:395] inception_4d/1x1 <- inception_4c/output_inception_4c/output_0_split_0
I0707 08:38:41.338527 27914 net.cpp:357] inception_4d/1x1 -> inception_4d/1x1
I0707 08:38:41.338541 27914 net.cpp:97] Setting up inception_4d/1x1
I0707 08:38:41.339205 27914 net.cpp:104] Top shape: 32 96 14 14 (602112)
I0707 08:38:41.339222 27914 layer_factory.hpp:78] Creating layer inception_4d/1x1/bn
I0707 08:38:41.339236 27914 net.cpp:68] Creating Layer inception_4d/1x1/bn
I0707 08:38:41.339244 27914 net.cpp:395] inception_4d/1x1/bn <- inception_4d/1x1
I0707 08:38:41.339254 27914 net.cpp:357] inception_4d/1x1/bn -> inception_4d/1x1/bn
I0707 08:38:41.339265 27914 net.cpp:97] Setting up inception_4d/1x1/bn
I0707 08:38:41.339280 27914 net.cpp:104] Top shape: 32 96 14 14 (602112)
I0707 08:38:41.339292 27914 layer_factory.hpp:78] Creating layer inception_4d/relu_1x1
I0707 08:38:41.339300 27914 net.cpp:68] Creating Layer inception_4d/relu_1x1
I0707 08:38:41.339308 27914 net.cpp:395] inception_4d/relu_1x1 <- inception_4d/1x1/bn
I0707 08:38:41.339324 27914 net.cpp:346] inception_4d/relu_1x1 -> inception_4d/1x1/bn (in-place)
I0707 08:38:41.339341 27914 net.cpp:97] Setting up inception_4d/relu_1x1
I0707 08:38:41.339417 27914 net.cpp:104] Top shape: 32 96 14 14 (602112)
I0707 08:38:41.339433 27914 layer_factory.hpp:78] Creating layer inception_4d/3x3_reduce
I0707 08:38:41.339452 27914 net.cpp:68] Creating Layer inception_4d/3x3_reduce
I0707 08:38:41.339464 27914 net.cpp:395] inception_4d/3x3_reduce <- inception_4c/output_inception_4c/output_0_split_1
I0707 08:38:41.339481 27914 net.cpp:357] inception_4d/3x3_reduce -> inception_4d/3x3_reduce
I0707 08:38:41.339498 27914 net.cpp:97] Setting up inception_4d/3x3_reduce
I0707 08:38:41.340291 27914 net.cpp:104] Top shape: 32 128 14 14 (802816)
I0707 08:38:41.340307 27914 layer_factory.hpp:78] Creating layer inception_4d/3x3_reduce/bn
I0707 08:38:41.340320 27914 net.cpp:68] Creating Layer inception_4d/3x3_reduce/bn
I0707 08:38:41.340330 27914 net.cpp:395] inception_4d/3x3_reduce/bn <- inception_4d/3x3_reduce
I0707 08:38:41.340340 27914 net.cpp:357] inception_4d/3x3_reduce/bn -> inception_4d/3x3_reduce/bn
I0707 08:38:41.340351 27914 net.cpp:97] Setting up inception_4d/3x3_reduce/bn
I0707 08:38:41.340366 27914 net.cpp:104] Top shape: 32 128 14 14 (802816)
I0707 08:38:41.340378 27914 layer_factory.hpp:78] Creating layer inception_4d/relu_3x3_reduce
I0707 08:38:41.340387 27914 net.cpp:68] Creating Layer inception_4d/relu_3x3_reduce
I0707 08:38:41.340396 27914 net.cpp:395] inception_4d/relu_3x3_reduce <- inception_4d/3x3_reduce/bn
I0707 08:38:41.340410 27914 net.cpp:346] inception_4d/relu_3x3_reduce -> inception_4d/3x3_reduce/bn (in-place)
I0707 08:38:41.340428 27914 net.cpp:97] Setting up inception_4d/relu_3x3_reduce
I0707 08:38:41.340502 27914 net.cpp:104] Top shape: 32 128 14 14 (802816)
I0707 08:38:41.340522 27914 layer_factory.hpp:78] Creating layer inception_4d/3x3
I0707 08:38:41.340534 27914 net.cpp:68] Creating Layer inception_4d/3x3
I0707 08:38:41.340549 27914 net.cpp:395] inception_4d/3x3 <- inception_4d/3x3_reduce/bn
I0707 08:38:41.340564 27914 net.cpp:357] inception_4d/3x3 -> inception_4d/3x3
I0707 08:38:41.340581 27914 net.cpp:97] Setting up inception_4d/3x3
I0707 08:38:41.342304 27914 net.cpp:104] Top shape: 32 192 14 14 (1204224)
I0707 08:38:41.342324 27914 layer_factory.hpp:78] Creating layer inception_4d/3x3/bn
I0707 08:38:41.342349 27914 net.cpp:68] Creating Layer inception_4d/3x3/bn
I0707 08:38:41.342360 27914 net.cpp:395] inception_4d/3x3/bn <- inception_4d/3x3
I0707 08:38:41.342371 27914 net.cpp:357] inception_4d/3x3/bn -> inception_4d/3x3/bn
I0707 08:38:41.342383 27914 net.cpp:97] Setting up inception_4d/3x3/bn
I0707 08:38:41.342399 27914 net.cpp:104] Top shape: 32 192 14 14 (1204224)
I0707 08:38:41.342411 27914 layer_factory.hpp:78] Creating layer inception_4d/relu_3x3
I0707 08:38:41.342427 27914 net.cpp:68] Creating Layer inception_4d/relu_3x3
I0707 08:38:41.342442 27914 net.cpp:395] inception_4d/relu_3x3 <- inception_4d/3x3/bn
I0707 08:38:41.342453 27914 net.cpp:346] inception_4d/relu_3x3 -> inception_4d/3x3/bn (in-place)
I0707 08:38:41.342465 27914 net.cpp:97] Setting up inception_4d/relu_3x3
I0707 08:38:41.342658 27914 net.cpp:104] Top shape: 32 192 14 14 (1204224)
I0707 08:38:41.342672 27914 layer_factory.hpp:78] Creating layer inception_4d/double3x3_reduce
I0707 08:38:41.342685 27914 net.cpp:68] Creating Layer inception_4d/double3x3_reduce
I0707 08:38:41.342694 27914 net.cpp:395] inception_4d/double3x3_reduce <- inception_4c/output_inception_4c/output_0_split_2
I0707 08:38:41.342705 27914 net.cpp:357] inception_4d/double3x3_reduce -> inception_4d/double3x3_reduce
I0707 08:38:41.342717 27914 net.cpp:97] Setting up inception_4d/double3x3_reduce
I0707 08:38:41.343633 27914 net.cpp:104] Top shape: 32 160 14 14 (1003520)
I0707 08:38:41.343650 27914 layer_factory.hpp:78] Creating layer inception_4d/double3x3_reduce/bn
I0707 08:38:41.343663 27914 net.cpp:68] Creating Layer inception_4d/double3x3_reduce/bn
I0707 08:38:41.343673 27914 net.cpp:395] inception_4d/double3x3_reduce/bn <- inception_4d/double3x3_reduce
I0707 08:38:41.343683 27914 net.cpp:357] inception_4d/double3x3_reduce/bn -> inception_4d/double3x3_reduce/bn
I0707 08:38:41.343703 27914 net.cpp:97] Setting up inception_4d/double3x3_reduce/bn
I0707 08:38:41.343721 27914 net.cpp:104] Top shape: 32 160 14 14 (1003520)
I0707 08:38:41.343734 27914 layer_factory.hpp:78] Creating layer inception_4d/relu_double3x3_reduce
I0707 08:38:41.343744 27914 net.cpp:68] Creating Layer inception_4d/relu_double3x3_reduce
I0707 08:38:41.343757 27914 net.cpp:395] inception_4d/relu_double3x3_reduce <- inception_4d/double3x3_reduce/bn
I0707 08:38:41.343775 27914 net.cpp:346] inception_4d/relu_double3x3_reduce -> inception_4d/double3x3_reduce/bn (in-place)
I0707 08:38:41.343788 27914 net.cpp:97] Setting up inception_4d/relu_double3x3_reduce
I0707 08:38:41.343868 27914 net.cpp:104] Top shape: 32 160 14 14 (1003520)
I0707 08:38:41.343880 27914 layer_factory.hpp:78] Creating layer inception_4d/double3x3a
I0707 08:38:41.343896 27914 net.cpp:68] Creating Layer inception_4d/double3x3a
I0707 08:38:41.343909 27914 net.cpp:395] inception_4d/double3x3a <- inception_4d/double3x3_reduce/bn
I0707 08:38:41.343924 27914 net.cpp:357] inception_4d/double3x3a -> inception_4d/double3x3a
I0707 08:38:41.343942 27914 net.cpp:97] Setting up inception_4d/double3x3a
I0707 08:38:41.346005 27914 net.cpp:104] Top shape: 32 192 14 14 (1204224)
I0707 08:38:41.346022 27914 layer_factory.hpp:78] Creating layer inception_4d/double3x3a/bn
I0707 08:38:41.346038 27914 net.cpp:68] Creating Layer inception_4d/double3x3a/bn
I0707 08:38:41.346050 27914 net.cpp:395] inception_4d/double3x3a/bn <- inception_4d/double3x3a
I0707 08:38:41.346060 27914 net.cpp:357] inception_4d/double3x3a/bn -> inception_4d/double3x3a/bn
I0707 08:38:41.346071 27914 net.cpp:97] Setting up inception_4d/double3x3a/bn
I0707 08:38:41.346086 27914 net.cpp:104] Top shape: 32 192 14 14 (1204224)
I0707 08:38:41.346097 27914 layer_factory.hpp:78] Creating layer inception_4d/relu_double3x3a
I0707 08:38:41.346107 27914 net.cpp:68] Creating Layer inception_4d/relu_double3x3a
I0707 08:38:41.346120 27914 net.cpp:395] inception_4d/relu_double3x3a <- inception_4d/double3x3a/bn
I0707 08:38:41.346137 27914 net.cpp:346] inception_4d/relu_double3x3a -> inception_4d/double3x3a/bn (in-place)
I0707 08:38:41.346149 27914 net.cpp:97] Setting up inception_4d/relu_double3x3a
I0707 08:38:41.346240 27914 net.cpp:104] Top shape: 32 192 14 14 (1204224)
I0707 08:38:41.346258 27914 layer_factory.hpp:78] Creating layer inception_4d/double3x3b
I0707 08:38:41.346272 27914 net.cpp:68] Creating Layer inception_4d/double3x3b
I0707 08:38:41.346288 27914 net.cpp:395] inception_4d/double3x3b <- inception_4d/double3x3a/bn
I0707 08:38:41.346303 27914 net.cpp:357] inception_4d/double3x3b -> inception_4d/double3x3b
I0707 08:38:41.346323 27914 net.cpp:97] Setting up inception_4d/double3x3b
I0707 08:38:41.348726 27914 net.cpp:104] Top shape: 32 192 14 14 (1204224)
I0707 08:38:41.348744 27914 layer_factory.hpp:78] Creating layer inception_4d/double3x3b/bn
I0707 08:38:41.348757 27914 net.cpp:68] Creating Layer inception_4d/double3x3b/bn
I0707 08:38:41.348767 27914 net.cpp:395] inception_4d/double3x3b/bn <- inception_4d/double3x3b
I0707 08:38:41.348778 27914 net.cpp:357] inception_4d/double3x3b/bn -> inception_4d/double3x3b/bn
I0707 08:38:41.348788 27914 net.cpp:97] Setting up inception_4d/double3x3b/bn
I0707 08:38:41.348803 27914 net.cpp:104] Top shape: 32 192 14 14 (1204224)
I0707 08:38:41.348815 27914 layer_factory.hpp:78] Creating layer inception_4d/relu_double3x3b
I0707 08:38:41.348824 27914 net.cpp:68] Creating Layer inception_4d/relu_double3x3b
I0707 08:38:41.348832 27914 net.cpp:395] inception_4d/relu_double3x3b <- inception_4d/double3x3b/bn
I0707 08:38:41.348846 27914 net.cpp:346] inception_4d/relu_double3x3b -> inception_4d/double3x3b/bn (in-place)
I0707 08:38:41.348865 27914 net.cpp:97] Setting up inception_4d/relu_double3x3b
I0707 08:38:41.348934 27914 net.cpp:104] Top shape: 32 192 14 14 (1204224)
I0707 08:38:41.348953 27914 layer_factory.hpp:78] Creating layer inception_4d/pool
I0707 08:38:41.348965 27914 layer_factory.cpp:51] CUDNN does not support padding or multiple tops. Using Caffe's own pooling layer.
I0707 08:38:41.348978 27914 net.cpp:68] Creating Layer inception_4d/pool
I0707 08:38:41.348992 27914 net.cpp:395] inception_4d/pool <- inception_4c/output_inception_4c/output_0_split_3
I0707 08:38:41.349005 27914 net.cpp:357] inception_4d/pool -> inception_4d/pool
I0707 08:38:41.349025 27914 net.cpp:97] Setting up inception_4d/pool
I0707 08:38:41.349037 27914 net.cpp:104] Top shape: 32 608 14 14 (3813376)
I0707 08:38:41.349045 27914 layer_factory.hpp:78] Creating layer inception_4d/pool_proj
I0707 08:38:41.349061 27914 net.cpp:68] Creating Layer inception_4d/pool_proj
I0707 08:38:41.349074 27914 net.cpp:395] inception_4d/pool_proj <- inception_4d/pool
I0707 08:38:41.349089 27914 net.cpp:357] inception_4d/pool_proj -> inception_4d/pool_proj
I0707 08:38:41.349107 27914 net.cpp:97] Setting up inception_4d/pool_proj
I0707 08:38:41.349900 27914 net.cpp:104] Top shape: 32 128 14 14 (802816)
I0707 08:38:41.349916 27914 layer_factory.hpp:78] Creating layer inception_4d/pool_proj/bn
I0707 08:38:41.349930 27914 net.cpp:68] Creating Layer inception_4d/pool_proj/bn
I0707 08:38:41.349938 27914 net.cpp:395] inception_4d/pool_proj/bn <- inception_4d/pool_proj
I0707 08:38:41.349949 27914 net.cpp:357] inception_4d/pool_proj/bn -> inception_4d/pool_proj/bn
I0707 08:38:41.349961 27914 net.cpp:97] Setting up inception_4d/pool_proj/bn
I0707 08:38:41.349974 27914 net.cpp:104] Top shape: 32 128 14 14 (802816)
I0707 08:38:41.349985 27914 layer_factory.hpp:78] Creating layer inception_4d/relu_pool_proj
I0707 08:38:41.349997 27914 net.cpp:68] Creating Layer inception_4d/relu_pool_proj
I0707 08:38:41.350005 27914 net.cpp:395] inception_4d/relu_pool_proj <- inception_4d/pool_proj/bn
I0707 08:38:41.350018 27914 net.cpp:346] inception_4d/relu_pool_proj -> inception_4d/pool_proj/bn (in-place)
I0707 08:38:41.350036 27914 net.cpp:97] Setting up inception_4d/relu_pool_proj
I0707 08:38:41.350221 27914 net.cpp:104] Top shape: 32 128 14 14 (802816)
I0707 08:38:41.350237 27914 layer_factory.hpp:78] Creating layer inception_4d/output
I0707 08:38:41.350247 27914 net.cpp:68] Creating Layer inception_4d/output
I0707 08:38:41.350256 27914 net.cpp:395] inception_4d/output <- inception_4d/1x1/bn
I0707 08:38:41.350277 27914 net.cpp:395] inception_4d/output <- inception_4d/3x3/bn
I0707 08:38:41.350292 27914 net.cpp:395] inception_4d/output <- inception_4d/double3x3b/bn
I0707 08:38:41.350309 27914 net.cpp:395] inception_4d/output <- inception_4d/pool_proj/bn
I0707 08:38:41.350322 27914 net.cpp:357] inception_4d/output -> inception_4d/output
I0707 08:38:41.350339 27914 net.cpp:97] Setting up inception_4d/output
I0707 08:38:41.350352 27914 net.cpp:104] Top shape: 32 608 14 14 (3813376)
I0707 08:38:41.350365 27914 layer_factory.hpp:78] Creating layer inception_4d/output_inception_4d/output_0_split
I0707 08:38:41.350379 27914 net.cpp:68] Creating Layer inception_4d/output_inception_4d/output_0_split
I0707 08:38:41.350389 27914 net.cpp:395] inception_4d/output_inception_4d/output_0_split <- inception_4d/output
I0707 08:38:41.350400 27914 net.cpp:357] inception_4d/output_inception_4d/output_0_split -> inception_4d/output_inception_4d/output_0_split_0
I0707 08:38:41.350419 27914 net.cpp:357] inception_4d/output_inception_4d/output_0_split -> inception_4d/output_inception_4d/output_0_split_1
I0707 08:38:41.350435 27914 net.cpp:357] inception_4d/output_inception_4d/output_0_split -> inception_4d/output_inception_4d/output_0_split_2
I0707 08:38:41.350455 27914 net.cpp:97] Setting up inception_4d/output_inception_4d/output_0_split
I0707 08:38:41.350466 27914 net.cpp:104] Top shape: 32 608 14 14 (3813376)
I0707 08:38:41.350473 27914 net.cpp:104] Top shape: 32 608 14 14 (3813376)
I0707 08:38:41.350481 27914 net.cpp:104] Top shape: 32 608 14 14 (3813376)
I0707 08:38:41.350491 27914 layer_factory.hpp:78] Creating layer inception_4e/3x3_reduce
I0707 08:38:41.350507 27914 net.cpp:68] Creating Layer inception_4e/3x3_reduce
I0707 08:38:41.350517 27914 net.cpp:395] inception_4e/3x3_reduce <- inception_4d/output_inception_4d/output_0_split_0
I0707 08:38:41.350538 27914 net.cpp:357] inception_4e/3x3_reduce -> inception_4e/3x3_reduce
I0707 08:38:41.350554 27914 net.cpp:97] Setting up inception_4e/3x3_reduce
I0707 08:38:41.351378 27914 net.cpp:104] Top shape: 32 128 14 14 (802816)
I0707 08:38:41.351397 27914 layer_factory.hpp:78] Creating layer inception_4e/3x3_reduce/bn
I0707 08:38:41.351408 27914 net.cpp:68] Creating Layer inception_4e/3x3_reduce/bn
I0707 08:38:41.351416 27914 net.cpp:395] inception_4e/3x3_reduce/bn <- inception_4e/3x3_reduce
I0707 08:38:41.351428 27914 net.cpp:357] inception_4e/3x3_reduce/bn -> inception_4e/3x3_reduce/bn
I0707 08:38:41.351440 27914 net.cpp:97] Setting up inception_4e/3x3_reduce/bn
I0707 08:38:41.351454 27914 net.cpp:104] Top shape: 32 128 14 14 (802816)
I0707 08:38:41.351465 27914 layer_factory.hpp:78] Creating layer inception_4e/relu_3x3_reduce
I0707 08:38:41.351475 27914 net.cpp:68] Creating Layer inception_4e/relu_3x3_reduce
I0707 08:38:41.351483 27914 net.cpp:395] inception_4e/relu_3x3_reduce <- inception_4e/3x3_reduce/bn
I0707 08:38:41.351497 27914 net.cpp:346] inception_4e/relu_3x3_reduce -> inception_4e/3x3_reduce/bn (in-place)
I0707 08:38:41.351516 27914 net.cpp:97] Setting up inception_4e/relu_3x3_reduce
I0707 08:38:41.351590 27914 net.cpp:104] Top shape: 32 128 14 14 (802816)
I0707 08:38:41.351609 27914 layer_factory.hpp:78] Creating layer inception_4e/3x3
I0707 08:38:41.351625 27914 net.cpp:68] Creating Layer inception_4e/3x3
I0707 08:38:41.351640 27914 net.cpp:395] inception_4e/3x3 <- inception_4e/3x3_reduce/bn
I0707 08:38:41.351655 27914 net.cpp:357] inception_4e/3x3 -> inception_4e/3x3
I0707 08:38:41.351673 27914 net.cpp:97] Setting up inception_4e/3x3
I0707 08:38:41.353407 27914 net.cpp:104] Top shape: 32 192 7 7 (301056)
I0707 08:38:41.353426 27914 layer_factory.hpp:78] Creating layer inception_4e/3x3/bn
I0707 08:38:41.353440 27914 net.cpp:68] Creating Layer inception_4e/3x3/bn
I0707 08:38:41.353448 27914 net.cpp:395] inception_4e/3x3/bn <- inception_4e/3x3
I0707 08:38:41.353459 27914 net.cpp:357] inception_4e/3x3/bn -> inception_4e/3x3/bn
I0707 08:38:41.353471 27914 net.cpp:97] Setting up inception_4e/3x3/bn
I0707 08:38:41.353485 27914 net.cpp:104] Top shape: 32 192 7 7 (301056)
I0707 08:38:41.353507 27914 layer_factory.hpp:78] Creating layer inception_4e/relu_3x3
I0707 08:38:41.353519 27914 net.cpp:68] Creating Layer inception_4e/relu_3x3
I0707 08:38:41.353536 27914 net.cpp:395] inception_4e/relu_3x3 <- inception_4e/3x3/bn
I0707 08:38:41.353550 27914 net.cpp:346] inception_4e/relu_3x3 -> inception_4e/3x3/bn (in-place)
I0707 08:38:41.353561 27914 net.cpp:97] Setting up inception_4e/relu_3x3
I0707 08:38:41.353638 27914 net.cpp:104] Top shape: 32 192 7 7 (301056)
I0707 08:38:41.353654 27914 layer_factory.hpp:78] Creating layer inception_4e/double3x3_reduce
I0707 08:38:41.353670 27914 net.cpp:68] Creating Layer inception_4e/double3x3_reduce
I0707 08:38:41.353684 27914 net.cpp:395] inception_4e/double3x3_reduce <- inception_4d/output_inception_4d/output_0_split_1
I0707 08:38:41.353708 27914 net.cpp:357] inception_4e/double3x3_reduce -> inception_4e/double3x3_reduce
I0707 08:38:41.353727 27914 net.cpp:97] Setting up inception_4e/double3x3_reduce
I0707 08:38:41.354795 27914 net.cpp:104] Top shape: 32 192 14 14 (1204224)
I0707 08:38:41.354814 27914 layer_factory.hpp:78] Creating layer inception_4e/double3x3_reduce/bn
I0707 08:38:41.354825 27914 net.cpp:68] Creating Layer inception_4e/double3x3_reduce/bn
I0707 08:38:41.354835 27914 net.cpp:395] inception_4e/double3x3_reduce/bn <- inception_4e/double3x3_reduce
I0707 08:38:41.354845 27914 net.cpp:357] inception_4e/double3x3_reduce/bn -> inception_4e/double3x3_reduce/bn
I0707 08:38:41.354856 27914 net.cpp:97] Setting up inception_4e/double3x3_reduce/bn
I0707 08:38:41.354867 27914 net.cpp:104] Top shape: 32 192 14 14 (1204224)
I0707 08:38:41.354878 27914 layer_factory.hpp:78] Creating layer inception_4e/relu_double3x3_reduce
I0707 08:38:41.354887 27914 net.cpp:68] Creating Layer inception_4e/relu_double3x3_reduce
I0707 08:38:41.354895 27914 net.cpp:395] inception_4e/relu_double3x3_reduce <- inception_4e/double3x3_reduce/bn
I0707 08:38:41.354905 27914 net.cpp:346] inception_4e/relu_double3x3_reduce -> inception_4e/double3x3_reduce/bn (in-place)
I0707 08:38:41.354923 27914 net.cpp:97] Setting up inception_4e/relu_double3x3_reduce
I0707 08:38:41.354980 27914 net.cpp:104] Top shape: 32 192 14 14 (1204224)
I0707 08:38:41.354996 27914 layer_factory.hpp:78] Creating layer inception_4e/double3x3a
I0707 08:38:41.355010 27914 net.cpp:68] Creating Layer inception_4e/double3x3a
I0707 08:38:41.355026 27914 net.cpp:395] inception_4e/double3x3a <- inception_4e/double3x3_reduce/bn
I0707 08:38:41.355044 27914 net.cpp:357] inception_4e/double3x3a -> inception_4e/double3x3a
I0707 08:38:41.355057 27914 net.cpp:97] Setting up inception_4e/double3x3a
I0707 08:38:41.358219 27914 net.cpp:104] Top shape: 32 256 14 14 (1605632)
I0707 08:38:41.358238 27914 layer_factory.hpp:78] Creating layer inception_4e/double3x3a/bn
I0707 08:38:41.358250 27914 net.cpp:68] Creating Layer inception_4e/double3x3a/bn
I0707 08:38:41.358259 27914 net.cpp:395] inception_4e/double3x3a/bn <- inception_4e/double3x3a
I0707 08:38:41.358271 27914 net.cpp:357] inception_4e/double3x3a/bn -> inception_4e/double3x3a/bn
I0707 08:38:41.358283 27914 net.cpp:97] Setting up inception_4e/double3x3a/bn
I0707 08:38:41.358297 27914 net.cpp:104] Top shape: 32 256 14 14 (1605632)
I0707 08:38:41.358309 27914 layer_factory.hpp:78] Creating layer inception_4e/relu_double3x3a
I0707 08:38:41.358319 27914 net.cpp:68] Creating Layer inception_4e/relu_double3x3a
I0707 08:38:41.358327 27914 net.cpp:395] inception_4e/relu_double3x3a <- inception_4e/double3x3a/bn
I0707 08:38:41.358342 27914 net.cpp:346] inception_4e/relu_double3x3a -> inception_4e/double3x3a/bn (in-place)
I0707 08:38:41.358361 27914 net.cpp:97] Setting up inception_4e/relu_double3x3a
I0707 08:38:41.358551 27914 net.cpp:104] Top shape: 32 256 14 14 (1605632)
I0707 08:38:41.358566 27914 layer_factory.hpp:78] Creating layer inception_4e/double3x3b
I0707 08:38:41.358577 27914 net.cpp:68] Creating Layer inception_4e/double3x3b
I0707 08:38:41.358585 27914 net.cpp:395] inception_4e/double3x3b <- inception_4e/double3x3a/bn
I0707 08:38:41.358597 27914 net.cpp:357] inception_4e/double3x3b -> inception_4e/double3x3b
I0707 08:38:41.358628 27914 net.cpp:97] Setting up inception_4e/double3x3b
I0707 08:38:41.362666 27914 net.cpp:104] Top shape: 32 256 7 7 (401408)
I0707 08:38:41.362686 27914 layer_factory.hpp:78] Creating layer inception_4e/double3x3b/bn
I0707 08:38:41.362700 27914 net.cpp:68] Creating Layer inception_4e/double3x3b/bn
I0707 08:38:41.362710 27914 net.cpp:395] inception_4e/double3x3b/bn <- inception_4e/double3x3b
I0707 08:38:41.362722 27914 net.cpp:357] inception_4e/double3x3b/bn -> inception_4e/double3x3b/bn
I0707 08:38:41.362735 27914 net.cpp:97] Setting up inception_4e/double3x3b/bn
I0707 08:38:41.362750 27914 net.cpp:104] Top shape: 32 256 7 7 (401408)
I0707 08:38:41.362759 27914 layer_factory.hpp:78] Creating layer inception_4e/relu_double3x3b
I0707 08:38:41.362769 27914 net.cpp:68] Creating Layer inception_4e/relu_double3x3b
I0707 08:38:41.362777 27914 net.cpp:395] inception_4e/relu_double3x3b <- inception_4e/double3x3b/bn
I0707 08:38:41.362792 27914 net.cpp:346] inception_4e/relu_double3x3b -> inception_4e/double3x3b/bn (in-place)
I0707 08:38:41.362809 27914 net.cpp:97] Setting up inception_4e/relu_double3x3b
I0707 08:38:41.362887 27914 net.cpp:104] Top shape: 32 256 7 7 (401408)
I0707 08:38:41.362905 27914 layer_factory.hpp:78] Creating layer inception_4e/pool/3x3_s2
I0707 08:38:41.362921 27914 net.cpp:68] Creating Layer inception_4e/pool/3x3_s2
I0707 08:38:41.362934 27914 net.cpp:395] inception_4e/pool/3x3_s2 <- inception_4d/output_inception_4d/output_0_split_2
I0707 08:38:41.362951 27914 net.cpp:357] inception_4e/pool/3x3_s2 -> inception_4e/pool/3x3_s2
I0707 08:38:41.362967 27914 net.cpp:97] Setting up inception_4e/pool/3x3_s2
I0707 08:38:41.363047 27914 net.cpp:104] Top shape: 32 608 7 7 (953344)
I0707 08:38:41.363062 27914 layer_factory.hpp:78] Creating layer inception_4e/output
I0707 08:38:41.363075 27914 net.cpp:68] Creating Layer inception_4e/output
I0707 08:38:41.363088 27914 net.cpp:395] inception_4e/output <- inception_4e/3x3/bn
I0707 08:38:41.363103 27914 net.cpp:395] inception_4e/output <- inception_4e/double3x3b/bn
I0707 08:38:41.363117 27914 net.cpp:395] inception_4e/output <- inception_4e/pool/3x3_s2
I0707 08:38:41.363134 27914 net.cpp:357] inception_4e/output -> inception_4e/output
I0707 08:38:41.363152 27914 net.cpp:97] Setting up inception_4e/output
I0707 08:38:41.363162 27914 net.cpp:104] Top shape: 32 1056 7 7 (1655808)
I0707 08:38:41.363173 27914 layer_factory.hpp:78] Creating layer inception_4e/output_inception_4e/output_0_split
I0707 08:38:41.363189 27914 net.cpp:68] Creating Layer inception_4e/output_inception_4e/output_0_split
I0707 08:38:41.363200 27914 net.cpp:395] inception_4e/output_inception_4e/output_0_split <- inception_4e/output
I0707 08:38:41.363217 27914 net.cpp:357] inception_4e/output_inception_4e/output_0_split -> inception_4e/output_inception_4e/output_0_split_0
I0707 08:38:41.363234 27914 net.cpp:357] inception_4e/output_inception_4e/output_0_split -> inception_4e/output_inception_4e/output_0_split_1
I0707 08:38:41.363246 27914 net.cpp:357] inception_4e/output_inception_4e/output_0_split -> inception_4e/output_inception_4e/output_0_split_2
I0707 08:38:41.363260 27914 net.cpp:357] inception_4e/output_inception_4e/output_0_split -> inception_4e/output_inception_4e/output_0_split_3
I0707 08:38:41.363276 27914 net.cpp:97] Setting up inception_4e/output_inception_4e/output_0_split
I0707 08:38:41.363287 27914 net.cpp:104] Top shape: 32 1056 7 7 (1655808)
I0707 08:38:41.363301 27914 net.cpp:104] Top shape: 32 1056 7 7 (1655808)
I0707 08:38:41.363314 27914 net.cpp:104] Top shape: 32 1056 7 7 (1655808)
I0707 08:38:41.363323 27914 net.cpp:104] Top shape: 32 1056 7 7 (1655808)
I0707 08:38:41.363332 27914 layer_factory.hpp:78] Creating layer inception_5a/1x1
I0707 08:38:41.363342 27914 net.cpp:68] Creating Layer inception_5a/1x1
I0707 08:38:41.363349 27914 net.cpp:395] inception_5a/1x1 <- inception_4e/output_inception_4e/output_0_split_0
I0707 08:38:41.363366 27914 net.cpp:357] inception_5a/1x1 -> inception_5a/1x1
I0707 08:38:41.363384 27914 net.cpp:97] Setting up inception_5a/1x1
I0707 08:38:41.366129 27914 net.cpp:104] Top shape: 32 352 7 7 (551936)
I0707 08:38:41.366149 27914 layer_factory.hpp:78] Creating layer inception_5a/1x1/bn
I0707 08:38:41.366163 27914 net.cpp:68] Creating Layer inception_5a/1x1/bn
I0707 08:38:41.366173 27914 net.cpp:395] inception_5a/1x1/bn <- inception_5a/1x1
I0707 08:38:41.366183 27914 net.cpp:357] inception_5a/1x1/bn -> inception_5a/1x1/bn
I0707 08:38:41.366194 27914 net.cpp:97] Setting up inception_5a/1x1/bn
I0707 08:38:41.366209 27914 net.cpp:104] Top shape: 32 352 7 7 (551936)
I0707 08:38:41.366219 27914 layer_factory.hpp:78] Creating layer inception_5a/relu_1x1
I0707 08:38:41.366230 27914 net.cpp:68] Creating Layer inception_5a/relu_1x1
I0707 08:38:41.366240 27914 net.cpp:395] inception_5a/relu_1x1 <- inception_5a/1x1/bn
I0707 08:38:41.366252 27914 net.cpp:346] inception_5a/relu_1x1 -> inception_5a/1x1/bn (in-place)
I0707 08:38:41.366271 27914 net.cpp:97] Setting up inception_5a/relu_1x1
I0707 08:38:41.366466 27914 net.cpp:104] Top shape: 32 352 7 7 (551936)
I0707 08:38:41.366480 27914 layer_factory.hpp:78] Creating layer inception_5a/3x3_reduce
I0707 08:38:41.366493 27914 net.cpp:68] Creating Layer inception_5a/3x3_reduce
I0707 08:38:41.366503 27914 net.cpp:395] inception_5a/3x3_reduce <- inception_4e/output_inception_4e/output_0_split_1
I0707 08:38:41.366513 27914 net.cpp:357] inception_5a/3x3_reduce -> inception_5a/3x3_reduce
I0707 08:38:41.366525 27914 net.cpp:97] Setting up inception_5a/3x3_reduce
I0707 08:38:41.368104 27914 net.cpp:104] Top shape: 32 192 7 7 (301056)
I0707 08:38:41.368122 27914 layer_factory.hpp:78] Creating layer inception_5a/3x3_reduce/bn
I0707 08:38:41.368136 27914 net.cpp:68] Creating Layer inception_5a/3x3_reduce/bn
I0707 08:38:41.368146 27914 net.cpp:395] inception_5a/3x3_reduce/bn <- inception_5a/3x3_reduce
I0707 08:38:41.368156 27914 net.cpp:357] inception_5a/3x3_reduce/bn -> inception_5a/3x3_reduce/bn
I0707 08:38:41.368170 27914 net.cpp:97] Setting up inception_5a/3x3_reduce/bn
I0707 08:38:41.368182 27914 net.cpp:104] Top shape: 32 192 7 7 (301056)
I0707 08:38:41.368193 27914 layer_factory.hpp:78] Creating layer inception_5a/relu_3x3_reduce
I0707 08:38:41.368204 27914 net.cpp:68] Creating Layer inception_5a/relu_3x3_reduce
I0707 08:38:41.368217 27914 net.cpp:395] inception_5a/relu_3x3_reduce <- inception_5a/3x3_reduce/bn
I0707 08:38:41.368235 27914 net.cpp:346] inception_5a/relu_3x3_reduce -> inception_5a/3x3_reduce/bn (in-place)
I0707 08:38:41.368247 27914 net.cpp:97] Setting up inception_5a/relu_3x3_reduce
I0707 08:38:41.368327 27914 net.cpp:104] Top shape: 32 192 7 7 (301056)
I0707 08:38:41.368340 27914 layer_factory.hpp:78] Creating layer inception_5a/3x3
I0707 08:38:41.368355 27914 net.cpp:68] Creating Layer inception_5a/3x3
I0707 08:38:41.368367 27914 net.cpp:395] inception_5a/3x3 <- inception_5a/3x3_reduce/bn
I0707 08:38:41.368383 27914 net.cpp:357] inception_5a/3x3 -> inception_5a/3x3
I0707 08:38:41.368402 27914 net.cpp:97] Setting up inception_5a/3x3
I0707 08:38:41.372225 27914 net.cpp:104] Top shape: 32 320 7 7 (501760)
I0707 08:38:41.372246 27914 layer_factory.hpp:78] Creating layer inception_5a/3x3/bn
I0707 08:38:41.372259 27914 net.cpp:68] Creating Layer inception_5a/3x3/bn
I0707 08:38:41.372268 27914 net.cpp:395] inception_5a/3x3/bn <- inception_5a/3x3
I0707 08:38:41.372280 27914 net.cpp:357] inception_5a/3x3/bn -> inception_5a/3x3/bn
I0707 08:38:41.372292 27914 net.cpp:97] Setting up inception_5a/3x3/bn
I0707 08:38:41.372308 27914 net.cpp:104] Top shape: 32 320 7 7 (501760)
I0707 08:38:41.372319 27914 layer_factory.hpp:78] Creating layer inception_5a/relu_3x3
I0707 08:38:41.372328 27914 net.cpp:68] Creating Layer inception_5a/relu_3x3
I0707 08:38:41.372337 27914 net.cpp:395] inception_5a/relu_3x3 <- inception_5a/3x3/bn
I0707 08:38:41.372354 27914 net.cpp:346] inception_5a/relu_3x3 -> inception_5a/3x3/bn (in-place)
I0707 08:38:41.372371 27914 net.cpp:97] Setting up inception_5a/relu_3x3
I0707 08:38:41.372450 27914 net.cpp:104] Top shape: 32 320 7 7 (501760)
I0707 08:38:41.372467 27914 layer_factory.hpp:78] Creating layer inception_5a/double3x3_reduce
I0707 08:38:41.372510 27914 net.cpp:68] Creating Layer inception_5a/double3x3_reduce
I0707 08:38:41.372525 27914 net.cpp:395] inception_5a/double3x3_reduce <- inception_4e/output_inception_4e/output_0_split_2
I0707 08:38:41.372542 27914 net.cpp:357] inception_5a/double3x3_reduce -> inception_5a/double3x3_reduce
I0707 08:38:41.372556 27914 net.cpp:97] Setting up inception_5a/double3x3_reduce
I0707 08:38:41.373919 27914 net.cpp:104] Top shape: 32 160 7 7 (250880)
I0707 08:38:41.373939 27914 layer_factory.hpp:78] Creating layer inception_5a/double3x3_reduce/bn
I0707 08:38:41.373955 27914 net.cpp:68] Creating Layer inception_5a/double3x3_reduce/bn
I0707 08:38:41.373965 27914 net.cpp:395] inception_5a/double3x3_reduce/bn <- inception_5a/double3x3_reduce
I0707 08:38:41.373976 27914 net.cpp:357] inception_5a/double3x3_reduce/bn -> inception_5a/double3x3_reduce/bn
I0707 08:38:41.373987 27914 net.cpp:97] Setting up inception_5a/double3x3_reduce/bn
I0707 08:38:41.374001 27914 net.cpp:104] Top shape: 32 160 7 7 (250880)
I0707 08:38:41.374012 27914 layer_factory.hpp:78] Creating layer inception_5a/relu_double3x3_reduce
I0707 08:38:41.374022 27914 net.cpp:68] Creating Layer inception_5a/relu_double3x3_reduce
I0707 08:38:41.374032 27914 net.cpp:395] inception_5a/relu_double3x3_reduce <- inception_5a/double3x3_reduce/bn
I0707 08:38:41.374048 27914 net.cpp:346] inception_5a/relu_double3x3_reduce -> inception_5a/double3x3_reduce/bn (in-place)
I0707 08:38:41.374065 27914 net.cpp:97] Setting up inception_5a/relu_double3x3_reduce
I0707 08:38:41.374133 27914 net.cpp:104] Top shape: 32 160 7 7 (250880)
I0707 08:38:41.374151 27914 layer_factory.hpp:78] Creating layer inception_5a/double3x3a
I0707 08:38:41.374168 27914 net.cpp:68] Creating Layer inception_5a/double3x3a
I0707 08:38:41.374179 27914 net.cpp:395] inception_5a/double3x3a <- inception_5a/double3x3_reduce/bn
I0707 08:38:41.374197 27914 net.cpp:357] inception_5a/double3x3a -> inception_5a/double3x3a
I0707 08:38:41.374210 27914 net.cpp:97] Setting up inception_5a/double3x3a
I0707 08:38:41.376560 27914 net.cpp:104] Top shape: 32 224 7 7 (351232)
I0707 08:38:41.376579 27914 layer_factory.hpp:78] Creating layer inception_5a/double3x3a/bn
I0707 08:38:41.376592 27914 net.cpp:68] Creating Layer inception_5a/double3x3a/bn
I0707 08:38:41.376602 27914 net.cpp:395] inception_5a/double3x3a/bn <- inception_5a/double3x3a
I0707 08:38:41.376615 27914 net.cpp:357] inception_5a/double3x3a/bn -> inception_5a/double3x3a/bn
I0707 08:38:41.376626 27914 net.cpp:97] Setting up inception_5a/double3x3a/bn
I0707 08:38:41.376639 27914 net.cpp:104] Top shape: 32 224 7 7 (351232)
I0707 08:38:41.376652 27914 layer_factory.hpp:78] Creating layer inception_5a/relu_double3x3a
I0707 08:38:41.376660 27914 net.cpp:68] Creating Layer inception_5a/relu_double3x3a
I0707 08:38:41.376669 27914 net.cpp:395] inception_5a/relu_double3x3a <- inception_5a/double3x3a/bn
I0707 08:38:41.376684 27914 net.cpp:346] inception_5a/relu_double3x3a -> inception_5a/double3x3a/bn (in-place)
I0707 08:38:41.376703 27914 net.cpp:97] Setting up inception_5a/relu_double3x3a
I0707 08:38:41.376896 27914 net.cpp:104] Top shape: 32 224 7 7 (351232)
I0707 08:38:41.376911 27914 layer_factory.hpp:78] Creating layer inception_5a/double3x3b
I0707 08:38:41.376922 27914 net.cpp:68] Creating Layer inception_5a/double3x3b
I0707 08:38:41.376930 27914 net.cpp:395] inception_5a/double3x3b <- inception_5a/double3x3a/bn
I0707 08:38:41.376945 27914 net.cpp:357] inception_5a/double3x3b -> inception_5a/double3x3b
I0707 08:38:41.376958 27914 net.cpp:97] Setting up inception_5a/double3x3b
I0707 08:38:41.380187 27914 net.cpp:104] Top shape: 32 224 7 7 (351232)
I0707 08:38:41.380208 27914 layer_factory.hpp:78] Creating layer inception_5a/double3x3b/bn
I0707 08:38:41.380221 27914 net.cpp:68] Creating Layer inception_5a/double3x3b/bn
I0707 08:38:41.380233 27914 net.cpp:395] inception_5a/double3x3b/bn <- inception_5a/double3x3b
I0707 08:38:41.380242 27914 net.cpp:357] inception_5a/double3x3b/bn -> inception_5a/double3x3b/bn
I0707 08:38:41.380275 27914 net.cpp:97] Setting up inception_5a/double3x3b/bn
I0707 08:38:41.380290 27914 net.cpp:104] Top shape: 32 224 7 7 (351232)
I0707 08:38:41.380302 27914 layer_factory.hpp:78] Creating layer inception_5a/relu_double3x3b
I0707 08:38:41.380317 27914 net.cpp:68] Creating Layer inception_5a/relu_double3x3b
I0707 08:38:41.380333 27914 net.cpp:395] inception_5a/relu_double3x3b <- inception_5a/double3x3b/bn
I0707 08:38:41.380347 27914 net.cpp:346] inception_5a/relu_double3x3b -> inception_5a/double3x3b/bn (in-place)
I0707 08:38:41.380360 27914 net.cpp:97] Setting up inception_5a/relu_double3x3b
I0707 08:38:41.380450 27914 net.cpp:104] Top shape: 32 224 7 7 (351232)
I0707 08:38:41.380465 27914 layer_factory.hpp:78] Creating layer inception_5a/pool
I0707 08:38:41.380481 27914 layer_factory.cpp:51] CUDNN does not support padding or multiple tops. Using Caffe's own pooling layer.
I0707 08:38:41.380498 27914 net.cpp:68] Creating Layer inception_5a/pool
I0707 08:38:41.380509 27914 net.cpp:395] inception_5a/pool <- inception_4e/output_inception_4e/output_0_split_3
I0707 08:38:41.380525 27914 net.cpp:357] inception_5a/pool -> inception_5a/pool
I0707 08:38:41.380542 27914 net.cpp:97] Setting up inception_5a/pool
I0707 08:38:41.380552 27914 net.cpp:104] Top shape: 32 1056 7 7 (1655808)
I0707 08:38:41.380564 27914 layer_factory.hpp:78] Creating layer inception_5a/pool_proj
I0707 08:38:41.380578 27914 net.cpp:68] Creating Layer inception_5a/pool_proj
I0707 08:38:41.380590 27914 net.cpp:395] inception_5a/pool_proj <- inception_5a/pool
I0707 08:38:41.380611 27914 net.cpp:357] inception_5a/pool_proj -> inception_5a/pool_proj
I0707 08:38:41.380625 27914 net.cpp:97] Setting up inception_5a/pool_proj
I0707 08:38:41.381810 27914 net.cpp:104] Top shape: 32 128 7 7 (200704)
I0707 08:38:41.381829 27914 layer_factory.hpp:78] Creating layer inception_5a/pool_proj/bn
I0707 08:38:41.381850 27914 net.cpp:68] Creating Layer inception_5a/pool_proj/bn
I0707 08:38:41.381858 27914 net.cpp:395] inception_5a/pool_proj/bn <- inception_5a/pool_proj
I0707 08:38:41.381870 27914 net.cpp:357] inception_5a/pool_proj/bn -> inception_5a/pool_proj/bn
I0707 08:38:41.381881 27914 net.cpp:97] Setting up inception_5a/pool_proj/bn
I0707 08:38:41.381896 27914 net.cpp:104] Top shape: 32 128 7 7 (200704)
I0707 08:38:41.381906 27914 layer_factory.hpp:78] Creating layer inception_5a/relu_pool_proj
I0707 08:38:41.381918 27914 net.cpp:68] Creating Layer inception_5a/relu_pool_proj
I0707 08:38:41.381935 27914 net.cpp:395] inception_5a/relu_pool_proj <- inception_5a/pool_proj/bn
I0707 08:38:41.381948 27914 net.cpp:346] inception_5a/relu_pool_proj -> inception_5a/pool_proj/bn (in-place)
I0707 08:38:41.381959 27914 net.cpp:97] Setting up inception_5a/relu_pool_proj
I0707 08:38:41.382036 27914 net.cpp:104] Top shape: 32 128 7 7 (200704)
I0707 08:38:41.382050 27914 layer_factory.hpp:78] Creating layer inception_5a/output
I0707 08:38:41.382068 27914 net.cpp:68] Creating Layer inception_5a/output
I0707 08:38:41.382079 27914 net.cpp:395] inception_5a/output <- inception_5a/1x1/bn
I0707 08:38:41.382096 27914 net.cpp:395] inception_5a/output <- inception_5a/3x3/bn
I0707 08:38:41.382118 27914 net.cpp:395] inception_5a/output <- inception_5a/double3x3b/bn
I0707 08:38:41.382135 27914 net.cpp:395] inception_5a/output <- inception_5a/pool_proj/bn
I0707 08:38:41.382148 27914 net.cpp:357] inception_5a/output -> inception_5a/output
I0707 08:38:41.382164 27914 net.cpp:97] Setting up inception_5a/output
I0707 08:38:41.382179 27914 net.cpp:104] Top shape: 32 1024 7 7 (1605632)
I0707 08:38:41.382187 27914 layer_factory.hpp:78] Creating layer inception_5a/output_inception_5a/output_0_split
I0707 08:38:41.382203 27914 net.cpp:68] Creating Layer inception_5a/output_inception_5a/output_0_split
I0707 08:38:41.382216 27914 net.cpp:395] inception_5a/output_inception_5a/output_0_split <- inception_5a/output
I0707 08:38:41.382230 27914 net.cpp:357] inception_5a/output_inception_5a/output_0_split -> inception_5a/output_inception_5a/output_0_split_0
I0707 08:38:41.382249 27914 net.cpp:357] inception_5a/output_inception_5a/output_0_split -> inception_5a/output_inception_5a/output_0_split_1
I0707 08:38:41.382272 27914 net.cpp:357] inception_5a/output_inception_5a/output_0_split -> inception_5a/output_inception_5a/output_0_split_2
I0707 08:38:41.382290 27914 net.cpp:357] inception_5a/output_inception_5a/output_0_split -> inception_5a/output_inception_5a/output_0_split_3
I0707 08:38:41.382304 27914 net.cpp:97] Setting up inception_5a/output_inception_5a/output_0_split
I0707 08:38:41.382319 27914 net.cpp:104] Top shape: 32 1024 7 7 (1605632)
I0707 08:38:41.382333 27914 net.cpp:104] Top shape: 32 1024 7 7 (1605632)
I0707 08:38:41.382343 27914 net.cpp:104] Top shape: 32 1024 7 7 (1605632)
I0707 08:38:41.382350 27914 net.cpp:104] Top shape: 32 1024 7 7 (1605632)
I0707 08:38:41.382357 27914 layer_factory.hpp:78] Creating layer inception_5b/1x1
I0707 08:38:41.382371 27914 net.cpp:68] Creating Layer inception_5b/1x1
I0707 08:38:41.382386 27914 net.cpp:395] inception_5b/1x1 <- inception_5a/output_inception_5a/output_0_split_0
I0707 08:38:41.382401 27914 net.cpp:357] inception_5b/1x1 -> inception_5b/1x1
I0707 08:38:41.382421 27914 net.cpp:97] Setting up inception_5b/1x1
I0707 08:38:41.385061 27914 net.cpp:104] Top shape: 32 352 7 7 (551936)
I0707 08:38:41.385082 27914 layer_factory.hpp:78] Creating layer inception_5b/1x1/bn
I0707 08:38:41.385093 27914 net.cpp:68] Creating Layer inception_5b/1x1/bn
I0707 08:38:41.385103 27914 net.cpp:395] inception_5b/1x1/bn <- inception_5b/1x1
I0707 08:38:41.385115 27914 net.cpp:357] inception_5b/1x1/bn -> inception_5b/1x1/bn
I0707 08:38:41.385126 27914 net.cpp:97] Setting up inception_5b/1x1/bn
I0707 08:38:41.385141 27914 net.cpp:104] Top shape: 32 352 7 7 (551936)
I0707 08:38:41.385152 27914 layer_factory.hpp:78] Creating layer inception_5b/relu_1x1
I0707 08:38:41.385161 27914 net.cpp:68] Creating Layer inception_5b/relu_1x1
I0707 08:38:41.385169 27914 net.cpp:395] inception_5b/relu_1x1 <- inception_5b/1x1/bn
I0707 08:38:41.385187 27914 net.cpp:346] inception_5b/relu_1x1 -> inception_5b/1x1/bn (in-place)
I0707 08:38:41.385205 27914 net.cpp:97] Setting up inception_5b/relu_1x1
I0707 08:38:41.385283 27914 net.cpp:104] Top shape: 32 352 7 7 (551936)
I0707 08:38:41.385299 27914 layer_factory.hpp:78] Creating layer inception_5b/3x3_reduce
I0707 08:38:41.385318 27914 net.cpp:68] Creating Layer inception_5b/3x3_reduce
I0707 08:38:41.385329 27914 net.cpp:395] inception_5b/3x3_reduce <- inception_5a/output_inception_5a/output_0_split_1
I0707 08:38:41.385360 27914 net.cpp:357] inception_5b/3x3_reduce -> inception_5b/3x3_reduce
I0707 08:38:41.385380 27914 net.cpp:97] Setting up inception_5b/3x3_reduce
I0707 08:38:41.386945 27914 net.cpp:104] Top shape: 32 192 7 7 (301056)
I0707 08:38:41.386962 27914 layer_factory.hpp:78] Creating layer inception_5b/3x3_reduce/bn
I0707 08:38:41.386975 27914 net.cpp:68] Creating Layer inception_5b/3x3_reduce/bn
I0707 08:38:41.386983 27914 net.cpp:395] inception_5b/3x3_reduce/bn <- inception_5b/3x3_reduce
I0707 08:38:41.386996 27914 net.cpp:357] inception_5b/3x3_reduce/bn -> inception_5b/3x3_reduce/bn
I0707 08:38:41.387007 27914 net.cpp:97] Setting up inception_5b/3x3_reduce/bn
I0707 08:38:41.387022 27914 net.cpp:104] Top shape: 32 192 7 7 (301056)
I0707 08:38:41.387032 27914 layer_factory.hpp:78] Creating layer inception_5b/relu_3x3_reduce
I0707 08:38:41.387042 27914 net.cpp:68] Creating Layer inception_5b/relu_3x3_reduce
I0707 08:38:41.387050 27914 net.cpp:395] inception_5b/relu_3x3_reduce <- inception_5b/3x3_reduce/bn
I0707 08:38:41.387063 27914 net.cpp:346] inception_5b/relu_3x3_reduce -> inception_5b/3x3_reduce/bn (in-place)
I0707 08:38:41.387090 27914 net.cpp:97] Setting up inception_5b/relu_3x3_reduce
I0707 08:38:41.387282 27914 net.cpp:104] Top shape: 32 192 7 7 (301056)
I0707 08:38:41.387297 27914 layer_factory.hpp:78] Creating layer inception_5b/3x3
I0707 08:38:41.387310 27914 net.cpp:68] Creating Layer inception_5b/3x3
I0707 08:38:41.387320 27914 net.cpp:395] inception_5b/3x3 <- inception_5b/3x3_reduce/bn
I0707 08:38:41.387329 27914 net.cpp:357] inception_5b/3x3 -> inception_5b/3x3
I0707 08:38:41.387362 27914 net.cpp:97] Setting up inception_5b/3x3
I0707 08:38:41.391238 27914 net.cpp:104] Top shape: 32 320 7 7 (501760)
I0707 08:38:41.391263 27914 layer_factory.hpp:78] Creating layer inception_5b/3x3/bn
I0707 08:38:41.391276 27914 net.cpp:68] Creating Layer inception_5b/3x3/bn
I0707 08:38:41.391286 27914 net.cpp:395] inception_5b/3x3/bn <- inception_5b/3x3
I0707 08:38:41.391299 27914 net.cpp:357] inception_5b/3x3/bn -> inception_5b/3x3/bn
I0707 08:38:41.391309 27914 net.cpp:97] Setting up inception_5b/3x3/bn
I0707 08:38:41.391329 27914 net.cpp:104] Top shape: 32 320 7 7 (501760)
I0707 08:38:41.391340 27914 layer_factory.hpp:78] Creating layer inception_5b/relu_3x3
I0707 08:38:41.391348 27914 net.cpp:68] Creating Layer inception_5b/relu_3x3
I0707 08:38:41.391356 27914 net.cpp:395] inception_5b/relu_3x3 <- inception_5b/3x3/bn
I0707 08:38:41.391369 27914 net.cpp:346] inception_5b/relu_3x3 -> inception_5b/3x3/bn (in-place)
I0707 08:38:41.391386 27914 net.cpp:97] Setting up inception_5b/relu_3x3
I0707 08:38:41.391469 27914 net.cpp:104] Top shape: 32 320 7 7 (501760)
I0707 08:38:41.391484 27914 layer_factory.hpp:78] Creating layer inception_5b/double3x3_reduce
I0707 08:38:41.391504 27914 net.cpp:68] Creating Layer inception_5b/double3x3_reduce
I0707 08:38:41.391515 27914 net.cpp:395] inception_5b/double3x3_reduce <- inception_5a/output_inception_5a/output_0_split_2
I0707 08:38:41.391535 27914 net.cpp:357] inception_5b/double3x3_reduce -> inception_5b/double3x3_reduce
I0707 08:38:41.391551 27914 net.cpp:97] Setting up inception_5b/double3x3_reduce
I0707 08:38:41.393122 27914 net.cpp:104] Top shape: 32 192 7 7 (301056)
I0707 08:38:41.393141 27914 layer_factory.hpp:78] Creating layer inception_5b/double3x3_reduce/bn
I0707 08:38:41.393153 27914 net.cpp:68] Creating Layer inception_5b/double3x3_reduce/bn
I0707 08:38:41.393163 27914 net.cpp:395] inception_5b/double3x3_reduce/bn <- inception_5b/double3x3_reduce
I0707 08:38:41.393173 27914 net.cpp:357] inception_5b/double3x3_reduce/bn -> inception_5b/double3x3_reduce/bn
I0707 08:38:41.393184 27914 net.cpp:97] Setting up inception_5b/double3x3_reduce/bn
I0707 08:38:41.393199 27914 net.cpp:104] Top shape: 32 192 7 7 (301056)
I0707 08:38:41.393210 27914 layer_factory.hpp:78] Creating layer inception_5b/relu_double3x3_reduce
I0707 08:38:41.393219 27914 net.cpp:68] Creating Layer inception_5b/relu_double3x3_reduce
I0707 08:38:41.393229 27914 net.cpp:395] inception_5b/relu_double3x3_reduce <- inception_5b/double3x3_reduce/bn
I0707 08:38:41.393244 27914 net.cpp:346] inception_5b/relu_double3x3_reduce -> inception_5b/double3x3_reduce/bn (in-place)
I0707 08:38:41.393262 27914 net.cpp:97] Setting up inception_5b/relu_double3x3_reduce
I0707 08:38:41.393334 27914 net.cpp:104] Top shape: 32 192 7 7 (301056)
I0707 08:38:41.393354 27914 layer_factory.hpp:78] Creating layer inception_5b/double3x3a
I0707 08:38:41.393369 27914 net.cpp:68] Creating Layer inception_5b/double3x3a
I0707 08:38:41.393393 27914 net.cpp:395] inception_5b/double3x3a <- inception_5b/double3x3_reduce/bn
I0707 08:38:41.393411 27914 net.cpp:357] inception_5b/double3x3a -> inception_5b/double3x3a
I0707 08:38:41.393431 27914 net.cpp:97] Setting up inception_5b/double3x3a
I0707 08:38:41.396263 27914 net.cpp:104] Top shape: 32 224 7 7 (351232)
I0707 08:38:41.396282 27914 layer_factory.hpp:78] Creating layer inception_5b/double3x3a/bn
I0707 08:38:41.396296 27914 net.cpp:68] Creating Layer inception_5b/double3x3a/bn
I0707 08:38:41.396306 27914 net.cpp:395] inception_5b/double3x3a/bn <- inception_5b/double3x3a
I0707 08:38:41.396318 27914 net.cpp:357] inception_5b/double3x3a/bn -> inception_5b/double3x3a/bn
I0707 08:38:41.396330 27914 net.cpp:97] Setting up inception_5b/double3x3a/bn
I0707 08:38:41.396344 27914 net.cpp:104] Top shape: 32 224 7 7 (351232)
I0707 08:38:41.396355 27914 layer_factory.hpp:78] Creating layer inception_5b/relu_double3x3a
I0707 08:38:41.396365 27914 net.cpp:68] Creating Layer inception_5b/relu_double3x3a
I0707 08:38:41.396373 27914 net.cpp:395] inception_5b/relu_double3x3a <- inception_5b/double3x3a/bn
I0707 08:38:41.396414 27914 net.cpp:346] inception_5b/relu_double3x3a -> inception_5b/double3x3a/bn (in-place)
I0707 08:38:41.396428 27914 net.cpp:97] Setting up inception_5b/relu_double3x3a
I0707 08:38:41.396507 27914 net.cpp:104] Top shape: 32 224 7 7 (351232)
I0707 08:38:41.396524 27914 layer_factory.hpp:78] Creating layer inception_5b/double3x3b
I0707 08:38:41.396536 27914 net.cpp:68] Creating Layer inception_5b/double3x3b
I0707 08:38:41.396549 27914 net.cpp:395] inception_5b/double3x3b <- inception_5b/double3x3a/bn
I0707 08:38:41.396569 27914 net.cpp:357] inception_5b/double3x3b -> inception_5b/double3x3b
I0707 08:38:41.396587 27914 net.cpp:97] Setting up inception_5b/double3x3b
I0707 08:38:41.399868 27914 net.cpp:104] Top shape: 32 224 7 7 (351232)
I0707 08:38:41.399889 27914 layer_factory.hpp:78] Creating layer inception_5b/double3x3b/bn
I0707 08:38:41.399902 27914 net.cpp:68] Creating Layer inception_5b/double3x3b/bn
I0707 08:38:41.399912 27914 net.cpp:395] inception_5b/double3x3b/bn <- inception_5b/double3x3b
I0707 08:38:41.399924 27914 net.cpp:357] inception_5b/double3x3b/bn -> inception_5b/double3x3b/bn
I0707 08:38:41.399935 27914 net.cpp:97] Setting up inception_5b/double3x3b/bn
I0707 08:38:41.399950 27914 net.cpp:104] Top shape: 32 224 7 7 (351232)
I0707 08:38:41.399960 27914 layer_factory.hpp:78] Creating layer inception_5b/relu_double3x3b
I0707 08:38:41.399971 27914 net.cpp:68] Creating Layer inception_5b/relu_double3x3b
I0707 08:38:41.399978 27914 net.cpp:395] inception_5b/relu_double3x3b <- inception_5b/double3x3b/bn
I0707 08:38:41.399992 27914 net.cpp:346] inception_5b/relu_double3x3b -> inception_5b/double3x3b/bn (in-place)
I0707 08:38:41.400009 27914 net.cpp:97] Setting up inception_5b/relu_double3x3b
I0707 08:38:41.400205 27914 net.cpp:104] Top shape: 32 224 7 7 (351232)
I0707 08:38:41.400221 27914 layer_factory.hpp:78] Creating layer inception_5b/pool
I0707 08:38:41.400230 27914 layer_factory.cpp:51] CUDNN does not support padding or multiple tops. Using Caffe's own pooling layer.
I0707 08:38:41.400240 27914 net.cpp:68] Creating Layer inception_5b/pool
I0707 08:38:41.400249 27914 net.cpp:395] inception_5b/pool <- inception_5a/output_inception_5a/output_0_split_3
I0707 08:38:41.400261 27914 net.cpp:357] inception_5b/pool -> inception_5b/pool
I0707 08:38:41.400279 27914 net.cpp:97] Setting up inception_5b/pool
I0707 08:38:41.400295 27914 net.cpp:104] Top shape: 32 1024 7 7 (1605632)
I0707 08:38:41.400305 27914 layer_factory.hpp:78] Creating layer inception_5b/pool_proj
I0707 08:38:41.400315 27914 net.cpp:68] Creating Layer inception_5b/pool_proj
I0707 08:38:41.400328 27914 net.cpp:395] inception_5b/pool_proj <- inception_5b/pool
I0707 08:38:41.400342 27914 net.cpp:357] inception_5b/pool_proj -> inception_5b/pool_proj
I0707 08:38:41.400372 27914 net.cpp:97] Setting up inception_5b/pool_proj
I0707 08:38:41.401605 27914 net.cpp:104] Top shape: 32 128 7 7 (200704)
I0707 08:38:41.401623 27914 layer_factory.hpp:78] Creating layer inception_5b/pool_proj/bn
I0707 08:38:41.401636 27914 net.cpp:68] Creating Layer inception_5b/pool_proj/bn
I0707 08:38:41.401645 27914 net.cpp:395] inception_5b/pool_proj/bn <- inception_5b/pool_proj
I0707 08:38:41.401656 27914 net.cpp:357] inception_5b/pool_proj/bn -> inception_5b/pool_proj/bn
I0707 08:38:41.401667 27914 net.cpp:97] Setting up inception_5b/pool_proj/bn
I0707 08:38:41.401684 27914 net.cpp:104] Top shape: 32 128 7 7 (200704)
I0707 08:38:41.401695 27914 layer_factory.hpp:78] Creating layer inception_5b/relu_pool_proj
I0707 08:38:41.401705 27914 net.cpp:68] Creating Layer inception_5b/relu_pool_proj
I0707 08:38:41.401712 27914 net.cpp:395] inception_5b/relu_pool_proj <- inception_5b/pool_proj/bn
I0707 08:38:41.401731 27914 net.cpp:346] inception_5b/relu_pool_proj -> inception_5b/pool_proj/bn (in-place)
I0707 08:38:41.401747 27914 net.cpp:97] Setting up inception_5b/relu_pool_proj
I0707 08:38:41.401823 27914 net.cpp:104] Top shape: 32 128 7 7 (200704)
I0707 08:38:41.401839 27914 layer_factory.hpp:78] Creating layer inception_5b/output
I0707 08:38:41.401872 27914 net.cpp:68] Creating Layer inception_5b/output
I0707 08:38:41.401887 27914 net.cpp:395] inception_5b/output <- inception_5b/1x1/bn
I0707 08:38:41.401902 27914 net.cpp:395] inception_5b/output <- inception_5b/3x3/bn
I0707 08:38:41.401918 27914 net.cpp:395] inception_5b/output <- inception_5b/double3x3b/bn
I0707 08:38:41.401931 27914 net.cpp:395] inception_5b/output <- inception_5b/pool_proj/bn
I0707 08:38:41.401947 27914 net.cpp:357] inception_5b/output -> inception_5b/output
I0707 08:38:41.401964 27914 net.cpp:97] Setting up inception_5b/output
I0707 08:38:41.401974 27914 net.cpp:104] Top shape: 32 1024 7 7 (1605632)
I0707 08:38:41.401985 27914 layer_factory.hpp:78] Creating layer pool5/7x7_s1
I0707 08:38:41.402001 27914 net.cpp:68] Creating Layer pool5/7x7_s1
I0707 08:38:41.402011 27914 net.cpp:395] pool5/7x7_s1 <- inception_5b/output
I0707 08:38:41.402029 27914 net.cpp:357] pool5/7x7_s1 -> pool5/7x7_s1
I0707 08:38:41.402043 27914 net.cpp:97] Setting up pool5/7x7_s1
I0707 08:38:41.402123 27914 net.cpp:104] Top shape: 32 1024 1 1 (32768)
I0707 08:38:41.402139 27914 layer_factory.hpp:78] Creating layer loss3/classifier
I0707 08:38:41.402153 27914 net.cpp:68] Creating Layer loss3/classifier
I0707 08:38:41.402168 27914 net.cpp:395] loss3/classifier <- pool5/7x7_s1
I0707 08:38:41.402184 27914 net.cpp:357] loss3/classifier -> loss3/classifier
I0707 08:38:41.402202 27914 net.cpp:97] Setting up loss3/classifier
I0707 08:38:41.408846 27914 net.cpp:104] Top shape: 32 1000 1 1 (32000)
I0707 08:38:41.408881 27914 layer_factory.hpp:78] Creating layer loss3/loss3
I0707 08:38:41.408896 27914 net.cpp:68] Creating Layer loss3/loss3
I0707 08:38:41.408907 27914 net.cpp:395] loss3/loss3 <- loss3/classifier
I0707 08:38:41.408917 27914 net.cpp:395] loss3/loss3 <- label
I0707 08:38:41.408926 27914 net.cpp:357] loss3/loss3 -> loss3/loss3
I0707 08:38:41.408938 27914 net.cpp:97] Setting up loss3/loss3
I0707 08:38:41.408947 27914 layer_factory.hpp:78] Creating layer loss3/loss3
I0707 08:38:41.409303 27914 net.cpp:104] Top shape: 1 1 1 1 (1)
I0707 08:38:41.409319 27914 net.cpp:110]     with loss weight 1
I0707 08:38:41.409349 27914 net.cpp:171] loss3/loss3 needs backward computation.
I0707 08:38:41.409358 27914 net.cpp:171] loss3/classifier needs backward computation.
I0707 08:38:41.409373 27914 net.cpp:171] pool5/7x7_s1 needs backward computation.
I0707 08:38:41.409387 27914 net.cpp:171] inception_5b/output needs backward computation.
…
